local_files/CNN_simple_act.pt (torch, 813115 bytes, 14 tensors)

conv_layer1.weight f4 [16, 3, 3, 3]
0.18038449 0.16910979 0.12545043 0.28181392 0.24325696 0.15532026 0.22671445 0.15429237
0.098540194 0.045892615 0.020745 -0.015029348 0.054056477 0.017583057 -0.043695703 0.044248555
-0.0030528232 -0.07801033 -0.12326452 -0.13462539 -0.1384139 -0.10735474 -0.10434687 -0.14980404
-0.107527815 -0.14306442 -0.17065789 -0.0469475 0.0054967836 -0.040519882 0.0871577 0.14601728
0.069400795 0.1292571 0.18949449 0.106087215 0.08030233 0.14399828 0.09389505 0.13064364
0.19173343 0.13460688 0.020712918 0.118030496 0.031781573 0.054755323 0.12123606 0.0572886
0.15262929 0.21776062 0.17161076 0.13552813 0.21112818 0.15440388 -0.03054795 0.012614267
-0.015651047 0.019912867 0.07357314 0.050793093 0.051728755 0.09609569 0.050631415 0.06190127
0.080483645 0.068160035 0.076541774 0.10670066 0.090822555 0.03651825 0.07890499 0.026125614
0.053519707 0.078370355 0.049151745 0.1039267 0.1358441 0.10582559 0.09636126 0.1478379
0.11625671 0.29312328 0.3091495 0.23809138 0.42839554 0.40403464 0.30922404 0.33280003
0.29488263 0.19440787 0.06532225 0.088485286 0.028209992 0.10553264 0.057906583 -0.02802305
0.047580253 0.003866809 -0.07561286 -0.14138988 -0.1248164 -0.14885424 -0.09299818 -0.08983637
-0.13636373 -0.13322605 -0.16222957 -0.18765073 -0.306011 -0.28943315 -0.27097338 -0.33501253
-0.26963812 -0.2123444 -0.2377894 -0.13166627 -0.075658634 -0.013871315 0.05605911 0.068678044
0.0025980617 0.11120453 0.10428217 -0.038424175 0.09131244 0.082994916 0.19379021 0.2208108
0.20199616 0.22364491 0.28642347 0.28815454 0.23954396 0.33394745 0.32445332 -0.0045913514
-0.023755528 0.0066721975 -0.031627845 -0.032529984 -0.02548053 -0.00982023 -0.04235701 -0.032225315
-0.01244661 -0.022635233 -0.015566799 -0.014110851 -0.031327188 -0.0030259902 0.008456569 -0.0055429908
0.01746522 -0.026462724 -0.018535547 -0.010122175 -0.02729325 -0.03238525 -0.008463933 -0.015479413
-0.002683204 -0.024149012 0.039153025 0.036980093 0.039104417 0.027658641 0.043032847 0.009532855
0.024711259 0.0058203754 0.015914403 0.015594497 0.004493304 -0.019428212 0.01130949 0.009292498
-0.009660478 0.02561703 0.014593432 -0.014102483 -0.02315709 -0.02921356 -0.031362478 -0.036989406
-0.01629809 -0.04303842 -0.012603251 -0.046213273 -0.03518286 -0.11719568 -0.10469581 -0.10907671
-0.0649757 -0.019056926 -0.030216306 -0.016648607 0.031340197 0.027611025 0.028862441 0.0863959
0.04463105 0.04143458 0.13393746 0.089549124 0.0070049055 0.08399809 0.05982667 0.10845215
0.12495235 0.1194184 0.1523399 0.20159453 0.16537105 0.15217543 0.20371307 0.18125604
0.05718497 0.06372714 0.058887903 0.079553045 0.06621743 0.036126044 0.060518228 0.03951082
0.027445687 0.025612049 -0.000110455294 -0.004894813 0.025269635 -0.0018561174 -0.008324966 0.025776556
-0.0048274985 0.0012332706 0.0012582601 -0.01492103 -0.0054573873 -0.025100391 -0.010512647 -0.030206688
-0.028578753 -0.016355155 -0.029091882 -0.22269437 -0.19888194 -0.14919356 -0.3099199 -0.28960064
-0.20134751 -0.22937645 -0.17639992 -0.12490258 -0.030023985 -0.030206366 0.01709707 -0.0390209
00000000: b6b6 383e 1e2b 2d3e 1476 003e ea49 903e
00000010: 5a18 793e 460c 1f3e d527 683e d2fe 1d3e
00000020: 71cf c93d e5f9 3b3d 6bf1 a93c a83d 76bc
00000030: 536a 5d3d 580a 903c 44fa 32bd f93d 353d
00000040: e011 48bb e1c3 9fbd 1c72 fcbd 3ddb 09be
00000050: 60bc 0dbe cddc dbbd d0b3 d5bd 3b66 19be
00000060: 8b37 dcbd 7b7f 12be f1c0 2ebe 064c 40bd
00000070: 5d1e b43b 2df8 25bd bc7f b23d 8e85 153e
00000080: 0122 8e3d f95b 043e d80a 423e 4144 d93d
00000090: 8c75 a43d 4974 133e 0c4c c03d 72c7 053e
000000a0: c555 443e 63d6 093e 23ae a93c f9b9 f13d
000000b0: 652d 023d 1e47 603d 9d4a f83d 73a7 6a3d
000000c0: da4a 1c3e a4fc 5e3e bbba 2f3e e3c7 0a3e
000000d0: fc31 583e 0d1c 1e3e b23f fabc 12ac 4e3c
000000e0: a036 80bc 4f20 a33c 84ad 963d 6b0c 503d
000000f0: 88e1 533d d1cd c43d e362 4f3d 308c 7d3d
00000100: 9cd4 a43d 7d97 8b3d efc1 9c3d e085 da3d
00000110: 2d01 ba3d 2994 153d f098 a13d 6205 d63c
00000120: 7b37 5b3d a380 a03d 5753 493d 86d7 d43d
00000130: b71a 0b3e 16bb d83d 0d59 c53d d262 173e
00000140: ff17 ee3d 4114 963e d848 9e3e 3ace 733e
00000150: a956 db3e a1dd ce3e 9d52 9e3e c464 aa3e
00000160: dbfa 963e db12 473e acc7 853d c637 b53d
00000170: a418 e73c 7f21 d83d 742f 6d3d 9890 e5bc
00000180: 83e3 423d 4a6a 7d3b eada 9abd 82c8 10be
00000190: be9f ffbd 3f6d 18be d475 bebd 21fc b7bd
000001a0: efa2 0bbe 696c 08be 821f 26be 8327 40be
000001b0: 79ad 9cbe 9530 94be 06bd 8abe c386 abbe
000001c0: 020e 8abe cf70 59be 117f 73be 86d3 06be
000001d0: eaf2 9abd 8344 63bc 3d9e 653d 13a7 8c3d
000001e0: 3e44 2a3b 33bf e33d e491 d53d ab62 1dbd
000001f0: 0402 bb3d 3df9 a93d f170 463e 3a1c 623e
00000200: 15d8 4e3e 2c03 653e 19a6 923e fe88 933e
00000210: 034b 753e 29fb aa3e bf1e a63e 0c73 96bb
00000220: f49a c2bc 73a2 da3b 338c 01bd 293e 05bd
00000230: 8bbc d0bc 08e5 20bc 8b7e 2dbd b1fe 03bd
00000240: deec 4bbc 866d b9bc e30b 7fbc 3331 67bc
00000250: f050 00bd b14f 46bb 6c8d 0a3c faa1 b5bb
00000260: 3913 8f3c 5bc8 d8bc dcd7 97bc 7bd7 25bc
00000270: 1896 dfbc 65a6 04bd 4fac 0abc 5d9d 7dbc
00000280: b1d8 2fbb 26d4 c5bc ec5e 203d 7078 173d
00000290: f42b 203d 6094 e23c 3643 303d b12f 1c3c
000002a0: 446f ca3c d9b8 be3b ec5e 823c 1080 7f3c
000002b0: 913c 933b ea27 9fbc 704b 393c 903f 183c
000002c0: fb46 1ebc ceda d13c 4a19 6f3c 1a0e 67bc
000002d0: f0b3 bdbc 4751 efbc f175 00bd 3482 17bd
000002e0: 9283 85bc 0e49 30bd de7d 4ebc 214a 3dbd
000002f0: e71b 10bd 4a04 f0bd c26a d6bd 9c63 dfbd
00000300: fb11 85bd 451d 9cbc 3088 f7bc a962 88bc
00000310: 945e 003d 8430 e23c ed70 ec3c 55f0 b03d
00000320: 0ccf 363d 4eb7 293d e726 093e 8865 b73d
00000330: 6889 e53b 3107 ac3d cf0c 753d 291c de3d
00000340: 05e7 ff3d a291 f43d fefe 1b3e cc6e 4e3e
00000350: 0757 293e e0d3 1b3e 299a 503e 2f9b 393e
00000360: c93a 6a3d 6083 823d 7134 713d b5ec a23d
00000370: 019d 873d e7f8 133d f6e1 773d 19d6 213d
00000380: c7d5 e03c 5cd0 d13c 3ca4 e7b8 ab64 a0bb
00000390: 4402 cf3c f748 f3ba 7065 08bc 5b29 d33c
000003a0: fe2f 9ebb b2a5 a13a 34ec a43a 5677 74bc
000003b0: e2d3 b2bb 569f cdbc 3d3d 2cbc 0474 f7bc
000003c0: fd1d eabc 3ffb 85bc 1952 eebc fe09 64be
000003d0: b5a7 4bbe 32c6 18be d2ad 9ebe 8946 94be
000003e0: 0b2e 4ebe a9e1 6abe 2ea2 34be edcc ffbd
000003f0: dcf4 f5bc 5773 f7bc 280f 8c3c 61d4 1fbd

conv_layer1.bias f4 [16]
-0.25343144 -0.38378203 -0.15486714 -0.2836263 -0.12220924 -0.00091178657 -0.05762207 -0.1931292
0.0613597 0.2034321 0.40480718 -0.082966715 -0.24102448 -0.06533078 0.12573901 0.070871495
00000000: c4c1 81be 147f c4be 7e95 1ebe 7737 91be
00000010: d748 fabd f604 6fba 1f05 6cbd a9c3 45be
00000020: 4f54 7b3d 8150 503e e342 cf3e 74ea a9bd
00000030: 1fcf 76be 25cc 85bd bac1 003e 1325 913d

conv_layer2.weight f4 [32, 16, 3, 3]
0.019558623 0.022323377 0.0102276895 0.027208218 0.019238856 0.017897125 0.021859426 0.01867769
0.022029132 0.004874809 0.008069265 0.0028984635 0.0064379233 -0.0008880092 -0.005952486 0.00208078
-0.0026603944 -0.012905212 -0.0024445294 -0.00363951 0.0027715382 0.0064729364 -0.005088007 -0.0065743825
0.0016427168 -0.0013525775 -0.013470859 0.016243502 0.020728635 0.019945651 0.026083786 0.029854532
0.019236462 0.02193203 0.025782041 0.015875613 -0.010093179 -0.024490034 -0.018881414 -0.030447606
-0.02046401 -0.02059964 -0.030316643 -0.026997559 -0.025194572 -4.0648443e-05 0.0024643012 6.938292e-05
0.0010164789 0.0014207069 -0.0019149582 -0.0037955155 -0.0023146393 0.0006808403 0.006509946 0.005728903
1.2557623e-05 0.004679214 0.0013115271 -0.0031308536 -0.0010135961 0.0095752785 0.0046516587 -0.0017176217
-0.005697139 -0.008085019 -0.004633844 -0.005639271 -0.013166387 -0.00749585 -0.011099831 -0.015959157
-0.0015542952 0.0042676036 -0.0016844802 0.007900814 0.00094263704 0.0078463815 0.007248663 3.670294e-05
0.007085025 -0.024220148 -0.01967364 -0.011331903 -0.024436453 -0.021516697 -0.019327018 -0.016955206
-0.014863622 -0.021885721 -0.0009656708 -0.00057004805 -0.0028875095 -0.0033751077 -0.0022522083 0.0061573926
-0.0010619181 0.005179024 0.009982875 -0.0068937386 -0.019694464 -0.017978014 -0.012551578 -0.026665691
-0.025879826 -0.012903941 -0.02583624 -0.016456552 0.0005724949 0.0021309846 -0.0057917866 -0.005455444
-0.004979919 -0.0019140453 0.0003505157 0.00040916412 -0.010782902 0.01107603 0.004243562 0.009292755
0.014438712 0.0123668695 0.0017442106 0.013670217 0.012334776 0.007792071 -0.0053347927 -0.003397883
0.0029509747 0.0030097594 0.0033874994 0.0018658206 -0.007679236 -0.0030828097 -0.0014496397 -0.011963894
-0.008137538 -0.0073030386 -0.011765962 -0.0117676705 -0.005704673 -0.0032902765 -0.010646965 -0.0066365153
0.017868007 0.01721024 0.019868666 0.012186095 0.022997415 0.018835299 0.02161065 0.023435978
0.0181366 0.003433064 0.0022469144 -0.004920281 1.1884159e-05 0.005934951 0.002774533 -0.0021853175
-0.0049169823 -0.0028372975 -0.00079010567 -0.010941098 -0.009167189 -0.003564529 -0.011825808 -0.0040014726
-0.008484242 -0.0010528589 -0.011289642 0.00957623 0.012497516 0.0073693427 0.0073183808 0.012265607
0.004537051 0.009293769 0.01091467 0.006459043 0.00089370593 -0.0056428243 -0.0072878515 -0.005319034
-0.0027409557 0.00048504779 -0.0036589485 -0.0024437534 0.0010691044 0.003778228 0.00028556617 0.00051066466
0.0058068936 0.008294051 0.006636511 0.0006055675 0.0009682746 0.0007421176 0.0037065172 0.006631793
0.0011754093 0.0033266747 0.00052844966 0.008297484 0.0045020264 0.003177328 0.0021283845 -0.0048982515
-0.0061791292 -0.009244486 -0.004393819 -0.008203103 0.0019629695 -0.0013897516 -0.0020376814 -0.00097286934
-0.0059914035 -0.006534337 -0.005007403 -0.0031197877 -0.010219792 -0.012851001 -0.0070193587 -0.0035789118
-0.004735661 -0.016261294 -0.0143727 -0.008056044 -0.012058888 -0.018795561 -0.0073290933 -0.0118405875
-0.017875586 -0.010273958 0.00043950992 -0.007475336 0.0049066967 -0.00922189 -0.003068637 0.002349462
-0.0045524347 -0.0027846924 0.003367929 3.6398666e-05 -0.012355978 -0.00015043863 -0.012552097 -0.0061065992
-0.0020101431 -0.01431291 -0.003713827 -0.008890509 0.0071966243 -0.00063089485 -0.0014333411 -0.00016821804
00000000: 6839 a03c 84df b63c 0a92 273c c5e3 de3c
00000010: ce9a 9d3c fe9c 923c 8a12 b33c f401 993c
00000020: 7076 b43c ddbc 9f3b f334 043c 26f4 3d3b
00000030: 37f5 d23b 4ac9 68ba 120d c3bb b25d 083b
00000040: 035a 2ebb 6270 53bc 6634 20bb d884 6ebb
00000050: b2a2 353b ed1a d43b 4cb9 a6bb eb6d d7bb
00000060: 6e50 d73a f848 b1ba e1b4 5cbc 1811 853c
00000070: 19cf a93c 1065 a33c aaad d53c 7e91 f43c
00000080: c995 9d3c cdaa b33c dc34 d33c 930d 823c
00000090: dc5d 25bc 539f c8bc 32ad 9abc 426d f9bc
000000a0: 24a4 a7bc 94c0 a8bc 9c5a f8bc fc29 ddbc
000000b0: d964 cebc ef7d 2ab8 1d80 213b ac81 9138
000000c0: 5f3b 853a 0337 ba3a 56ff faba 2fbe 78bb
000000d0: 34b1 17bb 6b7a 323a 6351 d53b 86b9 bb3b
000000e0: 95ae 5237 1854 993b 8ce7 ab3a 022f 4dbb
000000f0: a4da 84ba a1e1 1c3c f16c 983b d221 e1ba
00000100: 11af babb 0777 04bc 80d7 97bb a2c9 b8bb
00000110: d4b7 57bc bf9f f5bb 11dc 35bc c7bc 82bc
00000120: 7eb9 cbba 41d7 8b3b c7c9 dcba 6a72 013c
00000130: 4d1b 773a 1c8e 003c 3186 ed3b 7bf1 1938
00000140: 7f29 e83b 5569 c6bc 9d2a a1bc 72a9 39bc
00000150: f52e c8bc c943 b0bc b253 9ebc a5e5 8abc
00000160: 8d86 73bc af49 b3bc 1225 7dba 476f 15ba
00000170: 5f3c 3dbb e930 5dbb c999 13bb f4c3 c93b
00000180: 0f30 8bba cdb4 a93b 368f 233c dfe4 e1bb
00000190: 4956 a1bc a146 93bc 22a5 4dbc 0272 dabc
000001a0: ee01 d4bc 0d6b 53bc 86a6 d3bc e4cf 86bc
000001b0: 7b13 163a fda7 0b3b 07c9 bdbb 95c3 b2bb
000001c0: 972e a3bb b4e0 faba 6cc5 b739 1485 d639
000001d0: c5aa 30bc 3d78 353c 940d 8b3b a440 183c
000001e0: 5990 6c3c 699e 4a3c ff9d e43a 0cf9 5f3c
000001f0: cd17 4a3c a154 ff3b 7ccf aebb 04af 5ebb
00000200: 2465 413b 623f 453b cf00 5e3b 8d8e f43a
00000210: 1aa2 fbbb f708 4abb d601 beba 3504 44bc
00000220: 4f53 05bc 544e efbb 05c6 40bc 30cd 40bc
00000230: 44ee babb aea1 57bb 9c70 2ebc 2077 d9bb
00000240: ed5f 923c 7dfc 8c3c 9dc3 a23c 30a8 473c
00000250: 1365 bc3c 7c4c 9a3c d108 b13c cffc bf3c
00000260: 3593 943c 42fd 603b f840 133b 4f3a a1bb
00000270: 1362 4737 fa79 c23b f0d4 353b 8b37 0fbb
00000280: a31e a1bb f4f1 39bb 181f 4fba 4b42 33bc
00000290: fa31 16bc df9a 69bb 09c1 41bc c91e 83bb
000002a0: 7d01 0bbc 1500 8aba 31f8 38bc 9fe5 1c3c
000002b0: 62c2 4c3c 877a f13b 07cf ef3b aff5 483c
000002c0: 8bab 943b e444 183c 72d3 323c 61a6 d33b
000002d0: 9747 6a3a 71e7 b8bb eece eebb 4b4b aebb
000002e0: 9ba1 33bb 034e fe39 f8ca 6fbb 6127 20bb
000002f0: 3121 8c3a 269c 773b 0bb8 9539 20de 053a
00000300: c147 be3b c5e3 073c 1777 d93b f2be 1e3a
00000310: cfd3 7d3a ab8a 423a 0ae9 723b 834f d93b
00000320: 3110 9a3a 5704 5a3b a887 0a3a 2cf2 073c
00000330: bc85 933b b83a 503b 5e7c 0b3b 8381 a0bb
00000340: 4b7a cabb 2f76 17bc 06fa 8fbb 4f66 06bc
00000350: 2aa5 003b 5328 b6ba 9f8a 05bb 2808 7fba
00000360: 8953 c4bb fe1d d6bb 2415 a4bb 5a75 4cbb
00000370: ea70 27bc 018d 52bc a602 e6bb 2d8c 6abb
00000380: 9b2d 9bbb 6836 85bc 797b 6bbc 7ffd 03bc
00000390: a492 45bc 26f9 99bc e428 f0bb 06ff 41bc
000003a0: d26f 92bc 1a54 28bc 066e e639 aaf3 f4bb
000003b0: 5bc8 a03b 6917 17bc 301b 49bb 6ef9 193b
000003c0: 972c 95bb 637f 36bb 79b8 5c3b c5aa 1838
000003d0: ba70 4abc 10bf 1db9 50a7 4dbc de19 c8bb
000003e0: 9bbc 03bb b280 6abc ae63 73bb 7fa9 11bc
000003f0: a9d1 eb3b a362 25ba f2de bbba b063 30b9

conv_layer2.bias f4 [32]
-0.028679095 -0.10025079 -0.1319334 0.1266497 -0.08581864 0.07751558 -0.032528773 0.026594691
0.042254653 -0.017999781 0.038688183 0.06169379 -0.047057565 -0.053217575 0.109276466 0.0136618
-0.00579253 0.10430256 0.09990979 -0.07313871 0.1683709 0.110001504 0.010697392 -0.2075413
-0.028301425 -0.017651346 0.10566854 -0.06604358 -0.03621323 -0.0025373145 -0.052831605 -0.03220289
00000000: 6cf0 eabc 4950 cdbd 8d19 07be 75b0 013e
00000010: afc1 afbd 7dc0 9e3d e43c 05bd 1cdd d93c
00000020: 3713 2d3d 4774 93bc 8077 1e3d a1b2 7c3d
00000030: 6fbf 40bd acfa 59bd 57cc df3d bed5 5f3c
00000040: 43cf bdbb 959c d53d 819d cc3d bfc9 95bd
00000050: 6c69 2c3e 7848 e13d 1d44 2f3c b585 54be
00000060: 64d8 e7bc 8e99 90bc bf68 d83d db41 87bd
00000070: 5354 14bd 1349 26bb f465 58bd 2de7 03bd

conv_layer3.weight f4 [32, 32, 3, 3]
0.025524925 0.019193297 0.009933822 0.03149557 0.02847027 0.021719659 0.027723884 0.016576027
0.006707653 -0.0057207467 -0.008321474 -0.010852963 -0.00650911 -0.0049396055 -0.0036047206 0.0002055287
-0.00038893553 -0.0111079225 0.006079739 0.007270459 -0.0022386662 0.019895045 0.008973076 0.0011993735
0.012673068 -0.001190666 -0.008401689 0.0741682 0.078196935 0.06153926 0.09962778 0.091986604
0.07358418 0.090322405 0.079885654 0.059229307 -0.0020813246 -0.0015590703 -0.0038571325 -0.0013124711
-0.000643588 -0.010543573 -0.009245322 -0.0030500696 -0.0072225574 0.045888577 0.047257084 0.046723504
0.05205017 0.06338852 0.0556714 0.039706074 0.054296758 0.046307337 -0.04815079 -0.04371347
-0.03138997 -0.05905194 -0.048671976 -0.03973195 -0.046423346 -0.042430587 -0.03167952 -0.0112017905
-0.0061415182 -0.0014639714 -0.007856412 0.0017095032 0.008484249 -0.0047777616 0.0029854954 0.01185895
0.0070046335 0.009436265 0.008234761 0.0076897023 0.0106058465 0.012567992 0.0074416823 0.019168714
0.017712755 0.011579945 0.0128792375 0.014036481 0.011222993 0.013406593 0.009933647 0.010126745
0.008338662 0.008792373 -0.109005935 -0.10761462 -0.08152408 -0.14378259 -0.13485308 -0.099120334
-0.11899378 -0.10241909 -0.07232187 -0.061420668 -0.05896331 -0.040116373 -0.076983646 -0.07209236
-0.054067347 -0.07019847 -0.04764224 -0.026493182 0.103124924 0.092817955 0.07366029 0.12988348
0.124808915 0.09463389 0.10914172 0.08880882 0.06478274 -0.0032059401 -0.0077985567 -0.0038715852
-0.0060619987 -0.0018565266 -0.00621947 -0.00070058013 -0.00096181885 -0.0032769018 -0.023836128 -0.013528227
-0.008248033 -0.03340423 -0.014749575 -0.0012358867 -0.030253088 -0.0024087585 0.0010809876 0.04171322
0.04146447 0.03467087 0.049452502 0.056573484 0.03838813 0.04345666 0.04119571 0.026459543
-0.014128136 -0.01493004 -0.0064104395 -0.022078408 -0.01295739 -0.0076934323 -0.01289637 -0.010688148
-0.0075164326 0.073509835 0.08590205 0.07376043 0.083737634 0.10466853 0.094266705 0.06488626
0.087379985 0.07188139 -0.021193482 -0.010480347 -0.009140104 -0.036287677 -0.018104086 -0.0011743351
-0.031676978 -0.005423873 0.010062794 0.004172011 -0.00015416721 -0.0018519335 0.0039537563 -0.0023316918
-0.009040452 0.0022820637 -0.012549822 -0.008870154 -0.041415405 -0.033325892 -0.02036935 -0.06458788
-0.04262728 -0.022386078 -0.05380682 -0.021363528 0.0010483107 0.04292849 0.04824099 0.043278024
0.048430797 0.06220177 0.054662716 0.046850983 0.055130374 0.043838836 0.068955734 0.066155724
0.054646343 0.09206821 0.08555983 0.06288751 0.0783821 0.06375887 0.04574006 -0.110524245
-0.11606993 -0.10180778 -0.13400942 -0.141884 -0.123692505 -0.11159959 -0.123400554 -0.0939801
-0.10886517 -0.11125235 -0.09631586 -0.13991779 -0.14912586 -0.114356056 -0.116328634 -0.11867013
-0.091918156 0.014274879 0.00524867 -0.0016067346 0.018008117 0.004370602 -0.0048321458 0.019566046
-0.00082909607 -0.0087019745 -0.00219928 -0.003390028 0.0016770823 -0.0022838532 -0.011204893 -0.00041005804
0.004318521 -0.0050966702 0.0007672016 0.1320147 0.13142182 0.1030539 0.17157751 0.16979825
0.12872064 0.13529287 0.13239034 0.09076457 -0.04818199 -0.05595636 -0.04442846 -0.062348045
00000000: a619 d13c 433b 9d3c 78c1 223c 8001 013d
00000010: 7c3a e93c 6ded b13c 331d e33c 73ca 873c
00000020: dfcb db3b 1a75 bbbb cb56 08bc a0d0 31bc
00000030: 5f4a d5bb 6adc a1bb 2d3d 6cbb 3183 5739
00000040: 0bea cbb9 01fe 35bc 8c38 c73b 083d ee3b
00000050: 96b6 12bb effa a23c cf03 133c 4c34 9d3a
00000060: b3a2 4f3c 1f10 9cba 3da7 09bc 7fe5 973d
00000070: b725 a03d 9710 7c3d a609 cc3d 7963 bc3d
00000080: 4db3 963d f4fa b83d 179b a33d 6e9a 723d
00000090: d566 08bb b859 ccba f2c7 7cbb 3907 acba
000000a0: 76b6 28ba f3be 2cbc b179 17bc ade3 47bb
000000b0: 34ab ecbb a9f5 3b3d a590 413d 2561 3f3d
000000c0: 8f32 553d d7d1 813d b207 643d d6a2 223d
000000d0: 4766 5e3d c3ac 3d3d c339 45bd e50c 33bd
000000e0: c592 00bd 72e0 71bd 445c 47bd f8bd 22bd
000000f0: 6826 3ebd b2cb 2dbd 62c2 01bd b787 37bc
00000100: ca3e c9bb bbe2 bfba 2eb8 00bc 6911 e03a
00000110: 8501 0b3c c58e 9cbb 4da8 433b 0b4c 423c
00000120: 2087 e53b 909a 1a3c 17eb 063c e6f9 fb3b
00000130: 25c4 2d3c fbe9 4d3c 5bd9 f33b b507 9d3c
00000140: 571a 913c cfb9 3d3c 7003 533c 45f9 653c
00000150: a5e0 373c 54a7 5b3c bcc0 223c a6ea 253c
00000160: e29e 083c e30d 103c 813e dfbd 0e65 dcbd
00000170: 19f6 a6bd be3b 13be ed16 0abe 9aff cabd
00000180: 03b3 f3bd 1ac1 d1bd 7d1d 94bd 3d94 7bbd
00000190: 8383 71bd 1151 24bd 9aa9 9dbd 29a5 93bd
000001a0: b975 5dbd 37c4 8fbd 8224 43bd 3b08 d9bc
000001b0: 2933 d33d 5717 be3d 35db 963d 2d00 053e
000001c0: d19b ff3d 6acf c13d b285 df3d 66e1 b53d
000001d0: d0ac 843d c01a 52bb 098b ffbb 6cba 7dbb
000001e0: bba3 c6bb b256 f3ba b2cc cbbb 23a7 37ba
000001f0: 9222 7cba 4ac1 56bb fc43 c3bc 7fa5 5dbc
00000200: c222 07bc e0d2 08bd 34a8 71bc 7afd a1ba
00000210: 53d5 f7bc 43dc 1dbb edaf 8d3a 7bdb 2a3d
00000220: a6d6 293d 0b03 0e3d b58e 4a3d 99b9 673d
00000230: df3c 1d3d 9cff 313d d5bc 283d afc1 d83c
00000240: b379 67bc 209d 74bc aa0e d2bb c7dd b4bc
00000250: 3c4b 54bc 3019 fcbb 4c4b 53bc 581d 2fbc
00000260: 684c f6bb 538c 963d 6aed af3d b50f 973d
00000270: a37e ab3d 745c d63d e70e c13d 16e3 843d
00000280: 47f4 b23d 8d36 933d f49d adbc c3b5 2bbc
00000290: 60c0 15bc 63a2 14bd 054f 94bc 26ec 99ba
000002a0: b8bf 01bd bfba b1bb 6bde 243c 5db5 883b
000002b0: f2a7 21b9 94bc f2ba 838e 813b 4ccf 18bb
000002c0: 671e 14bc ad8e 153b c59d 4dbc 1f54 11bc
000002d0: 33a3 29bd bb80 08bd a0dd a6bc a746 84bd
000002e0: f199 2ebd 0263 b7bc 8a64 5cbd 9102 afbc
000002f0: 7867 893a c9d5 2f3d 5898 453d 4c44 313d
00000300: 5f5f 463d 48c7 7e3d 03e6 5f3d d1e6 3f3d
00000310: 63d0 613d 5a90 333d aa38 8d3d a77c 873d
00000320: d8d4 5f3d 428e bc3d fe39 af3d 2bcb 803d
00000330: cb86 a03d 0394 823d ee59 3b3d 895a e2bd
00000340: 12b6 edbd 9980 d0bd c439 09be 0a4a 11be
00000350: 7f52 fdbd 538e e4bd 6eb9 fcbd a378 c0bd
00000360: b4f4 debd 46d8 e3bd 4041 c5bd 9c46 0fbe
00000370: 73b4 18be 8233 eabd b53d eebd 5309 f3bd
00000380: 963f bcbd 2fe1 693c 09fd ab3b 1199 d2ba
00000390: c285 933c 4437 8f3b fa56 9ebb f948 a03c
000003a0: b257 59ba ba92 0ebc cc21 10bb 3b2b 5ebb
000003b0: 8bd1 db3a b3ac 15bb ba94 37bc 0ffd d6b9
000003c0: 6182 8d3b f801 a7bb 071e 493a dd2e 073e
000003d0: 7193 063e ec0d d33d 04b2 2f3e 98df 2d3e
000003e0: 58cf 033e 378a 0a3e 5591 073e c6e2 b93d
000003f0: 7a5a 45bd 7f32 65bd 9efa 35bd aa60 7fbd

conv_layer3.bias f4 [32]
0.1351835 0.052217875 -0.07075285 -0.0039617824 0.0058885044 -0.00043450313 0.089610405 0.04962231
0.023298161 -0.0004752235 0.0491517 0.07209318 -0.11980012 0.08685314 0.028639972 0.06599193
-0.0037492258 0.016154842 -0.006211234 -0.030666323 0.031108206 -0.0024265412 0.039320108 -0.0024858348
0.20799346 0.023045434 -0.0040247976 0.0026382147 0.11024309 0.0036396494 0.06563995 0.103732474
00000000: 8b6d 0a3e 69e2 553d dfe6 90bd d7d1 81bb
00000010: 5bf4 c03b 06ce e3b9 a985 b73d c340 4b3d
00000020: c9db be3c 6b27 f9b9 4b53 493d 97a5 933d
00000030: c459 f5bd 0fe0 b13d 609e ea3c c726 873d
00000040: 92b5 75bb 2957 843c 9b87 cbbb f137 fbbc
00000050: a3d6 fe3c 9b06 1fbb 1f0e 213d 63e9 22bb
00000060: 3dfc 543e c7c9 bc3c 73e2 83bb e6e5 2c3b
00000070: 21c7 e13d 2f87 6e3b 3d6e 863d b171 d43d

conv_layer4.weight f4 [64, 32, 3, 3]
-0.039211255 0.011975041 -0.0014617885 -0.04585024 0.0012363247 -0.024215272 -0.047064465 -0.02823968
-0.040320132 -0.03376165 0.031084504 0.029481346 -0.043230794 0.07933594 0.063137256 -0.060070004
0.032040864 0.023116956 -0.0049893023 0.010452101 0.01159342 -0.0051451726 0.018755171 0.026385851
-0.01110707 0.013735867 0.023558915 -0.005878674 -0.00011839494 0.0008250654 -0.004017707 -0.0069886874
-0.00405037 -0.008136305 -0.003860691 -0.005958598 -0.011551902 -0.0012454562 -0.0006594722 -0.007457386
-0.007128105 -0.009048137 -0.0114869205 -0.004210692 -0.008547813 0.0032473535 -0.0015750658 -0.00035846815
0.0023134998 -0.0026783335 0.0002195433 -0.0025525016 -9.241548e-05 0.0015577816 -0.012128924 -0.02488635
-0.014426229 -0.04412393 -0.03627874 -0.016975643 -0.05447433 -0.04908594 -0.034778155 -0.009561092
-0.0077985367 -0.013630513 -0.0115266815 -0.017830757 -0.008853869 -0.0058215936 -0.007114567 -0.0074035483
-0.03016286 0.02958935 0.023862276 -0.030185917 0.06502171 0.052785575 -0.044647023 0.022506401
0.020230742 -0.0101740295 0.008796725 0.01212473 -0.020960262 0.03411399 0.04241299 -0.029949395
0.019551553 0.023544345 -0.017738456 0.010966666 0.0053053154 -0.02305357 0.01955289 0.022507856
-0.017745225 0.010129188 0.006200809 -0.013690782 0.007178366 0.006854066 -0.019579316 0.018720744
0.0024770424 -0.026952654 -0.004178182 -0.007014792 0.004636668 0.020656541 0.02240007 -0.005274725
0.03637438 0.037320886 -0.010420831 0.021472992 0.020011066 -0.012317412 -0.021111209 -0.012969521
-0.015165247 -0.01922909 -0.020115905 -0.020860763 -0.016057188 -0.01769332 -0.015584744 0.006709296
0.0054255384 -0.015880581 0.024525383 0.008886855 -0.017506417 0.0022969323 -0.0004039886 -0.019420257
0.010267738 0.012328104 -0.042408418 0.04577056 0.06441443 -0.04459968 0.029581128 0.03339651
-0.00096919085 -0.0010127607 0.0011016192 0.0006377307 -0.0028240543 0.0016952018 -0.0045763454 -0.0042467685
0.0011876861 0.0006492497 -0.003203611 -0.0062119924 -0.004008929 -0.0088272635 -0.0063967216 -0.0063298563
-0.0013949326 0.0006814788 -0.014436559 0.00045783597 -0.004741353 -0.025248712 -0.004568858 -0.024100563
-0.024674077 -0.01870233 -0.020995062 0.0038845895 0.0054575163 0.003764916 0.00312394 -0.00044114277
0.002326022 0.0031970814 0.0017859977 0.008312632 -0.00066477654 -0.0022272372 -0.0037210102 -0.01043478
0.008029235 0.009557714 -0.011677812 0.0064172535 0.0044765654 0.0016660665 0.0016682051 0.0022752278
-0.00075992866 -0.0032257764 -0.0008495653 0.0037706296 0.0006681426 -0.00482157 -0.00945712 -0.006222571
-0.008235345 -0.0037659532 -0.014718152 -0.009037904 -0.007815712 -0.009984021 -0.0039847 0.0017584169
-0.001434312 6.0423452e-05 -0.003500504 -0.0002799966 0.004238858 -0.0019095029 -0.0047625448 -0.0021642942
-0.029508546 -0.043512844 -0.03576139 -0.043134846 -0.053308994 -0.054414775 -0.056417875 -0.060706504
-0.05482863 -0.011238357 -0.0148354 -0.008345552 -0.028578436 -0.010356608 0.0057750586 -0.040019576
-0.021976313 -0.007714325 -0.002659163 -0.0022016577 0.004111492 0.0001627516 0.0023311377 0.00056623056
-0.0019284358 -0.0032378258 -0.00343858 0.00396523 -0.001711077 -0.0020707739 0.002251442 0.0037848598
0.0010958571 0.00019271557 0.00056564756 0.0038039037 -0.014421693 0.0018264134 -0.0045265304 -0.021828368
00000000: fb9b 20bd f632 443c 7c99 bfba 76cd 3bbd
00000010: 2c0c a23a 1b5f c6bc abc6 40bd e756 e7bc
00000020: b926 25bd a849 0abd eea4 fe3c dd82 f13c
00000030: c612 31bd e27a a23d 1b4e 813d f70b 76bd
00000040: 483d 033d c55f bd3c 4d7d a3bb 4a3f 2b3c
00000050: 54f2 3d3c d698 a8bb 72a4 993c 2427 d83c
00000060: 6efa 35bc 670c 613c a0fe c03c e4a1 c0bb
00000070: cd4a f8b8 3449 583a f8a6 83bb 5c01 e5bb
00000080: f7b8 84bb 234e 05bc a603 7dbb 5840 c3bb
00000090: 3044 3dbc 933e a3ba 6ee0 2cba 165d f4bb
000000a0: e192 e9bb a33e 14bc a333 3cbc d8f9 89bb
000000b0: 200c 0cbc 8dd1 543b 7072 ceba c8f0 bbb9
000000c0: 169e 173b fb86 2fbb 3535 6639 df47 27bb
000000d0: 2fcf c1b8 7a2e cc3a 65b8 46bc 75de cbbc
000000e0: fd5b 6cbc 4bbb 34bd 0499 14bd 8110 8bbc
000000f0: 7a20 5fbd 570e 49bd 8a73 0ebd 20a6 1cbc
00000100: de8a ffbb 8452 5fbc 68da 3cbc cf11 92bc
00000110: d10f 11bc 11c3 bebb 5021 e9bb 7799 f2bb
00000120: 1a18 f7bc 5d65 f23c d27a c33c 7548 f7bc
00000130: 1a2a 853d b035 583d ccdf 36bd 585f b83c
00000140: f1ba a53c f9b0 26bc 2420 103c cea6 463c
00000150: dbb4 abbc 1cbb 0b3d 3eb9 2d3d 6f58 f5bc
00000160: 942a a03c 12e0 c03c 3d50 91bc 88ad 333c
00000170: 36d8 ad3b d7da bcbc 622d a03c 6562 b83c
00000180: 6f5e 91bc e5f4 253c 2830 cb3b 4d4f 60bc
00000190: 8038 eb3b 1398 e03b cd64 a0bc 3f5c 993c
000001a0: e055 223b d0cb dcbc 22e9 88bb 57dc e5bb
000001b0: 31ef 973b e837 a93c 5a80 b73c 9ad7 acbb
000001c0: 4dfd 143d c9dd 183d 22bc 2abc 21e8 af3c
000001d0: 3fee a33c f8ce 49bc 6af1 acbc 1d7e 54bc
000001e0: a877 78bc 5386 9dbc 1cca a4bc 31e4 aabc
000001f0: 5d8a 83bc 95f1 90bc 2757 7fbc a7d9 db3b
00000200: b7c8 b13b fe17 82bc 75e9 c83c 2c9a 113c
00000210: 9e69 8fbc 2188 163b 6fce d3b9 3b17 9fbc
00000220: 043a 283c d1fb 493c 73b4 2dbd e979 3b3d
00000230: b6eb 833d 27ae 36bd 1f54 f23c c7ca 083d
00000240: 4c11 7eba 9cbe 84ba 3564 903a 622d 273a
00000250: c513 39bb 8931 de3a 2bf5 95bb 7a28 8bbb
00000260: 22ac 9b3a 6932 2a3a acf3 51bb f88d cbbb
00000270: 555d 83bb 3aa0 10bc 979b d1bb af6a cfbb
00000280: 2cd6 b6ba 45a5 323a 5187 6cbc b409 f039
00000290: 5a5d 9bbb 63d6 cebc 5cb6 95bb 8b6e c5bc
000002a0: 4a21 cabc a135 99bc d6fd abbc 9994 7e3b
000002b0: f7d4 b23b cfbc 763b 04bb 4c3b 2e49 e7b9
000002c0: 2c70 183b 2086 513b 2318 ea3a b531 083c
000002d0: 6644 2eba d7f6 11bb 31dc 73bb a4f6 2abc
000002e0: 0d8d 033c f597 1c3c 4b54 3fbc d347 d23b
000002f0: 27b0 923b ea5f da3a ada7 da3a fd1b 153b
00000300: f335 47ba 8c67 53bb 5db5 5eba ab1c 773b
00000310: 4a26 2f3a 43fe 9dbb 09f2 1abc b5e6 cbbb
00000320: 8aed 06bc 36ce 76bb 6724 71bc b813 14bc
00000330: 790d 00bc 0594 23bc 1692 82bb ae7a e63a
00000340: 86ff bbba 306f 7d38 b668 65bb 82cc 92b9
00000350: 1ee6 8a3b 4948 faba 1f0f 9cbb d5d6 0dbb
00000360: e8bb f1bc 863a 32bd 897a 12bd 2aae 30bd
00000370: 885a 5abd 07e2 5ebd 6e16 67bd 62a7 78bd
00000380: fc93 60bd 1621 38bc 2d10 73bc c8bb 08bc
00000390: 531d eabc c3ae 29bc b43c bd3b 91eb 23bd
000003a0: ab07 b4bc 73c8 fcbb 5a45 2ebb b049 10bb
000003b0: b2b9 863b 4da8 2a39 00c6 183b 176f 143a
000003c0: 91c3 fcba b431 54bb cd59 61bb c3ee 813b
000003d0: 3846 e0ba d2b5 07bb ee8c 133b 690b 783b
000003e0: dda2 8f3a b113 4a39 f747 143a ea4a 793b
000003f0: f748 6cbc 4464 ef3a 4a53 94bb 68d1 b2bc

conv_layer4.bias f4 [64]
-0.052666318 0.029511148 -0.03232827 0.070878305 -0.028484887 -0.032076586 -0.022827717 0.011014812
0.014699472 -0.050928764 -0.02254647 -0.039932404 -0.03715461 0.017119836 0.03216246 -0.01831018
0.02383145 0.03781595 -0.07019858 -0.02718879 0.04705391 0.018107269 -0.04294423 -0.0014480633
-0.044676434 -0.00023829767 -0.04762437 0.049080554 0.012838166 -0.02823746 0.056903835 -0.0124292085
0.011070398 -0.025651358 0.014139261 0.025390845 0.01655115 0.028777719 0.01735457 -0.037982773
0.013616883 0.0060519096 0.06174734 0.01277251 0.050086647 -0.0241201 -0.023878481 -0.064716145
0.036928285 -0.024711855 -0.029060291 0.022007816 0.064739525 0.032278974 0.038124114 0.035560597
-0.021971192 0.03764873 0.042471264 -0.004373289 0.050946902 -0.005939212 0.011271536 -0.014013306
00000000: a3b8 57bd 5dc1 f13c a66a 04bd a528 913d
00000010: 2359 e9bc bd62 03bd 3101 bbbc 7877 343c
00000020: 0ed6 703c ae9a 50bd 60b3 b8bc 2990 23bd
00000030: 6f2f 18bd e63e 8c3c c9bc 033d 3bff 95bc
00000040: 2c3a c33c e6e4 1a3d 46c4 8fbd 06bb debc
00000050: 9abb 403d b255 943c 4ae6 2fbd f1cc bdba
00000060: a3fe 36bd 8bdf 79b9 c511 43bd b108 493d
00000070: 2c57 523c 3f52 e7bc ff13 693d e1a3 4bbc
00000080: 9d60 353c cc22 d2bc 5ca8 673c 7600 d03c
00000090: 4796 873c 40bf eb3c 2c2b 8e3c d393 1bbd
000000a0: 5919 5f3c 194f c63b c7ea 7c3d ca43 513c
000000b0: a827 4d3d 8497 c5bc ce9c c3bc e689 84bd
000000c0: 1d42 173d 8470 cabc d90f eebc bc49 b43c
000000d0: 2896 843d f536 043d 0828 1c3d fda7 113d
000000e0: eefc b3bc 8e35 1a3d 59f6 2d3d cf4d 8fbb
000000f0: b3ad 503d b99d c2bb 40ac 383c 1198 65bc

conv_layer5.weight f4 [64, 64, 3, 3]
-0.017162288 -0.024656279 -0.010140096 -0.0024363755 7.577944e-05 0.003888262 0.008019943 0.007221353
0.012910802 -0.02823263 -0.033303563 -0.03176322 0.02116105 0.013829319 0.014707041 0.020056892
0.026627127 0.028678827 -0.00445368 -0.0060305116 -0.0042728446 0.005662297 0.0013137478 0.0017384519
-0.0025088363 0.001989833 0.004610959 -0.0044711772 -0.0017662453 -0.021270731 0.037280332 0.028190529
0.0055580316 -0.007531442 -0.007669724 -0.014640265 -0.010112848 -0.007807285 -0.004795982 0.0046471404
0.008529152 0.0071490956 0.0162297 0.017409554 0.019540226 -0.0060956804 -0.007711142 -0.0019491288
-0.025823632 -0.02210512 -0.007809465 0.0067499774 0.011054092 0.009372229 0.017319039 0.019526249
0.011468102 0.0028176017 0.006562951 1.7633928e-06 -0.02359125 -0.023723109 -0.026485939 0.0045548812
0.009050852 0.008899208 -0.01971551 -0.01602088 -0.018742995 -0.015874803 -0.016009977 -0.019745043
-0.028974364 -0.03612126 -0.022600222 0.011904539 0.005897859 0.0126476465 0.023188228 0.020293305
0.02975949 -0.014840242 -0.021471031 0.010754956 -0.044089027 -0.042961013 -0.00992751 0.011162563
0.0093686925 0.01868283 -0.0040673385 -0.006326496 0.0034066006 -0.032343198 -0.02900593 -0.014497908
-0.005252193 -0.0069706235 -0.0020125774 0.03593958 0.03692297 0.038121022 -0.014423313 -0.012282819
-0.011000642 -0.042847395 -0.051786374 -0.05386367 0.017965073 0.021199677 0.017583208 -0.0048937877
0.0048396867 -0.00072350644 -0.0011744363 0.0012986932 -0.011139277 0.004229224 0.0045045614 0.0044604125
0.0026850575 0.003383895 -0.0026816686 -0.01968371 -0.024144787 -0.020602081 0.033222627 0.02237922
0.019940278 -0.010681014 -0.024030631 -0.021262918 -0.063194245 -0.074675545 -0.066019006 0.04492383
0.043596547 0.038253166 0.017683947 0.012454962 0.005962639 -0.056659132 -0.064948685 -0.063976385
-0.006794489 0.0001955623 -0.01775504 0.0051567303 0.01233532 -0.0067840363 0.0011647306 0.0069927787
-0.0042924364 0.047550905 0.055692002 0.017880935 0.022758445 0.024103466 -0.013163025 -0.062681355
-0.06111328 -0.08153716 -0.022093298 -0.02406649 -0.0029190085 -0.056989476 -0.0497669 -0.027730621
0.0040559145 0.006794136 0.015272289 0.023211757 0.028188372 0.018294903 0.011186782 0.014932293
0.006429741 -0.008261048 -0.0067725256 -0.020702275 0.011483876 0.014464616 -0.0017188467 0.0045307865
0.0018002742 -0.007180629 -0.021099117 -0.018156912 -0.023419196 -0.000458414 -0.0018227941 -0.0018309255
-0.028728368 -0.026141701 -0.02504058 -0.025094517 -0.023268443 -0.018395074 0.011668708 0.014217395
0.011649745 0.009538362 0.022899142 0.01233817 0.022706918 0.023660598 0.016804038 -0.017913586
-0.019998357 -0.008151407 0.021747299 0.017936688 0.025426721 0.04584165 0.043562595 0.047927264
0.07561086 0.08047463 0.061508823 0.0359254 0.03572215 0.017850619 -0.062310886 -0.074405044
-0.08517437 0.029601026 0.02941945 0.021164209 0.016567558 0.017608598 0.0022847245 -0.024408994
-0.023306314 -0.03172697 -0.015123516 -0.02398943 -0.006076564 0.0048476397 0.009616376 0.01823047
0.041056957 0.036234908 0.043384947 0.013635439 0.020473352 0.0036651753 0.036033314 0.029854238
0.014443942 -0.024681881 -0.02224366 -0.032096248 0.050236423 0.06007316 0.03397308 -0.016226346
00000000: ed97 8cbc f7fb c9bc a522 26bc 99ab 1fbb
00000010: c7eb 9e38 36d2 7e3b 1466 033c 19a1 ec3b
00000020: d487 533c 1e48 e7bc 5169 08bd 261a 02bd
00000030: f059 ad3c 5e94 623c cdf5 703c 5a4e a43c
00000040: 2221 da3c dcef ea3c 2df0 91bb 999b c5bb
00000050: 3803 8cbb ca8a b93b 1032 ac3a c4dc e33a
00000060: 4a6b 24bb dc67 023b 8717 973b f482 92bb
00000070: 5c81 e7ba f53f aebc 43b3 183d d3ef e63c
00000080: 2620 b63b 51ca f6bb 4f52 fbbb b9dd 6fbc
00000090: 5cb0 25bc 41d4 ffbb 9d27 9dbb 0a47 983b
000000a0: dbbd 0b3c f642 ea3b 26f4 843c 7b9e 8e3c
000000b0: d312 a03c 46be c7bb bfad fcbb e979 ffba
000000c0: 158c d3bc cc15 b5bc 8ae6 ffbb ea2e dd3b
000000d0: 391c 353c fa8d 193c a8e0 8d3c 83f5 9f3c
000000e0: b5e4 3b3c 83a7 383b 060e d73b b7ad ec35
000000f0: 7042 c1bc f756 c2bc 0af9 d8bc 1d41 953b
00000100: 064a 143c fccd 113c 6c82 a1bc 383e 83bc
00000110: e98a 99bc e00b 82bc 5b27 83bc 5bc0 a1bc
00000120: a55b edbc e3f3 13bd 1a24 b9bc 410b 433c
00000130: d442 c13b 1338 4f3c 3df5 bd3c 253e a63c
00000140: 2dca f33c 7d24 73bc 04e4 afbc 8e35 303c
00000150: b296 34bd e3f7 2fbd ffa6 22bc 2fe3 363c
00000160: 257f 193c bc0c 993c 4f47 85bb 7f4e cfbb
00000170: 4641 5f3b 4d7a 04bd d89d edbc a288 6dbc
00000180: 971a acbb d469 e4bb 72e5 03bb 6235 133d
00000190: 8a3c 173d ca24 1c3d c24f 6cbc e03d 49bc
000001a0: 093c 34bc c080 2fbd f31d 54bd 27a0 5cbd
000001b0: 7d2b 933c f2aa ad3c a90a 903c 115c a0bb
000001c0: 3c96 9e3b b2a9 3dba 8bef 99ba ea38 aa3a
000001d0: 8481 36bc 4d95 8a3b 009b 933b a728 923b
000001e0: caf7 2f3b 56c4 5d3b efbe 2fbb bb3f a1bc
000001f0: 4acb c5bc b2c5 a8bc 7314 083d a054 b73c
00000200: cb59 a33c 6bff 2ebc e3db c4bc 922f aebc
00000210: fc6b 81bd 7eef 98bd f934 87bd 0d02 383d
00000220: 4b92 323d 5aaf 1c3d eddd 903c e60f 4c3c
00000230: 3e62 c33b 6813 68bd d103 85bd 0d06 83bd
00000240: 4ea4 debb db0f 4d39 0573 91bc caf9 a83b
00000250: 151a 4a3c 9f4c debb e0a9 983a ae23 e53b
00000260: 91a7 8cbb bdc4 423d 4c1d 643d 0a7b 923c
00000270: eb6f ba3c a274 c53c baa9 57bc 155f 80bd
00000280: eb51 7abd f4fc a6bd 01fd b4bc 1627 c5bc
00000290: d64c 3fbb cc6d 69bd 60d8 4bbd 542b e3bc
000002a0: 7ae7 843b 58a1 de3b 9f38 7a3c 9526 be3c
000002b0: 4deb e63c 31df 953c c448 373c 94a6 743c
000002c0: 94b0 d23b 5959 07bc 10ec ddbb d197 a9bc
000002d0: de26 3c3c fffc 6c3c ed4a e1ba fe76 943b
000002e0: 2ef7 eb3a 7b4b ebbb 0ed8 acbc cebd 94bc
000002f0: 9dd9 bfbc 4957 f0b9 d2ea eeba aafb efba
00000300: c157 ebbc 1f27 d6bc e721 cdbc 0493 cdbc
00000310: 769d bebc 44b1 96bc 1c2e 3f3c 14f0 683c
00000320: 92de 3e3c ca46 1c3c fb96 bb3c 0926 4a3c
00000330: dc03 ba3c dfd3 c13c 9fa8 893c 83bf 92bc
00000340: 98d3 a3bc 7b8d 05bc 6427 b23c f6ef 923c
00000350: b34b d03c 74c4 3b3d b16e 323d 614f 443d
00000360: ded9 9a3d e2cf a43d adf0 7b3d 8326 133d
00000370: 6451 123d 763b 923c b339 7fbd ac61 98bd
00000380: e66f aebd da7d f23c 0f01 f13c 9060 ad3c
00000390: b0b8 873c e83f 903c 51bb 153b 5ff5 c7bc
000003a0: e2ec bebc 24f4 01bd a0c8 77bc 7b85 c4bc
000003b0: ea1d c7bb f3d8 9e3b 018e 1d3c 1158 953c
000003c0: 572b 283d 0e6b 143d 6ab4 313d 2d67 5f3c
000003d0: bbb7 a73c 7033 703b ab97 133d e090 f43c
000003e0: 49a6 6c3c a831 cabc 5638 b6bc 5b77 03bd
000003f0: b5c4 4d3d 460f 763d 5b27 0b3d 1ded 84bc

conv_layer5.bias f4 [64]
-0.038761377 -0.06823689 0.114345185 0.015976686 0.005766617 0.005979231 0.004519601 -0.028567454
0.013947243 -0.005990071 -0.002151769 -0.074013315 0.0046817414 0.05238597 -0.04212925 -0.022735547
0.049270395 0.0018176041 -0.039549068 -0.019246688 0.010283099 -0.0834092 0.002711563 0.052770622
-0.0025406682 -0.0016113796 0.073510595 -0.03312023 -0.045107007 0.012127974 -0.013361666 -0.15564135
0.0034637959 -0.014504446 -0.05161545 -0.0035572143 0.068003654 -0.046196837 -0.011620469 0.0579476
-0.00087236887 -0.0025084144 0.01947963 0.003926684 -0.008842372 -0.096678555 0.03406707 -0.02232838
-0.029765269 0.07886834 -0.0004190219 -0.00023093601 0.01749866 -0.0661656 0.1243516 0.0015735745
-0.023214389 -0.043112133 -0.00859483 -0.08367738 0.003495196 -0.06114765 -0.002998983 -0.07540148
00000000: 40c4 1ebd c8bf 8bbd cf2d ea3d 8ae1 823c
00000010: e4f5 bc3b 6ded c33b 2919 943b 4b06 eabc
00000020: fa82 643c 5c48 c4bb b104 0dbb 4b94 97bd
00000030: 4b69 993b ac92 563d b88f 2cbd e63f babc
00000040: c1cf 493d ac3c ee3a 34fe 21bd 3bab 9dbc
00000050: 717a 283c 71d2 aabd 7ab4 313b 0226 583d
00000060: 5781 26bb ed34 d3ba b98c 963d 14a9 07bd
00000070: 20c2 38bd 69b4 463c e4ea 5abc 7260 1fbe
00000080: da00 633b 0ea4 6dbc b96a 53bd 2720 69bb
00000090: 8045 8b3d e538 3dbd c863 3ebc 765a 6d3d
000000a0: afaf 64ba 3664 24bb bf93 9f3c 6aab 803b
000000b0: 99df 10bc 68ff c5bd e989 0b3d 02ea b6bc
000000c0: 4bd6 f3bc b985 a13d 2bb0 dbb9 6a27 72b9
000000d0: 5a59 8f3c d581 87bd 0dac fe3d 6640 ce3a
000000e0: 1a2c bebc 5996 30bd 54d1 0cbc 0c5f abbd
000000f0: a90f 653b f575 7abd 968a 44bb 176c 9abd

fc1.weight f4 [128, 1024]
-0.011102367 -0.011580285 0.016447049 -0.013944063 0.022417342 -0.037960377 -0.037922464 -0.039307386
0.012422065 -0.017677423 -0.037767727 -0.015699781 0.0145871425 -0.044851784 -0.053682484 -0.023087647
0.003187133 0.04170579 0.004979564 0.030646445 -0.001680601 0.040023495 0.011234849 0.04123844
-0.031647146 0.024877962 0.03294501 0.035585064 0.048519973 0.028007783 0.017627768 0.029597098
-0.024931284 -0.008852077 0.0063523543 0.033639822 0.013369223 -0.03532428 -0.02546504 -0.0005154998
-0.003061717 0.024014177 0.0005898675 -0.0044209766 -0.04251486 -0.013111536 0.01811568 -0.018622426
-0.0037353497 -0.0004683649 -0.0025096973 0.011687589 0.009726018 -0.0009058399 0.0016039409 -0.0007018648
-0.0011089122 -0.0023852256 -0.01377155 -0.0055873296 0.015675077 0.013499122 0.012385355 0.0055927956
0.006841048 0.002172857 0.0044378582 0.0026024836 -0.0065263296 -0.0064546913 0.005898001 0.0059274454
-0.011988785 0.0029199328 -0.0044476385 0.0074085123 -0.0250607 -0.02682555 -0.025475902 -0.024097854
0.0052711517 0.0049630157 0.002303742 0.0097995 -0.003711593 0.0025523999 -0.0055205356 0.0017655861
-0.0033049854 -0.0018607738 -0.0064988276 0.0019930592 0.012111678 0.0011500908 -0.0044527487 -0.011033536
-0.020712255 -0.030132134 -0.011520685 -0.005000314 -0.0061667133 -0.014122655 -0.023993574 -0.018460015
0.0054437965 -0.0035855628 -0.008589567 -0.008082088 0.008749642 -0.008158257 -0.010702641 0.0018930762
-0.006250539 -0.005122907 -0.012359161 -0.008479557 -0.0073452485 -0.015690804 -0.015034158 -0.0015730293
-0.015313349 0.006978344 0.002647341 0.0024751269 0.02798525 0.0066505815 0.012700496 0.001115271
-0.046522588 -0.039606664 -0.018851906 0.010106109 -0.019981597 -0.0053606373 0.0053926804 0.0074832477
-0.0123395035 0.015510943 0.02332296 -0.0013470397 0.042653617 0.005772134 0.03340995 0.012829008
0.015725708 0.019437518 -0.020540562 0.0025664917 0.0006935344 0.031881485 0.008876283 0.023776596
0.010064207 0.00549608 0.011410318 0.01607159 0.018353797 0.005787964 0.015558119 -0.033225346
0.0023864575 -0.0017440667 -0.0022467854 -0.0012127352 0.0020147576 -0.0017722679 -0.002628988 8.5477055e-05
0.00053603674 0.0012767857 -0.0008294388 0.0011601802 0.0027001183 0.0012760651 0.00013463812 0.0033366473
-0.025517652 0.018463409 -0.014813345 -0.006057141 -0.0031650811 0.02479953 0.0051676016 0.0022910128
-0.03606349 -0.02983885 -0.021870902 -0.010335333 -0.03638565 -0.031076878 -0.049713902 -0.035650786
0.00039725957 -0.006929945 -0.009785598 -0.008101589 -0.0042876424 0.0016823787 -0.0029453197 0.00017443362
0.0038250235 0.006350494 0.0025713986 0.0012939047 0.007009998 -0.0014042746 0.00088234263 0.0061635314
0.029104188 0.007287025 0.026493141 0.038448963 0.032976065 0.011194077 0.024931483 -0.00033882054
0.034076676 0.00017904339 -0.037035313 0.010803654 0.026117602 0.014544473 -0.0035368782 -0.013989478
0.0015700083 0.013063525 0.0088647455 -0.02299656 -0.0015857745 0.01640143 0.0008267459 -0.011967611
0.0022691502 -0.007470306 -0.0118042035 -0.016742384 0.034485858 -0.002892274 -0.015771192 -0.026414657
-0.00795557 0.012533904 0.0049356623 0.013812406 -0.019045496 -0.0143714845 -0.0151599385 -0.01545108
-0.008985851 -0.002006805 -0.0071542487 -0.0021931278 -0.010163994 0.0012780757 0.0028211833 -0.0032620998
00000000: b4e6 35bc 3cbb 3dbc f6bb 863c a475 64bc
00000010: 93a4 b73c 577c 1bbd 9654 1bbd c800 21bd
00000020: eb85 4b3c 3ed0 90bc 55b2 1abd d49c 80bc
00000030: e9fe 6e3c 81b6 37bd 2ae2 5bbd 4e22 bdbc
00000040: 38df 503b b1d3 2a3d 9c2b a33b 410e fb3c
00000050: 9d47 dcba adef 233d 5f12 383c a3e9 283d
00000060: 70a0 01bd decc cb3c 59f1 063d a5c1 113d
00000070: e1bc 463d 9470 e53c 1c68 903c 9d75 f23c
00000080: b13c ccbc 4d08 11bc 6927 d03b e9c9 093d
00000090: 960a 5b3c 31b0 10bd 0f9c d0bc 9b22 07ba
000000a0: 16a7 48bb 61b9 c43c 56a1 1a3a d7dd 90bb
000000b0: 1024 2ebd c5d1 56bc 5667 943c 0f8e 98bc
000000c0: c5cc 74bb df8e f5b9 bc79 24bb 4d7d 3f3c
000000d0: e059 1f3c e375 6dba 533b d23a 59fd 37ba
000000e0: eb58 91ba 7251 1cbb 11a2 61bc eb15 b7bb
000000f0: 0569 803c 6c2b 5d3c f2eb 4a3c c543 b73b
00000100: df2a e03b 7e66 0e3b 746b 913b 6e8e 2a3b
00000110: d2da d5bb e081 d3bb 0544 c13b 043b c23b
00000120: 9c6c 44bc 585c 3f3b 7fbd 91bb 1bc3 f23b
00000130: 194c cdbc 41c1 dbbc d7b2 d0bc dd68 c5bc
00000140: a0b9 ac3b cba0 a23b 61fa 163b 158e 203c
00000150: 333e 73bb 2a46 273b 9ce5 b4bb 3d6b e73a
00000160: 7498 58bb 35e5 f3ba 1ef4 d4bb fc9d 023b
00000170: 0f70 463c a5be 963a 5de8 91bb 01c6 34bc
00000180: bfac a9bc aad7 f6bc 41c1 3cbc add9 a3bb
00000190: 2412 cabb b562 67bc 2c8e c4bc 7539 97bc
000001a0: e061 b23b c3fb 6abb 41bb 0cbc bc6a 04bc
000001b0: a95a 0f3c 36aa 05bc 215a 2fbc 1921 f83a
000001c0: 52d1 ccbb 0fde a7bb 147e 4abc d7ed 0abc
000001d0: 69b0 f0bb 008a 80bc d451 76bc 1b2e ceba
000001e0: d7e4 7abc 98aa e43b 037f 2d3b bd35 223b
000001f0: 5341 e53c 1fed d93b be15 503c 492e 923a
00000200: 788e 3ebd 993a 22bd 506f 9abc 1894 253c
00000210: 72b0 a3bc 49a8 afbb 15b5 b03b 0836 f53b
00000220: a12b 4abc 9c21 7e3c cb0f bf3c 278f b0ba
00000230: 8fb5 2e3d 2b24 bd3b dfd8 083d c230 523c
00000240: 33d3 803c 6e3b 9f3c ae44 a8bc 9632 283b
00000250: 4ece 353a 2996 023d d46d 113c 23c7 c23c
00000260: 58e4 243c 7618 b43b 58f2 3a3c 91a8 833c
00000270: b45a 963c f6a8 bd3b 7be7 7e3c 4d17 08bd
00000280: 1d66 1c3b 2b99 e4ba ce3e 13bb a4f4 9eba
00000290: 060a 043b 714b e8ba 194b 2cbb 2542 b338
000002a0: d184 0c3a d259 a73a b26e 59ba 3011 983a
000002b0: 78f4 303b a441 a73a a52d 0d39 a7ab 5a3b
000002c0: 650a d1bc 9340 973c acb3 72bc fb7a c6bb
000002d0: 406d 4fbb 6228 cb3c fc54 a93b d124 163b
000002e0: 4fb7 13bd 9b70 f4bc 9b2a b3bc 8755 29bc
000002f0: 1f09 15bd f094 febc cea0 4bbd 8f06 12bd
00000300: 4747 d039 9814 e3bb c653 20bc 87bc 04bc
00000310: 5a7f 8cbb 4383 dc3a 4406 41bb 2be8 3639
00000320: 3fad 7a3b ce17 d03b e984 283b 3d98 a93a
00000330: 20b4 e53b a30f b8ba 034d 673a 73f7 c93b
00000340: e86b ee3c ffc7 ee3b 2508 d93c a97c 1d3d
00000350: e911 073d 5d67 373c 1c3d cc3c b9a3 b1b9
00000360: fc93 0b3d 98bd 3b39 57b2 17bd cf01 313c
00000370: 95f4 d53c f14b 6e3c f8ca 67bb 2034 65bc
00000380: bdc8 cd3a 6508 563c 703d 113c 4863 bcbc
00000390: c3d9 cfba 4b5c 863c fab9 583a cc13 44bc
000003a0: 06b6 143b 78c9 f4bb 6b66 41bc 5327 89bc
000003b0: 0b41 0d3d 4e8c 3dbb 9632 81bc 8d63 d8bc
000003c0: 1458 02bc 015b 4d3c 56bb a13b 6e4d 623c
000003d0: 4d05 9cbc 6076 6bbc 6461 78bc 8726 7dbc
000003e0: 6439 13bc 9a84 03bb 306e eabb 94ba 0fbb
000003f0: e186 26bc 1b85 a73a 9ae3 383b f4c8 55bb

fc1.bias f4 [128]
0.029568626 0.081385195 0.038791593 0.084217146 0.071472496 -0.1182648 0.039612178 -0.020920334
-0.0010848952 -0.008790093 -0.017785365 -0.03880124 -0.0021076074 0.09199561 0.08438369 -0.009815322
-0.051781006 0.008921895 -0.034720305 0.038994636 0.026692605 0.020697413 -0.08309091 0.058522608
-0.045305412 0.02415642 0.0123277465 -0.06285036 0.0022573704 0.0804463 0.09330465 0.028720714
0.06648708 0.011042468 0.037707727 0.07979448 -0.036547046 0.013316618 0.045346063 -0.0027727718
0.07738102 0.08689449 0.0045536156 0.028002437 -0.02870761 0.03456737 -0.006538559 0.076946005
0.07205623 -0.035434145 -0.046193417 0.123792686 -0.028082293 -0.05028526 0.043189324 0.106435105
-0.020915715 0.011474612 0.028098276 -0.0120150335 0.021125115 0.021386871 -0.011167935 -0.0265068
0.06501804 0.06571368 0.006150611 -0.046959557 -0.018273035 0.036960512 0.012260753 -0.07024728
-0.006424423 -0.004210279 0.020514337 0.021095514 0.02067728 -0.033666395 0.0072454656 0.031723946
0.040910132 -0.0005806507 -0.015775539 0.037093796 -0.052645918 -0.0042162887 0.052155122 -0.012597247
0.002831569 0.011195787 -0.0010862664 0.035092734 -0.018709714 0.00026850135 -0.0062100925 -0.03245205
-0.08700491 0.022507895 -0.042825643 9.677054e-06 0.0093189385 -0.064425215 0.08022367 0.034826502
-0.045921303 -0.0039085867 0.10739931 0.015773408 0.027406849 0.018984599 0.050605778 0.019498883
-0.018240832 -0.0756492 -0.018941266 0.0062081926 0.087415844 0.0019386354 -0.06425641 -0.031154973
0.021363372 0.07615607 0.05575239 0.014994477 -0.0009782031 -0.018249122 0.022614405 0.08075369
00000000: e739 f23c 48ad a63d efe3 1e3d 0a7a ac3d
00000010: 2c60 923d d134 f2bd 6140 223d 1f61 abbc
00000020: 0b33 8eba 5204 10bc 9db2 91bc 0dee 1ebd
00000030: c91f 0abb 3268 bc3d 5bd1 ac3d 72d0 20bc
00000040: 5218 54bd 242d 123c e136 0ebd d7b8 1f3d
00000050: 73aa da3c 9f8d a93c 912b aabd 67b5 6f3d
00000060: 2b92 39bd afe3 c53c 51fa 493c b1b7 80bd
00000070: 64f0 133b 08c1 a43d 8216 bf3d b447 eb3c
00000080: 612a 883d 78eb 343c 6b73 1a3d 4a6b a33d
00000090: 5bb2 15bd f22d 5a3c cbbc 393d 64b7 35bb
000000a0: f179 9e3d bdf5 b13d 7f36 953b 5e65 e53c
000000b0: 392c ebbc 8496 0d3d 6941 d6bb de95 9d3d
000000c0: 3792 933d 6523 11bd 4f35 3dbd 0587 fd3d
000000d0: d60c e6bc ebf7 4dbd 4ae7 303d a6fa d93d
000000e0: 6f57 abbc 0300 3c3c 5b2e e63c b4da 44bc
000000f0: 940e ad3c 8533 af3c b7f9 36bc ca24 d9bc
00000100: 2e28 853d e594 863d 118b c93b aa58 40bd
00000110: 55b1 95bc e863 173d 53e1 483c cedd 8fbd
00000120: f783 d2bb 61f6 89bb af0d a83c 80d0 ac3c
00000130: 6663 a93c c6e5 09bd 5f6b ed3b f8f0 013d
00000140: 6291 273d cf36 18ba b43b 81bc aaef 173d
00000150: 3fa3 57bd cb28 8abb 9ca0 553d af64 4ebc
00000160: d891 393b 896e 373c 0d61 8eba 66bd 0f3d
00000170: 1d45 99bc a4c5 8c39 087e cbbb 71ec 04bd
00000180: a12f b2bd 7a62 b83c f169 2fbd a15a 2237
00000190: 76ae 183c 5ef1 83bd 4f4c a43d 3ca6 0e3d
000001a0: fa17 3cbd 9a13 80bb 2bf4 db3d 3c37 813c
000001b0: 5484 e03c 9785 9b3c 0148 4f3d 1fbc 9f3c
000001c0: cc6d 95bc f8ed 9abd b72a 9bbc 186e cb3b
000001d0: 1407 b33d cf19 fe3a dd98 83bd b738 ffbc
000001e0: 3d02 af3c b7f7 9b3d 9e5c 643d 65ab 753c
000001f0: 0d37 80ba 2f7f 95bc d841 b93c 3162 a53d
