local_files/CNN_simple_.pt (torch, 813115 bytes, 14 tensors)

conv_layer1.weight f4 [16, 3, 3, 3]
-0.010577246 0.030538501 0.040276494 -0.19845805 -0.16544676 -0.14366533 -0.33049476 -0.3008617
-0.27418223 -0.0764222 -0.060371544 -0.051208105 -0.16453548 -0.15368399 -0.13715455 -0.20555492
-0.1947157 -0.17489026 0.19779894 0.17500526 0.15397346 0.12858647 0.099468224 0.08013789
0.112349555 0.07714832 0.056365572 0.31669733 0.3442563 0.31060898 0.10239202 0.121244706
0.11808509 -0.1717198 -0.16515821 -0.14269626 -0.20153126 -0.17609608 -0.19091798 -0.28537366
-0.27063054 -0.26128125 -0.36061212 -0.3560245 -0.3260982 0.1753301 0.17976734 0.15093495
0.08358324 0.08405285 0.07818567 0.0063144295 -0.0009319649 0.007827296 -0.1683674 -0.1697277
-0.14555877 -0.099675275 -0.09745668 -0.08911532 0.021712508 0.029705206 0.023563739 0.09607912
0.08740458 0.099253565 0.117926575 0.11393118 0.112926826 0.14959912 0.15044889 0.13883251
-0.00914207 -0.020878842 -0.0111269215 0.021607952 0.010311538 0.0062672934 0.06096671 0.05262322
0.03785136 -0.06518984 -0.038824208 -0.023747707 -0.16612864 -0.14355256 -0.12662306 -0.21183975
-0.19007239 -0.17392069 -0.018233132 -0.010693395 -0.0005695647 -0.069111116 -0.06292391 -0.052534875
-0.08542557 -0.078036875 -0.068391584 0.12611896 0.10729786 0.09739238 0.0917335 0.06848691
0.054098286 0.09417572 0.06817014 0.049070626 -0.0051774 0.019522084 0.025774678 -0.116919056
-0.09677226 -0.08364853 -0.19499816 -0.17678571 -0.16146584 -0.04550843 -0.035038732 -0.029648114
-0.09756731 -0.09094532 -0.08060875 -0.1212226 -0.114999965 -0.103161484 0.11899113 0.10523712
0.09300924 0.07753034 0.060248826 0.049460944 0.067906395 0.047090277 0.035003923 -0.07614957
-0.08176637 -0.070902936 -0.019464424 -0.022416318 -0.020978304 0.053809743 0.05474028 0.048079822
0.055703968 0.049475763 0.054087173 0.07682807 0.073537156 0.07097862 0.09647975 0.09624638
0.087990694 -0.026744043 -0.02975141 -0.022061052 -0.003937309 -0.0055449624 -0.0052191904 0.016255392
0.016891127 0.012423502 -0.13020441 -0.09805227 -0.060870986 -0.15201165 -0.120445676 -0.09803074
-0.08408725 -0.046539895 -0.039709557 0.07381012 0.076276675 0.098961905 0.04733935 0.05228396
0.060486175 0.060906455 0.071996994 0.06770958 0.21822795 0.186161 0.18154147 0.21065369
0.17391661 0.15007925 0.2422951 0.20459601 0.1668112 0.18240249 0.17263117 0.14961351
0.19199468 0.1825593 0.16704358 0.13312022 0.12008615 0.11430834 -0.054562602 -0.05146682
-0.0644 -0.04220972 -0.041704547 -0.04653578 -0.055913437 -0.05952692 -0.05706089 -0.015341594
0.0003966162 -0.0028158065 -0.020040955 -0.0024256166 0.0047880085 -0.050936714 -0.03403852 -0.017374784
0.063039556 0.089004375 0.08410283 -0.09274716 -0.07279334 -0.062465917 -0.23598386 -0.22180286
-0.20141427 -0.097207904 -0.08182199 -0.082147114 -0.16435172 -0.1555606 -0.14406121 -0.20557238
-0.1992025 -0.18053363 0.1202395 0.111692674 0.0936338 0.061537415 0.04871328 0.03928481
0.033611964 0.015499932 0.009326251 -0.047425743 -0.060067542 -0.05923354 0.004075446 -0.0065815463
-0.0096925525 0.051689778 0.042884577 0.036337774 0.029170798 0.022899484 0.022064175 0.052853733
00000000: 2f4c 2dbc e12b fa3c f7f8 243d 9638 4bbe
00000010: e06a 29be 011d 13be 9c36 a9be 8b0a 9abe
00000020: 9d61 8cbe 3e83 9cbd 2748 77bd 97bf 51bd
00000030: fd7b 28be 565f 1dbe 3e72 0cbe fd7c 52be
00000040: 8d63 47be 6f16 33be ce8b 4a3e 9434 333e
00000050: 38ab 1d3e 2cac 033e ffb5 cb3d 561f a43d
00000060: 8617 e63d f0ff 9d3d 96df 663d 2726 a23e
00000070: 5d42 b03e 2408 9f3e e8b2 d13d 254f f83d
00000080: 98d6 f13d 51d7 2fbe 3c1f 29be f81e 12be
00000090: 365e 4ebe 8852 34be 0180 43be 7f1c 92be
000000a0: 1690 8abe a8c6 85be 27a2 b8be d848 b6be
000000b0: 58f6 a6be bc89 333e ee14 383e b18e 1a3e
000000c0: b12d ab3d e723 ac3d cf1f a03d 46e9 ce3b
000000d0: 1b4f 74ba 0f3e 003c 8168 2cbe 19cd 2dbe
000000e0: 5c0d 15be 8d22 ccbd 5e97 c7bd 1882 b6bd
000000f0: 6ede b13c 5558 f33c be08 c13c 21c5 c43d
00000100: 2c01 b33d 7445 cb3d 7d83 f13d c054 e93d
00000110: 2e46 e73d 8330 193e 460f 1a3e 1c2a 0e3e
00000120: 9fc8 15bc 1b0a abbc b14d 36bc 2903 b13c
00000130: baf1 283c de5d cd3b 3bb8 793d 728b 573d
00000140: 070a 1b3d 4082 85bd 2206 1fbd 8d8a c2bc
00000150: a01d 2abe 71ff 12be 7aa9 01be 85ec 58be
00000160: 56a2 42be 4418 32be a65d 95bc 5933 2fbc
00000170: d74e 15ba 218a 8dbd 40de 80bd cf2e 57bd
00000180: 9af3 aebd ccd1 9fbd e310 8cbd 5425 013e
00000190: fbbe db3d a875 c73d c6de bb3d dd42 8c3d
000001a0: 2a96 5d3d 33df c03d c99c 8b3d 48fe 483d
000001b0: 2ea7 a9bb c7ec 9f3c 6b25 d33c 4273 efbd
000001c0: 8930 c6bd ec4f abbd 99ad 47be 5007 35be
000001d0: 4d57 25be 0c67 3abd c684 0fbd 9ae0 f2bc
000001e0: 5fd1 c7bd 8a41 babd 3316 a5bd 8e43 f8bd
000001f0: 1a85 ebbd 5446 d3bd 9fb1 f33d 8f86 d73d
00000200: a17b be3d 3ac8 9e3d 79c7 763d 8f97 4a3d
00000210: 8212 8b3d bce1 403d 4660 0f3d 4ef4 9bbd
00000220: 2075 a7bd 8f35 91bd db73 9fbc 6da2 b7bc
00000230: b1da abbc 9b67 5c3d 5837 603d 59ef 443d
00000240: d829 643d 19a7 4a3d 838a 5d3d 0958 9d3d
00000250: a69a 963d 3d5d 913d 2d97 c53d d21c c53d
00000260: 7734 b43d 5316 dbbc 3bb9 f3bc 61b9 b4bc
00000270: 8b04 81bb 84b2 b5bb be05 abbb 072a 853c
00000280: 435f 8a3c f28b 4b3c 4e54 05be a1cf c8bd
00000290: db53 79bd f1a8 1bbe 39ac f6bd 57c4 c8bd
000002a0: f035 acbd 9ea0 3ebd 7da6 22bd c329 973d
000002b0: f236 9c3d 8aac ca3d e8e6 413d b527 563d
000002c0: 5ac0 773d 0c79 793d 2973 933d 52ab 8a3d
000002d0: 2677 5f3e fda0 3e3e 02e6 393e 9ab5 573e
000002e0: 3217 323e 60ae 193e 351c 783e 9e81 513e
000002f0: 8ed0 2a3e b8c7 3a3e 3ac6 303e 4934 193e
00000300: 419a 443e d3f0 3a3e 790d 2b3e ab50 083e
00000310: baef f53d 7e1a ea3d 097d 5fbd dfce 52bd
00000320: 26e4 83bd 19e4 2cbd 63d2 2abd 4d9c 3ebd
00000330: 7d05 65bd 80d2 73bd aeb8 69bd 4f5b 7bbc
00000340: edf0 cf39 6589 38bb ee2c a4bc 18f7 1ebb
00000350: bae4 9c3b 04a3 50bd fa6b 0bbd 9055 8ebc
00000360: e21a 813d ed47 b63d 1b3e ac3d 39f2 bdbd
00000370: ad14 95bd 43dc 7fbd c1a5 71be 4a20 63be
00000380: 8b3f 4ebe f014 c7bd 4a92 a7bd bf3c a8bd
00000390: d14b 28be 474b 1fbe c884 13be 9181 52be
000003a0: bdfb 4bbe cfdd 38be 2140 f63d 21bf e43d
000003b0: 14c3 bf3d a80e 7c3d 9487 473d 1ce9 203d
000003c0: b3ac 093d 6df3 7d3c 22cd 183c 7f41 42bd
000003d0: 6209 76bd de9e 72bd 528b 853b 03aa d7bb
000003e0: 83cd 1ebc a9b8 533d bda7 2f3d ebd6 143d
000003f0: 99f7 ee3c b397 bb3c eebf b43c 287d 583d

conv_layer1.bias f4 [16]
-0.027804272 -0.104228 0.05353017 -0.00026539937 -0.016351959 0.028838128 0.0499137 -0.03580957
-0.043775033 0.013057285 0.030818373 0.06411223 -0.024829706 0.048885565 -0.022180062 -0.018288985
00000000: c9c5 e3bc 7d75 d5bd 7442 5b3d 4d25 8bb9
00000010: 8bf4 85bc f03d ec3c 4f72 4c3d 0ead 12bd
00000020: 734d 33bd 39ee 553c d076 fc3c 464d 833d
00000030: ab67 cbbc 3b3c 483d f6b2 b5bc c8d2 95bc

conv_layer2.weight f4 [32, 16, 3, 3]
-0.008427859 -0.007631838 -0.0059889695 0.032009806 0.036096547 0.03352484 0.063023366 0.07097684
0.06656473 0.055312183 0.052651465 0.045937564 0.08950073 0.091204114 0.081264175 0.08710685
0.09140739 0.083017014 -0.035805166 -0.03374853 -0.030626586 -0.047303252 -0.046330065 -0.041608334
-0.041601308 -0.041472025 -0.03710204 -0.017615208 -0.016633544 -0.014276204 0.0052870107 0.008408637
0.0079562925 0.027847514 0.033363733 0.03184696 -0.0048862956 -0.0048584887 -0.0040579448 0.0187641
0.021271586 0.019654222 0.036699835 0.041377258 0.038836762 -0.015823998 -0.014836193 -0.01409474
-0.026772786 -0.02656244 -0.024050351 -0.028378023 -0.0295438 -0.026632776 -0.049504474 -0.044889305
-0.046296053 -0.053223867 -0.04779099 -0.044708204 -0.04881229 -0.043095656 -0.037103195 0.033480134
0.03187883 0.026445536 0.023614546 0.021782808 0.018610358 -0.0006413344 -0.0034124102 -0.0042563993
0.011988436 0.01095468 0.011388948 0.044817813 0.046957444 0.043127727 0.06502968 0.07026001
0.06463156 -0.0022886633 -0.0027324276 -0.00068880396 -0.008760465 -0.010373186 -0.008916293 -0.008449437
-0.010390879 -0.010043416 -0.029315146 -0.02880411 -0.02121076 -0.013823249 -0.013087279 -0.009568797
0.018222844 0.020762606 0.019882543 -0.06399437 -0.05676505 -0.061302535 -0.074885674 -0.06755241
-0.06333548 -0.07933146 -0.0722194 -0.06261607 0.036156207 0.031959385 0.034604173 0.030822165
0.025287677 0.024321388 0.025585381 0.018918924 0.014919586 -0.035929877 -0.03522843 -0.027313042
-0.0314947 -0.03133979 -0.02657093 -0.0055364594 -0.0045787757 -0.0034420989 0.010440529 0.0085909795
0.01187168 0.029362326 0.029016735 0.027177695 0.04640113 0.047264274 0.04305344 0.017402796
0.014947065 0.017449632 0.024508966 0.022193043 0.021297619 0.031514212 0.029518677 0.025926853
-0.07911575 -0.063088946 -0.051400043 -0.04860229 -0.027884642 -0.020136373 -0.017442057 0.009590203
0.015669016 0.019008737 0.018063864 0.015236811 0.06923208 0.07409337 0.06777243 0.08192887
0.09318726 0.08812957 -0.039442673 -0.03324677 -0.029423743 -0.05879456 -0.054486025 -0.048126888
-0.061329547 -0.05891039 -0.052129265 -0.065579794 -0.052758195 -0.04354109 -0.052104406 -0.036961626
-0.029842706 -0.032223064 -0.013533495 -0.0072904034 -0.047190048 -0.037840236 -0.030883592 -0.028946439
-0.016720248 -0.012287533 -0.010962302 0.0055799023 0.009177306 -0.008778604 -0.007870865 -0.007826798
-0.021646112 -0.022141276 -0.020199647 -0.027218405 -0.029425591 -0.02692456 -0.10493362 -0.08589053
-0.07994173 -0.1086953 -0.08789793 -0.074960165 -0.110525064 -0.08851679 -0.07081475 0.05752051
0.047635276 0.037766896 0.06475762 0.054711584 0.046742376 0.048927028 0.038076237 0.032759216
-0.031651467 -0.024187593 -0.01760942 -0.0030106078 0.007961298 0.009812666 0.020109626 0.03662529
0.036733452 0.016874025 0.013337944 0.012919109 0.006096933 0.0010669528 -0.00030264014 0.004060912
-0.0027722614 -0.005005563 -0.047998436 -0.03931092 -0.027789814 -0.055290632 -0.047297142 -0.04029191
-0.03279876 -0.023791946 -0.021530306 -0.13891067 -0.11335809 -0.10867181 -0.14257357 -0.11472835
-0.09755768 -0.15323503 -0.12411232 -0.098362446 0.09915551 0.080499195 0.074571244 0.09151162
00000000: 0115 0abc 7f14 fabb 1e3f c4bb b71c 033d
00000010: f9d9 133d 5851 093d 6512 813d 4e5c 913d
00000020: 1753 883d 078f 623d 10a9 573d 0729 3c3d
00000030: 294c b73d 39c9 ba3d d56d a63d 1465 b23d
00000040: cc33 bb3d d304 aa3d 70a8 12bd e63b 0abd
00000050: 9be4 fabc 0ec1 41bd 98c4 3dbd 806d 2abd
00000060: 2266 2abd 92de 29bd 4ff8 17bd c54d 90bc
00000070: 1243 88bc bde6 69bc a93e ad3b 61c4 093c
00000080: 1c5b 023c 7820 e43c 69a8 083d f571 023d
00000090: 381d a0bb f533 9fbb 82f8 84bb 2bb7 993c
000000a0: c041 ae3c e401 a13c 9152 163d 337b 293d
000000b0: 4c13 1f3d 54a1 81bc 8113 73bc a0ed 66bc
000000c0: 9a52 dbbc 7999 d9bc 3e05 c5bc 0779 e8bc
000000d0: d705 f2bc fb2c dabc 34c5 4abd d9dd 37bd
000000e0: eea0 3dbd 4501 5abd 7cc0 43bd f31f 37bd
000000f0: 65ef 47bd 1285 30bd 85f9 17bd 7722 093d
00000100: 6093 023d 4fa4 d83c 4b73 c13c dc71 b23c
00000110: c074 983c 391f 28ba bea2 5fbb 4479 8bbb
00000120: 256b 443c 427b 333c b698 3a3c e292 373d
00000130: 7356 403d b3a6 303d 482e 853d 7be4 8f3d
00000140: 8d5d 843d 66fd 15bb 8712 33bb da90 34ba
00000150: 0e88 0fbc 4cf4 29bc a515 12bc 826f 0abc
00000160: 813e 2abc 248d 24bc 5126 f0bc 99f6 ebbc
00000170: 30c2 adbc e97a 62bc 076c 56bc 72c6 1cbc
00000180: 1348 953c 5716 aa3c b7e0 a23c 7b0f 83bd
00000190: 7882 68bd 5e18 7bbd a95d 99bd eb58 8abd
000001a0: 08b6 81bd 8878 a2bd c4e7 93bd db3c 80bd
000001b0: 8818 143d d8e7 023d 1bbd 0d3d c47e fc3c
000001c0: 1a28 cf3c a63d c73c 6f98 d13c dcfb 9a3c
000001d0: 4771 743c 352b 13bd b04b 10bd 9abf dfbc
000001e0: 9600 01bd 275e 00bd 47ab d9bc 306b b5bb
000001f0: 8e09 96bb d694 61bb c10e 2b3c 2ec1 0c3c
00000200: 6f81 423c 4389 f03c 81b4 ed3c c2a3 de3c
00000210: 1c0f 3e3d 2f98 413d ce58 303d 4f90 8e3c
00000220: 89e4 743c 88f2 8e3c 07c7 c83c 2fce b53c
00000230: 5878 ae3c 0c15 013d 27d1 f13c 8d64 d43c
00000240: 7007 a2bd c734 81bd da88 52bd 3213 47bd
00000250: 556e e4bc 09f5 a4bc a5e2 8ebc 3a20 1d3c
00000260: 4f5c 803c 36b8 9b3c abfa 933c d1a3 793c
00000270: 8cc9 8d3d 44be 973d 46cc 8a3d 53ca a73d
00000280: f6d8 be3d 477d b43d a48e 21bd c42d 08bd
00000290: 100a f1bc 91d2 70bd bd2c 5fbd b320 45bd
000002a0: b134 7bbd 054c 71bd 7f85 55bd b34e 86bd
000002b0: fa18 58bd 2458 32bd 6e6b 55bd 1365 17bd
000002c0: b178 f4bc 55fc 03bd 98bb 5dbc 56e4 eebb
000002d0: 5a4a 41bd 5dfe 1abd 96ff fcbc 1521 edbc
000002e0: e7f8 88bc a651 49bc 3a9b 33bc 9dd7 b63b
000002f0: 695c 163c 22d4 0fbc cdf4 00bc f83b 00bc
00000300: 3053 b1bc 9f61 b5bc bb79 a5bc 22f9 debc
00000310: f00d f1bc e590 dcbc 70e7 d6bd 60e7 afbd
00000320: 7db8 a3bd a49b debd d403 b4bd b784 99bd
00000330: f75a e2bd 4a48 b5bd 5307 91bd a09a 6b3d
00000340: 351d 433d 76b1 1a3d a59f 843d 4119 603d
00000350: ef74 3f3d b567 483d d4f5 1b3d 872e 063d
00000360: f8a4 01bd 0f25 c6bc a141 90bc 9e4d 45bb
00000370: 1b70 023c 4ec5 203c f1bc a43c 6604 163d
00000380: d175 163d 653b 8a3c 6487 5a3c acaa 533c
00000390: c8c8 c73b ffd8 8b3a acab 9eb9 6611 853b
000003a0: d4ae 35bb b505 a4bb 029a 44bd 7d04 21bd
000003b0: 77a7 e3bc 6e78 62bd a6ba 41bd 2109 25bd
000003c0: fe57 06bd 54e7 c2bc 5360 b0bc 993e 0ebe
000003d0: 4928 e8bd 538f debd cefe 11be b2f6 eabd
000003e0: 52cc c7bd a5e9 1cbe 9a2e febd 4072 c9bd
000003f0: 0b12 cb3d c3dc a43d cfb8 983d 726a bb3d

conv_layer2.bias f4 [32]
-0.0053830696 -0.012343662 0.025267644 0.005987959 -0.015945276 -0.0030777573 0.002762884 0.020801837
0.010899005 0.0040405984 -0.007872484 -0.018130645 -0.03889206 0.024759391 0.025103474 -0.007798036
-0.0057610623 0.020492949 0.012525605 0.018060727 0.0040969644 -0.0016497384 -0.003227691 -0.009458301
-0.009062127 -0.013262984 -0.028146151 -0.014528331 0.008230933 0.032207657 -0.02072236 -0.009786214
00000000: 7664 b0bb 123d 4abc 17fe ce3c a436 c43b
00000010: ab9f 82bc 33b4 49bb 8011 353b 9d68 aa3c
00000020: be91 323c ff66 843b 97fb 00bc b886 94bc
00000030: 484d 1fbd 35d4 ca3c cda5 cd3c ab86 ffbb
00000040: 4bc7 bcbb d4e0 a73c 3238 4d3c 17f4 933c
00000050: d43f 863b 093c d8ba ab87 53bb fdf6 1abc
00000060: 5179 14bc fd4c 59bc c292 e6bc 3d08 6ebc
00000070: 09db 063c 2dec 033d f0c1 a9bc 5b56 20bc

conv_layer3.weight f4 [32, 32, 3, 3]
-0.027521424 -0.027977716 -0.02791697 -0.035348784 -0.036309328 -0.034961898 -0.034205154 -0.034747686
-0.03325106 -0.009814259 -0.0132313045 -0.016400091 -0.0063144253 -0.009894138 -0.01214383 0.004368313
0.0012652276 -0.0011532344 -0.039419774 -0.039385542 -0.040606182 -0.047577605 -0.048198245 -0.0476346
-0.05088372 -0.051583547 -0.050250456 -0.023838596 -0.023761824 -0.024180863 -0.029812517 -0.030278917
-0.02952978 -0.030564627 -0.031014176 -0.029924786 -0.0076583205 -0.0064493767 -0.004254007 -0.01436393
-0.0135597205 -0.010884514 -0.015873037 -0.0145927705 -0.012336704 -0.006769672 -0.00465938 -0.002353066
-0.013412094 -0.011445337 -0.008968396 -0.01829023 -0.01665636 -0.014243541 0.01129044 0.012029396
0.012395904 0.01334454 0.014312588 0.0142436335 0.011475604 0.012298115 0.012041254 -0.053933762
-0.052278418 -0.05203364 -0.06987417 -0.069446534 -0.06660332 -0.07661545 -0.07622719 -0.0723489
-0.01534442 -0.0111345565 -0.007618402 -0.02698332 -0.023293372 -0.019210918 -0.038605537 -0.035445146
-0.031233933 0.012095809 0.008506956 0.0047352496 0.023394054 0.020276736 0.016146252 0.03192417
0.028930075 0.02500888 -0.01058296 -0.0122248195 -0.013245329 -0.0114782285 -0.013053572 -0.013493843
-0.0068842326 -0.008232419 -0.00852866 0.0007233657 0.004755308 0.009697273 -0.00948113 -0.005763223
-0.0009484248 -0.017157217 -0.01364093 -0.009459449 0.0065562436 0.0054547293 0.0066821566 0.005972743
0.0046942504 0.005925097 0.013099589 0.012596464 0.012853181 -0.011853595 -0.012275443 -0.013911346
-0.011817705 -0.012070361 -0.013290182 -0.013862114 -0.014510923 -0.015072909 0.0046530818 0.0040906603
0.002364539 0.009690122 0.009672928 0.00736374 0.008084109 0.0074614165 0.00572832 -0.002503484
-0.0029234977 -0.002711188 -0.0032808944 -0.00385104 -0.0035512736 -0.0015109075 -0.0018850603 -0.0017257328
-0.028664581 -0.025069268 -0.02120088 -0.044775307 -0.04209628 -0.03695297 -0.05329721 -0.050502352
-0.04537936 -0.040642846 -0.040733702 -0.041864898 -0.049705647 -0.050248574 -0.04974892 -0.052369952
-0.05298467 -0.05133552 0.019981483 0.019753123 0.018734751 0.0274677 0.027702136 0.025826532
0.026712451 0.026788954 0.024832487 -0.027239297 -0.025704587 -0.025151065 -0.036142282 -0.03502428
-0.03340384 -0.042287316 -0.04153554 -0.039051075 0.0010581076 0.0010056415 0.0010217646 0.0019025714
0.0019997698 0.0017171457 0.0012726649 0.0012891396 0.0010721388 -0.0023943356 -0.0018200905 -0.001097502
-0.0042340388 -0.003698098 -0.0031740547 -0.0051902197 -0.004814512 -0.004213345 -0.00050001807 -0.00017493594
0.0001629547 -0.0015991267 -0.0013748426 -0.00083639025 -0.0018744032 -0.001459498 -0.0012569161 0.018199448
0.018356398 0.019072542 0.021783339 0.022216523 0.022062426 0.022462323 0.022899251 0.022385916
0.001187173 0.004937505 0.009321598 -0.0076459227 -0.0039054055 0.00013785278 -0.016114999 -0.012845017
-0.009042477 -0.018886475 -0.01799815 -0.016179243 -0.02791128 -0.027469125 -0.024880204 -0.02919819
-0.028385686 -0.025711682 -0.0034794435 -0.0038600068 -0.0027961766 -0.0066506495 -0.00752834 -0.00593459
-0.0023764356 -0.0025225224 -0.001643814 -0.022159431 -0.0202331 -0.017710561 -0.033833094 -0.032789867
-0.029012486 -0.037067194 -0.035590477 -0.032064248 -0.006717377 -0.0093514 -0.012827002 -0.0015790986
00000000: 9c74 e1bc 8631 e5bc 21b2 e4bc e3c9 10bd
00000010: 17b9 14bd 3534 0fbd b41a 0cbd 9753 0ebd
00000020: 4332 08bd fccb 20bc 1dc8 58bc 7c59 86bc
00000030: 3de9 cebb 061b 22bc eaf6 46bc 1124 8f3b
00000040: fed5 a53a 2028 97ba a176 21bd bc52 21bd
00000050: ab52 26bd bce0 42bd 866b 45bd 801c 43bd
00000060: 736b 50bd 4549 53bd 6cd3 4dbd 2949 c3bc
00000070: 28a8 c2bc f216 c6bc 6139 f4bc 7e0b f8bc
00000080: 70e8 f1bc ab62 fabc 7111 febc d324 f5bc
00000090: a6f2 fabb 4b55 d3bb 3265 8bbb b056 6bbc
000000a0: 9729 5ebc f654 32bc 2c08 82bc 8416 6fbc
000000b0: e31f 4abc 20d4 ddbb b6ad 98bb e635 1abb
000000c0: 66be 5bbc 3985 3bbc 2ef0 12bc 64d5 95bc
000000d0: eb72 88bc be5d 69bc 8afb 383c f216 453c
000000e0: 3118 4b3c 0fa3 5a3c 587f 6a3c 215e 693c
000000f0: 2c04 3c3c 087e 493c ae48 453c a6e9 5cbd
00000100: e521 56bd 3a21 55bd 301a 8fbd fc39 8ebd
00000110: 5267 88bd 90e8 9cbd 001d 9cbd a92b 94bd
00000120: 2a67 7bbc b76d 36bc caa3 f9bb 200c ddbc
00000130: bed1 bebc 3760 9dbc d720 1ebd ee2e 11bd
00000140: 4ede ffbc 802d 463c c260 0b3c 272a 9b3b
00000150: e3a4 bf3c 661b a63c 2545 843c ebc2 023d
00000160: c4fe ec3c 6cdf cc3c 2764 2dbc 9c4a 48bc
00000170: f002 59bc 2e0f 3cbc a6de 55bc 4815 5dbc
00000180: 2195 e1bb 45e1 06bc cbbb 0bbc 40a0 3d3a
00000190: 6ad2 9b3b 50e1 1e3c be56 1bbc 6bd9 bcbb
000001a0: b69f 78ba 4b8d 8cbc 357e 5fbc cefb 1abc
000001b0: c2d5 d63b 96bd b23b fef5 da3b 00b7 c33b
000001c0: 3ad2 993b 5127 c23b a99f 563c 6661 4e3c
000001d0: 2696 523c 9535 42bc f11e 49bc 6aec 63bc
000001e0: 0c9f 41bc c3c2 45bc 10bf 59bc ec1d 63bc
000001f0: 39bf 6dbc 5df4 76bc e178 983b f20a 863b
00000200: 62f6 1a3b 51c3 1e3c 337b 1e3c 874b f13b
00000210: 3673 043c e67e f43b a2b4 bb3b 7e11 24bb
00000220: 2798 3fbb 30ae 31bb 4604 57bb bb61 7cbb
00000230: 7cbc 68bb a509 c6ba 2114 f7ba fc31 e2ba
00000240: fcd1 eabc 115e cdbc 78ad adbc 5066 37bd
00000250: 266d 2cbd ff5b 17bd 2d4e 5abd 8edb 4ebd
00000260: b5df 39bd 1d79 26bd 62d8 26bd 877a 2bbd
00000270: 2698 4bbd 73d1 4dbd 86c5 4bbd e081 56bd
00000280: 7406 59bd 3245 52bd 35b0 a33c 4dd1 a13c
00000290: 9f79 993c f103 e13c 97ef e23c 2a92 d33c
000002a0: 12d4 da3c 8274 db3c 806d cb3c f224 dfbc
000002b0: 6d92 d2bc 9b09 cebc ee09 14bd 9f75 0fbd
000002c0: 77d2 08bd 7735 2dbd 2c21 2abd 05f4 1fbd
000002d0: 33b0 8a3a bbcf 833a bbec 853a b45f f93a
000002e0: 920e 033b d911 e13a 8ccf a63a 59f8 a83a
000002f0: 0287 8c3a 49ea 1cbb 1a90 eeba 0eda 8fba
00000300: b1bd 8abb ca5b 72bb cd03 50bb b812 aabb
00000310: 0ec3 9dbb 1910 8abb a513 03ba 026f 37b9
00000320: d2de 2a39 ca99 d1ba 1034 b4ba 3341 5bba
00000330: 89ae f5ba a04c bfba 1bbf a4ba 0217 953c
00000340: 2860 963c 053e 9c3c f972 b23c 6dff b53c
00000350: 43bc b43c e802 b83c 3697 bb3c ab62 b73c
00000360: ea9a 9b3a cbca a13b 9eb9 183c a68a fabb
00000370: d5f1 7fbb 938c 1039 9a03 84bc e873 52bc
00000380: e626 14bc cfb7 9abc db70 93bc 558a 84bc
00000390: 32a6 e4bc ee06 e1bc 92d1 cbbc 0b31 efbc
000003a0: 1989 e8bc 4ea1 d2bc 6007 64bb 2bf8 7cbb
000003b0: 0f40 37bb b1ed d9bb 4bb0 f6bb f376 c2bb
000003c0: f9bd 1bbb e750 25bb 3f75 d7ba b287 b5bc
000003d0: e3bf a5bc bd15 91bc 9294 0abd ab4e 06bd
000003e0: 98ab edbc c5d3 17bd 52c7 11bd cd55 03bd
000003f0: 711d dcbb 9d36 19bc 5928 52bc c2f9 ceba

conv_layer3.bias f4 [32]
-0.04046277 0.011648478 0.0048834626 0.031265527 -0.02479349 -0.012141085 -0.015521324 0.011667005
0.004347456 -0.021018146 0.034972496 0.01461913 -0.011312809 0.003984773 0.029706128 0.017055012
0.0039157155 0.040872343 0.0034768914 0.022044819 0.020512987 -0.0048187566 0.0006446331 -0.014935788
-0.04973467 0.008034842 -0.029088123 -0.009699297 -0.026573235 -0.026753768 -0.037863534 0.0044935197
00000000: 4abc 25bd 42d9 3e3c 7405 a03b 4810 003d
00000010: b81b cbbc 67eb 46bc 274d 7ebc f726 3f3c
00000020: 1b75 8e3b 3f2e acbc 523f 0f3d 1385 6f3c
00000030: 5c59 39bc b392 823b 445a f33c f4b6 8b3c
00000040: 674f 803b c269 273d 8fdc 633b 5697 b43c
00000050: da0a a83c a9e6 9dbb 98fc 283a 3cb5 74bc
00000060: 95b6 4bbd 92a4 033c 374a eebc cde9 1ebc
00000070: 1db0 d9bc b82a dbbc cb16 1bbd 603e 933b

conv_layer4.weight f4 [64, 32, 3, 3]
0.015358033 0.002345515 -0.008604418 0.017230392 -0.005095041 -0.01946073 0.025677184 0.009827006
-0.012209851 -0.013579597 -0.040341817 -0.045064352 0.025665715 -0.0044319998 -0.020734597 0.060595687
0.04121363 0.016520306 0.0061467686 0.040449172 0.050801005 -0.03472114 0.0077031963 0.031517986
-0.074738875 -0.047363658 -0.010908215 0.017978722 0.033982433 0.037020545 -0.024413865 -0.009928202
-0.0017296922 -0.049011603 -0.03213434 -0.021106688 -0.003764446 -0.003444125 -0.0042456537 0.0050691855
0.0067810216 0.007257046 0.00622179 0.003057271 0.0045100204 0.0053677764 -0.00032300685 -0.004398922
0.006977196 -0.0025620246 -0.0084349355 0.011103858 0.005066664 -0.0041187443 -0.008817383 -0.011072871
-0.010837544 0.00714611 0.0072543733 0.0074173356 0.012847622 0.009051504 0.0098060295 -0.001859745
-0.021926275 -0.027631504 0.017101126 -0.008735723 -0.022922125 0.040468194 0.026016671 0.0038467296
-0.0061605647 0.034511473 0.05008215 -0.038044862 0.017113017 0.049030278 -0.08083768 -0.048165783
0.0009542393 0.01621693 0.01817028 0.013513649 -0.00087439315 -0.0038109615 -0.006911769 -0.009416671
-0.010685758 -0.015643721 0.0101681715 0.023767212 0.027922455 -0.021493403 -0.007471198 0.0010870872
-0.040213104 -0.024987781 -0.013114738 0.007477317 0.007415525 0.00634274 -0.0041340888 -0.0071288133
-0.00892506 -0.0066192416 -0.004928207 -0.008230957 -0.013639773 -0.0034908047 0.0024470899 -0.004883072
0.013024429 0.023587914 -0.010798349 -0.004432746 0.01265709 -0.01339704 -0.012007075 -0.0077143684
0.0003775146 0.00704851 0.011625916 0.0037274125 0.0056021353 0.012982719 -0.00043243467 -0.0013761672
0.00022317967 -0.004764761 -0.0056672986 -0.0056711547 -0.003280572 -7.769557e-05 -0.00037003536 -0.012034877
-0.019976718 -0.018415457 0.006304301 0.00015870701 -0.002126902 0.019803233 0.016032755 0.012497707
-0.0013240635 -0.015968077 -0.020265209 0.013589896 -0.00524482 -0.015747769 0.030244725 0.019263694
0.0029214844 -0.0027372653 0.0004293911 0.004853741 -0.010369116 -0.005171412 -0.0012271847 -0.012433936
-0.00446427 0.001011957 -0.016706327 0.00426374 0.01563809 -0.017342007 0.015790317 0.03549348
-0.03394216 -0.017225394 0.013745613 -0.0074757915 -0.020237237 -0.021078074 0.009287928 -0.004765594
-0.011716811 0.026346007 0.019325573 0.008696827 0.014683088 0.018465254 0.017509926 -0.010464435
-0.010340517 -0.010570895 -0.020332336 -0.014334689 -0.015747821 -0.006634874 -0.025254741 -0.03011149
0.019678526 -0.002051203 -0.01440717 0.042886537 0.027755573 0.00913033 -0.00063298584 0.009200549
0.012743087 -0.009510806 0.0035637915 0.011052633 -0.020149378 -0.012175245 -0.0006235196 0.028836457
0.06467918 0.0683491 -0.036454827 7.856352e-05 0.018805832 -0.08714766 -0.061273247 -0.0330644
0.015235676 0.007284299 -0.0025626787 0.014486139 -0.001201446 -0.012120394 0.017078526 0.004221163
-0.012432829 0.0042975442 0.00040512066 -0.0015338933 0.0016096276 -0.005224129 -0.008958477 0.004304393
0.0021096445 -0.0041080723 -0.0029355604 -0.0019427881 -0.0025557668 0.005081625 0.007591778 0.008259683
0.0048877946 0.0018110537 0.0036802562 0.010573378 0.02470515 0.02608272 -0.013530799 0.0012106833
0.008721408 -0.033350468 -0.02346675 -0.012337785 0.004667937 0.018194243 0.019635193 -0.008531571
00000000: 42a0 7b3c 36b7 193b 8bf9 0cbc c026 8d3c
00000010: 4df4 a6bb 1c6c 9fbc f558 d23c 7301 213c
00000020: d40b 48bc f57c 5ebc 763d 25bd 6695 38bd
00000030: e840 d23c 4f3a 91bb 9adb a9bc 2f33 783d
00000040: a0cf 283d 9855 873c d56a c93b 08ae 253d
00000050: b714 503d c137 0ebd 186b fc3b 0119 013d
00000060: b210 99bd 6500 42bd 5fb8 32bc 1d48 933c
00000070: 2a31 0b3d dba2 173d 96ff c7bc e6a9 22bc
00000080: d7b6 e2ba 64c0 48bd 4c9f 03bd efe7 acbc
00000090: ecb4 76bb d4b6 61bb 201f 8bbb 691b a63b
000000a0: 5533 de3b 84cc ed3b 28e0 cb3b 7f5c 483b
000000b0: cbc8 933b 2ce4 af3b 3f59 a9b9 d524 90bb
000000c0: f6a0 e43b a4e7 27bb af32 0abc f5ec 353c
000000d0: 4206 a63b 88f6 86bb c976 10bc fd6a 35bc
000000e0: f48f 31bc ea29 ea3b 18b6 ed3b 1f0d f33b
000000f0: d57e 523c c24c 143c 78a9 203c b0c2 f3ba
00000100: bb9e b3bc 775b e2bc a917 8c3c 4720 0fbc
00000110: 2ec7 bbbc fac1 253d ea20 d53c 6a19 7c3b
00000120: 90de c9bb e75b 0d3d f122 4d3d eed4 1bbd
00000130: 9930 8c3c f9d3 483d 3a8e a5bd 7c49 45bd
00000140: ea25 7a3a 5ed9 843c d7d9 943c 5a68 5d3c
00000150: 8837 65ba 53c1 79bb 1f7c e2bb 6148 1abc
00000160: 5113 2fbc 4327 80bc 6798 263c 75b3 c23c
00000170: a2bd e43c ef12 b0bc f4d0 f4bb 987c 8e3a
00000180: 7fb6 24bd 2db3 ccbc 33df 56bc 4804 f53b
00000190: effd f23b c2d6 cf3b 4077 87bb d298 e9bb
000001a0: 6a3a 12bc 39e6 d8bb cc7c a1bb 23db 06bc
000001b0: 5b79 5fbc fcc5 64bb 5b5f 203b 2d02 a0bb
000001c0: 6a64 553c 713b c13c 8feb 30bc 9240 91bb
000001d0: af5f 4f3c 427f 5bbc 53b9 44bc d0c8 fcbb
000001e0: 27ed c539 30f7 e63b a07a 3e3c 9b47 743b
000001f0: 1e92 b73b 78b5 543c 66b8 e2b9 8260 b4ba
00000200: 5605 6a39 b621 9cbb bfb4 b9bb 18d5 b9bb
00000210: ddfe 56bb 7ef0 a2b8 4e01 c2b9 ef2d 45bc
00000220: 37a6 a3bc 03dc 96bc 4f94 ce3b 976a 2639
00000230: 7f63 0bbb 643a a23c 2057 833c 2fc3 4c3c
00000240: 338c adba 7ccf 82bc 3903 a6bc 28a8 5e3c
00000250: bddc abbb 7701 81bc c9c3 f73c e5ce 9d3c
00000260: 6076 3f3b b163 33bb e61f e139 210c 9f3b
00000270: 3ae3 29bc f374 a9bb 7cd9 a0ba b5b7 4bbc
00000280: 0349 92bb a4a3 843a b5db 88bc d8b6 8b3b
00000290: 741b 803c d310 8ebc b25a 813c 9c61 113d
000002a0: ef06 0bbd 451c 8dbc 4835 613c 7cf7 f4bb
000002b0: 90c8 a5bc edab acbc 652c 183c b328 9cbb
000002c0: def7 3fbc 95d3 d73c aa50 9e3c 237d 0e3c
000002d0: 5691 703c 7244 973c fa70 8f3c 0673 2bbc
000002e0: 466b 29bc 8c31 2dbc 0090 a6bc 0bdc 6abc
000002f0: 9301 81bc 5b69 d9bb 08e3 cebc 5fac f6bc
00000300: dc34 a13c 7a6d 06bb 0d0c 6cbc cba9 2f3d
00000310: a85f e33c 6197 153c f6ee 25ba e6bd 163c
00000320: 61c8 503c 36d3 1bbc 808e 693b 1a16 353c
00000330: 4f10 a5bc ae7a 47bc b173 23ba 6f3a ec3c
00000340: 8576 843d 9dfa 8b3d a851 15bd 78c2 a438
00000350: b00e 9a3c 797a b2bd a8f9 7abd 896e 07bd
00000360: 0f9f 793c 21b1 ee3b 9df2 27bb 4557 6d3c
00000370: d779 9dba 9e94 46bc 44e8 8b3c af51 8a3b
00000380: 10b3 4bbc 6ad2 8c3b 6066 d439 eb0c c9ba
00000390: 24fa d23a 2c2f abbb 93c6 12bc de0b 8d3b
000003a0: f641 0a3b 029d 86bb 8862 40bb 27a5 feba
000003b0: a77e 27bb c383 a63b 73c4 f83b 9f53 073c
000003c0: cb29 a03b e160 ed3a 7430 713b f63b 2d3c
000003d0: 7462 ca3c 6eab d53c 49b0 5dbc caaf 9e3a
000003e0: 3de4 0e3c 809a 08bd 573d c0bc 6c24 4abc
000003f0: 7ef5 983b 180c 953c fcd9 a03c 01c8 0bbc

conv_layer4.bias f4 [64]
0.032380145 0.015994871 0.012461881 -0.021046784 -0.023212457 0.01242915 -0.017453454 0.0002322233
0.0036759402 0.0018377736 -0.002908224 0.0035715331 0.028710458 -0.02427442 -0.048469134 -0.0073249685
0.028480032 -0.009361713 -0.011779801 -0.04017955 -0.0084257275 -0.012238584 0.0065207207 -0.00041976062
-0.01799239 0.019062059 0.012566241 -0.008264526 -0.033476967 -0.020887902 -0.038266394 -0.03590211
-0.036437 -0.010462271 -0.022523772 0.011428395 -0.01902846 0.0071719512 -0.00033590893 0.046356987
-9.8568285e-05 -0.024929008 -0.022273464 0.044652186 0.0054391725 0.0051556267 -0.016630692 -0.027449785
0.042230926 0.0038437485 0.0044383737 0.006382979 0.011928288 -0.014255393 -0.024100814 0.0011063529
0.043546345 0.027063323 0.008389318 0.020709777 0.017935194 -0.0167292 0.02022054 -0.010746011
00000000: 0ba1 043d ad07 833c eb2c 4c3c 4e6a acbc
00000010: 0d28 bebc a2a3 4b3c 8cfa 8ebc f880 7339
00000020: 0be8 703b 73e1 f03a e797 3ebb 6210 6a3b
00000030: 3232 eb3c 26db c6bc 9287 46bd 4a06 f0bb
00000040: f54e e93c df61 19bc 1100 41bc 5093 24bd
00000050: 100c 0abc 5884 48bc c5ab d53b 5113 dcb9
00000060: c764 93bc 0928 9c3c a3e2 4d3c ef67 07bc
00000070: 251f 09bd 1b1d abbc 39bd 1cbd 170e 13bd
00000080: f73e 15bd f269 2bbc c683 b8bc 2a3e 3b3c
00000090: 93e1 9bbc b002 eb3b ef1c b0b9 d3e0 3d3d
000000a0: 72b6 ceb8 eb37 ccbc d776 b6bc 36e5 363d
000000b0: 163b b23b 88f0 a83b 173d 88bc 5fde e0bc
000000c0: 56fa 2c3d 66e7 7b3b c76f 913b 4f28 d13b
000000d0: de6e 433c 748f 69bc 126f c5bc 0b03 913a
000000e0: a75d 323d e7b3 dd3c 5a73 093c 8da7 a93c
000000f0: d4ec 923c ad0b 89bc 8ca5 a53c 0910 30bc

conv_layer5.weight f4 [64, 64, 3, 3]
-0.0030257537 0.010311536 -0.010983328 0.007141406 0.040974025 0.022830537 -0.049060013 -0.0120394835
-0.013316477 0.009893239 0.024275107 0.017127868 -0.0050860066 0.014353015 0.0046800184 -0.022448262
0.0019804887 0.004472329 0.009059673 0.026204526 0.027981928 -0.015642567 -0.0049389475 -0.010384341
0.00012134574 0.0066908677 0.0014229075 -0.0031675878 0.02003809 0.018139604 -0.025262512 -0.00055144855
-0.007106511 -0.013840584 0.010880592 0.0026392592 0.011234896 -0.0024064083 0.011901536 0.002665891
-0.028206917 -0.013275914 0.04635277 -0.0015406265 -0.0062573305 -0.0034673493 0.00153883 -0.00043788576
-0.0045225304 0.0042807516 -0.0001925117 -0.007248822 0.009722914 0.012851809 0.009084218 0.0141836675
0.027171593 -0.012172924 -0.024170866 -0.018962815 0.012310374 0.0006801515 0.00082385563 -0.0059507648
-0.030864112 -0.028889772 0.022326624 -0.00092364376 0.006894158 0.020632476 -0.0048858426 -0.0010023904
0.0118027525 -0.0027031032 0.0042768926 0.014920876 -0.009083898 -0.0011886328 0.008093186 -0.013696582
-0.0048033274 0.00806447 0.022215078 0.021544704 -0.010732967 -0.0006044096 -0.004582786 -0.0068280245
-0.0037286165 -0.010199118 0.0120607335 0.0279125 0.013956647 0.0023098332 0.02735047 0.0142431
-0.03966514 -0.01694912 -0.018895997 -0.008668764 0.014836624 0.0062099732 -0.019764416 0.012543694
-9.3344635e-05 -0.023431363 0.0096226055 0.00020146887 -0.0153416805 0.0022336973 -0.016101459 -0.0051103444
0.032004308 0.013102336 -0.028379595 0.00721447 -0.0016446146 0.0012014312 0.0034134625 0.018939653
-0.015590172 -0.030207876 -0.022217032 0.019693693 0.008828501 0.009299654 0.0016564248 0.006440139
0.017452229 -0.015577191 -0.023290893 -0.01609576 0.017594807 0.0029747682 -0.00342643 0.008867479
-0.007449632 -0.0058058384 0.021022424 0.0007134301 0.006240375 0.0033095244 -0.020183051 -0.016446088
-0.019568445 -0.0026255217 0.0035011086 -0.02784067 -0.016484149 -0.020065105 0.007457698 0.020324472
0.010947244 -0.004053729 0.014038398 0.021492483 -0.028977755 -0.01892694 -0.019996597 0.01489445
0.023124794 0.014883187 0.014798714 0.026261117 0.01903911 0.00065450004 0.013940219 0.0075813946
-0.022286136 -0.015400361 -0.018221088 -0.01156523 0.0024709955 0.021563854 -0.039369904 -0.043459162
-0.033849597 0.036493268 0.0284351 0.0173794 0.011921409 0.0024501325 -0.0067704148 0.022027832
0.021121494 0.020289695 -0.020265171 -0.021513391 -0.015194851 0.013003414 0.012087779 0.007759938
0.01012979 0.009886569 0.008506449 -0.011111698 -0.016422397 -0.015831888 0.0044205477 0.005973769
0.012048587 -0.0056907763 -0.0101269465 -0.008278924 0.002243347 0.0078156255 0.0152328815 -0.005927512
0.019310834 0.011459989 -0.019787459 0.010732727 -0.0017957875 -0.025221955 0.0029893217 -0.0070805773
0.0033843142 0.0006355028 0.011784777 -0.006311352 -0.02256554 -0.014287687 0.02363081 0.002134796
-0.0004103436 0.027002407 0.008108555 0.009256225 0.030119026 0.0034072092 0.009088262 0.00838478
-0.024806263 -0.016266048 -0.005299156 0.0121288095 0.00060202996 -0.012718612 0.01883017 0.00698235
-0.014526936 0.017299604 0.011959034 0.008805288 0.007380689 0.020850407 -0.0076232515 -0.024473859
-0.017651364 0.024596049 0.008704699 0.011798096 0.0043357085 0.012823072 0.019970523 -0.016218254
00000000: b94b 46bb b7f1 283c 6bf3 33bc 7502 ea3b
00000010: 61d4 273d 1b07 bb3c 27f3 48bd 4141 45bc
00000020: 5a2d 5abc 4017 223c 97dc c63c be4f 8c3c
00000030: 84a8 a6bb e928 6b3c d75a 993b 6be5 b7bc
00000040: 16cb 013b 9d8c 923b 066f 143c e0aa d63c
00000050: 5b3a e53c d724 80bc e5d6 a1bb 1523 2abc
00000060: 007b fe38 113f db3b da80 ba3a 4e97 4fbb
00000070: ec26 a43c 8299 943c 54f3 cebc 168f 10ba
00000080: bcdd e8bb 9ec3 62bc 8344 323c 6cf7 2c3b
00000090: 9212 383c d5b4 1dbb a9fe 423c 3bb6 2e3b
000000a0: 3112 e7bc 3883 59bc 67dc 3d3d d9ee c9ba
000000b0: 4b0a cdbb 783c 63bb 91b2 c93a 0894 e5b9
000000c0: bc31 94bb 8c45 8c3b f7dc 49b9 8787 edbb
000000d0: db4c 1f3c 6590 523c f9d5 143c 9d62 683c
000000e0: f696 de3c f270 47bc fb01 c6bc e857 9bbc
000000f0: 73b1 493c 324c 323a 04f8 573a a2fe c2bb
00000100: bcd6 fcbc 3eaa ecbc 53e6 b63c af20 72ba
00000110: 64e8 e13b 7005 a93c 6b19 a0bb a462 83ba
00000120: 5560 413c 8c26 31bb 2d25 8c3b b176 743c
00000130: a1d4 14bc e6cb 9bba 4899 043c a167 60bc
00000140: 3b65 9dbb d720 043c 65fc b53c 857e b03c
00000150: 54d9 2fbc 3e71 1eba 322b 96bb 9fbd dfbb
00000160: ce5b 74bb 341a 27bc 629a 453c c1a8 e43c
00000170: 6caa 643c 9260 173b 180e e03c e45b 693c
00000180: ea77 22bd e2d8 8abc c7cb 9abc 6e07 0ebc
00000190: 5015 733c 087d cb3b fce8 a1bc 1184 4d3c
000001a0: 05c2 c3b8 21f3 bfbc 22a8 1d3c 6341 5339
000001b0: ac5b 7bbc 3963 123b 35e7 83bc ad74 a7bb
000001c0: f316 033d 2eab 563c 537c e8bc 5c67 ec3b
000001d0: 1c90 d7ba 5779 9d3a 66b4 5f3b 5527 9b3c
000001e0: ec6d 7fbc 8276 f7bc 7e00 b6bc ab54 a13c
000001f0: 6ba5 103c 935d 183c 651c d93a cd07 d33b
00000200: faf7 8e3c 7937 7fbc 8bcc bebc 41db 83bc
00000210: fc22 903c 54f4 423b f58d 60bb e748 113c
00000220: 0b1c f4bb e73e bebb 3837 ac3c 7c05 3b3a
00000230: 0f7c cc3b 9be4 583b ed56 a5bc f2b9 86bc
00000240: 014e a0bc f210 2cbb db72 653b 1e12 e4bc
00000250: c409 87bc 935f a4bc b55f f43b 827f a63c
00000260: 125c 333c 25d5 84bb 4f01 663c 0111 b03c
00000270: c262 edbc ac0c 9bbc e7cf a3bc da07 743c
00000280: 3570 bd3c 9cd8 733c 4e76 723c 8e21 d73c
00000290: e8f7 9b3c c192 2b3a 8465 643c 596d f83b
000002a0: 6a91 b6bc cc51 7cbc 6444 95bc 177c 3dbc
000002b0: 6df0 213b aea6 b03c 5642 21bd 3c02 32bd
000002c0: e0a5 0abd f779 153d baf0 e83c 3e5f 8e3c
000002d0: 0352 433c 6792 203b 5bda ddbb b673 b43c
000002e0: fc06 ad3c 9336 a63c 2503 a6bc da3c b0bc
000002f0: d3f3 78bc 450c 553c d20b 463c 1447 fe3b
00000300: 6bf7 253c 47fb 213c a25e 0b3c d70d 36bc
00000310: 4388 86bc e0b1 81bc 3eda 903b 9bbf c33b
00000320: 7067 453c b179 babb 7eeb 25bc 53a4 07bc
00000330: 1e05 133b 1c0d 003c 5693 793c 933b c2bb
00000340: c131 9e3c adc2 3b3c 4f19 a2bc 52d8 2f3c
00000350: a160 ebba 469e cebc 7fe8 433b 3004 e8bb
00000360: 5fcb 5d3b df97 263a f014 413c 75cf cebb
00000370: 5edb b8bc e716 6abc 6795 c13c efe7 0b3b
00000380: 6323 d7b9 2734 dd3c bfd9 043c 6ca7 173c
00000390: 2dbc f63c 7c4b 5f3b efe6 143c 5160 093c
000003a0: 8136 cbbc 6040 85bc 8ba4 adbb eab7 463c
000003b0: 8cd1 1d3a ba61 50bc bb41 9a3c 32cc e43b
000003c0: 6302 6ebc e6b7 8d3c d3ef 433c 0e44 103c
000003d0: b5d9 f13b 79ce aa3c 78cc f9bb 677d c8bc
000003e0: 9899 90bc a77d c93c 279e 0e3c cd4c 413c
000003f0: 8f12 8e3b dd17 523c 3999 a33c 25dc 84bc

conv_layer5.bias f4 [64]
0.028502597 -0.0022384066 -0.011521642 0.029069431 0.0489474 -0.01705832 -0.04456497 0.034543637
0.055717487 0.0229275 0.026531382 0.013670267 0.015174241 -0.047030617 0.06848514 0.005929607
-0.046268333 0.0041364147 0.0008879587 -0.0021926519 0.045034528 -0.08446411 0.02262347 0.05527152
-0.016620649 0.066615544 0.039239615 -0.020417113 0.07049072 0.017784001 0.07449376 0.016575884
-0.008865383 0.071917295 0.07303292 -0.0020232927 0.003129497 0.0736843 0.03580025 0.018168641
0.010389698 0.12026931 -0.037197053 -0.011156872 -0.00018986288 -0.091211125 0.012935747 -0.0022676915
-0.026030958 0.012497984 -0.07530317 -0.046134073 0.00980401 -0.00038124755 -0.03943405 -0.028433999
-0.034472138 0.059078094 0.07304397 -0.023465915 0.019770062 -0.021244964 0.079069205 -0.07932277
00000000: 477e e93c 3bb2 12bb 45c5 3cbc 0423 ee3c
00000010: 127d 483d e4bd 8bbc c289 36bd a17d 0d3d
00000020: 0538 643d 74d2 bb3c 5758 d93c 41f9 5f3c
00000030: 619d 783c 2da3 40bd f041 8c3d 264d c23b
00000040: dd83 3dbd c38a 873b e6c5 683a 98b2 0fbb
00000050: 2076 383d 85fb acbd db54 b93c 6464 623d
00000060: 0728 88bc bb6d 883d b8b9 203d ca41 a7bc
00000070: 705d 903d c1af 913c 2f90 983d 26ca 873c
00000080: 1d40 11bc 6049 933d 4992 953d 3899 04bb
00000090: 3f18 4d3b cbe7 963d 48a3 123d 67d6 943c
000000a0: 8d39 2a3c c24f f63d f05b 18bd 50cb 36bc
000000b0: ee15 47b9 e6cc babd 75f0 533c 8d9d 14bb
000000c0: e03e d5bc 58c4 4c3c 8c38 9abd 15f7 3cbd
000000d0: 00a1 203c 2ee2 c7b9 9985 21bd 6bee e8bc
000000e0: a832 0dbd dffb 713d 1498 953d 973b c0bc
000000f0: d3f4 a13c eb09 aebc 09ef a13d fa73 a2bd

fc1.weight f4 [128, 1024]
-0.016096678 -0.0030976224 0.004616413 -0.0087977415 -0.01713233 0.011503241 0.00043383363 0.015856987
9.1770766e-05 0.0023406378 -0.006205665 0.012100378 -0.0111154085 0.012052126 0.0021578781 0.0023219197
0.0158184 0.015170196 0.013461265 -0.00095207815 0.0056717796 0.008458662 0.007771169 0.010767829
-0.0024853107 -0.008975968 0.000177611 -0.0073741744 -0.00049240846 -0.006248223 -0.0074097244 -0.021790465
-0.011182691 -0.009494093 -0.023050454 -0.017531833 -0.00065868744 -0.0047053196 0.0010145103 -0.030232744
0.022251924 0.007678186 0.015888197 0.011193492 0.00018011958 -0.0010753984 0.0029999402 -0.00041265224
-0.0036891992 0.0023857676 -0.0056199483 -0.0052940734 -0.010816407 -0.010324091 -0.016511941 -0.03564301
0.009194337 0.015963133 -0.0043417816 -0.016363591 -0.0067019737 -0.0045418367 0.0050422233 0.013665356
-0.017666768 -0.018184254 -0.026129087 -0.012036341 -0.021499947 -0.020202449 -0.019197218 -0.016644742
-0.003844357 -0.008045241 -0.014944768 -0.017495835 -0.003119437 -0.008872106 -0.010541277 -0.016779741
-0.0017055459 0.0012031049 -0.0041036485 0.0075312974 0.009454857 -0.0038450102 0.0092391735 0.021125041
0.018824384 0.020212162 0.007421708 0.004945081 -0.0017027282 -0.002549235 0.00452542 0.012800391
-0.011685032 -0.0027010206 0.0034932652 0.012343438 -0.0026701058 0.00806089 0.0046865586 -0.013826293
0.0065226518 0.0031462878 0.0104563795 0.014359496 0.00850664 0.014476309 6.149523e-06 0.033476386
0.025856603 0.009781448 0.017998604 0.033780593 0.014830451 -0.006809061 -0.00053625385 -0.0065550683
-0.021307653 -0.012124242 -0.00917154 -0.028659247 0.005978509 -0.013445297 -0.006942305 0.0099364575
0.006208257 -0.01104949 -0.005160204 0.0013865096 0.009254935 0.0005729699 0.0024946306 0.013057288
-0.015360141 -0.011397126 -0.0056567793 0.010367944 -0.0031800263 0.0020510196 0.00988308 -0.012624948
0.018336212 0.0041297 0.0066940263 0.011050413 0.003754811 -0.0019164836 -0.009003516 0.005957428
-0.010736646 -0.013667989 -0.009651003 -0.0043314686 0.012428657 0.0024083531 0.0051160757 -0.0023344592
-0.01312706 -0.008958292 -0.006896927 0.0036186317 -0.0059928405 -0.02332243 -0.012624977 -0.010351685
-0.008677899 -0.004512786 -0.013993471 -0.019399077 0.00023108892 -0.016908098 -0.009712251 0.010612777
-0.009629978 -0.014645461 -0.017564908 -0.002308888 -0.006521483 0.0014809651 0.0030060604 0.007470435
0.013733744 0.0017165347 0.0037598168 0.009189563 0.0041374266 0.012316074 0.0023169704 -0.008088489
-0.010970174 -0.004767263 -0.0032769418 -0.008479152 -0.0066006877 -0.010918438 -0.0020224582 0.008600013
-0.008289175 -0.0077427696 -0.00937041 -0.013603453 -0.005739262 -0.013647123 -0.014483689 -0.018011611
-0.0091775 0.015531319 -0.0024405348 -0.019323427 0.0009396861 -0.01787251 -0.0077750883 -0.012168737
0.016685894 0.016412959 0.00093870354 -0.0029626032 -0.008671254 -0.029124975 -0.0017589439 0.010973338
0.0007309829 -0.009126075 -0.0010179234 -0.0108802235 -0.010032975 0.00050156785 -0.003963598 0.029383535
-0.030426912 -0.027162587 -0.020413246 -0.008718386 -0.009008937 -0.004478045 -0.012621995 -0.041407395
-0.024870498 -0.027348768 -0.03877586 -0.023837868 -0.020528646 -0.017340219 -0.019785056 -0.028668372
0.0073347716 -0.010395493 -0.002900001 -0.00022135445 0.011907358 0.005039763 -0.0077649504 -0.013653388
00000000: 2edd 83bc 7b01 4bbb 4745 973b 6724 10bc
00000010: 1a59 8cbc 1778 3c3c 2a74 e339 83e6 813c
00000020: 0e75 c038 6365 193b e458 cbbb aa40 463c
00000030: 671d 36bc 4876 453c 306b 0d3b 592b 183b
00000040: 9795 813c 6a8c 783c a38c 5c3c e294 79ba
00000050: 56da b93b 3396 0a3c 4aa5 fe3b 8c6b 303c
00000060: 98e0 22bb f00f 13bc 173d 3a39 0fa3 f1bb
00000070: f914 01ba e5bd ccbb 46cd f2bb eb81 b2bc
00000080: 9b37 37bc 1d8d 1bbc 4ed4 bcbc eb9e 8fbc
00000090: c4ab 2cba 152f 9abb 51f9 843a a9aa f7bc
000000a0: ab49 b63c 4b99 fb3b f727 823c e964 373c
000000b0: 7bde 3c39 62f4 8cba a59a 443b 3f59 d8b9
000000c0: 7ec6 71bb 8a5a 1c3b 8b27 b8bb e879 adbb
000000d0: 4d37 31bc 6026 29bc 0d44 87bc 68fe 11bd
000000e0: d8a3 163c 1ec5 823c 8145 8ebb f00c 86bc
000000f0: 3b9c dbbb b0d3 94bb 3c39 a53b a8e4 5f3c
00000100: e6b9 90bc 25f7 94bc ab0c d6bc 1334 45bc
00000110: a820 b0bc 9b7f a5bc 7c43 9dbc 8e5a 88bc
00000120: 9cf1 7bbb 30d0 03bc e6da 74bc 6d53 8fbc
00000130: 786f 4cbb 4f5c 11bc 52b5 2cbc ab75 89bc
00000140: a08c dfba 80b1 9d3a e677 86bb 1ac9 f63b
00000150: 8be8 1a3c 91fc 7bbb e75f 173c 6c0e ad3c
00000160: 9835 9a3c fa93 a53c cd31 f33b 590a a23b
00000170: 142e dfba 1111 27bb f949 943b bbb8 513c
00000180: 9472 3fbc 9b03 31bb 44ef 643b 223c 4a3c
00000190: f1fc 2ebb d311 043c b491 993b ad87 62bc
000001a0: f8bb d53b f331 4e3b 3c51 2b3c 1744 6b3c
000001b0: 6f5f 0b3c 0a2e 6d3c 0058 ce36 891e 093d
000001c0: 3ad1 d33c 5e42 203c cf71 933c 855d 0a3d
000001d0: 6cfb 723c 8b1e dfbb 6393 0cba e6cb d6bb
000001e0: 638d aebc c2a4 46bc 3a44 16bc ccc6 eabc
000001f0: 5ee7 c33b aa49 5cbc 467c e3bb 86cc 223c
00000200: a26e cb3b ec08 35bc ee16 a9bb 8bbb b53a
00000210: 03a2 173c 5c33 163a f57c 233b 3cee 553c
00000220: 1aa9 7bbc 03bb 3abc 815c b9bb 4fde 293c
00000230: fd67 50bb 666a 063b a4ec 213c dfd8 4ebc
00000240: d335 963c 6f52 873b 9059 db3b cb0c 353c
00000250: 4613 763b 8532 fbba 7c83 13bc 8736 c33b
00000260: c2e8 2fbc b3ef 5fbc 3e1f 1ebc feee 8dbb
00000270: 91a1 4b3c 76d5 1d3b c1a4 a73b bafd 18bb
00000280: e112 57bc cdc5 12bc 9eff e1bb 9126 6d3b
00000290: 975f c4bb ae0e bfbc fed8 4ebc 1d9a 29bc
000002a0: bf2d 0ebc fedf 93bb df44 65bc d0ea 9ebc
000002b0: 7650 7239 da82 8abc 2220 1fbc 37e1 2d3c
000002c0: 0ec7 1dbc 84f3 6fbc 48e4 8fbc b650 17bb
000002d0: 2ab2 d5bb f11c c23a 5301 453b 8dca f43b
000002e0: 7f03 613c 59fd e03a 4267 763b d28f 163c
000002f0: 4093 873b 5cc9 493c 50d8 173b 9585 04bc
00000300: 3fbc 33bc b336 9cbb f6c1 56bb 24ec 0abc
00000310: 954a d8bb 40e3 32bc 388b 04bb 12e7 0c3c
00000320: 52cf 07bc 0fb7 fdbb 5986 19bc 04e1 5ebc
00000330: 6b10 bcbb 2f98 5fbc ff4c 6dbc 168d 93bc
00000340: 3a5d 16bc 1377 7e3c 61f1 1fbb 2a4c 9ebc
00000350: 4455 763a 5f69 92bc 2bc6 febb 625f 47bc
00000360: dbb0 883c 7874 863c 5413 763a 3c28 42bb
00000370: e011 0ebc 8097 eebc 5d8c e6ba 84c9 333c
00000380: 6f9f 3f3a 8885 15bc d76b 85ba f742 32bc
00000390: 5961 24bc a67b 033a 12e1 81bb bdb5 f03c
000003a0: dc41 f9bc 1384 debc ae39 a7bc 90d7 0ebc
000003b0: 389a 13bc 90bc 92bb 7ccc 4ebc cd9a 29bd
000003c0: 37bd cbbc 860a e0bc 70d3 1ebd a247 c3bc
000003d0: b12b a8bc 130d 8ebc 4514 a2bc efd9 eabc
000003e0: 8658 f03b dc51 2abc f10d 3ebb 621b 68b9
000003f0: 1417 433c 9924 a53b 2071 febb 76b2 5fbc

fc1.bias f4 [128]
-0.027985778 0.009198318 -0.024573237 -0.025476614 0.012117006 -0.007700178 -0.043342058 -0.038114965
-0.030889565 -0.024022426 0.0065754335 -0.037548114 0.027200751 -0.007715809 -0.018282454 0.0015278768
-0.0038890783 -0.0048807478 0.0067740893 -0.020000368 0.019116635 -0.008754429 -0.058914013 0.025003383
-0.0627737 -0.0096279895 -0.018083107 -0.019139932 -0.038099118 -0.019863602 -0.011556613 0.056111544
-0.031148508 0.023307735 0.010812575 -0.008427292 -0.028246004 0.020330038 -0.03921017 -0.024272414
-0.03612655 0.0008049724 -0.054626837 0.049560614 -0.03697945 0.1030481 -0.008988317 -0.07841007
-0.009551146 -0.06261127 -0.039160833 -0.006102264 0.051663093 -0.03269132 -0.016928943 -0.01012309
-0.031670004 0.0048786253 -0.027925314 -0.0062224376 0.06166023 0.025307678 -0.041101545 -0.028670644
0.02111034 -0.026060373 -0.007402845 -0.03825968 -0.02413416 0.021616083 -0.024288591 -0.03668299
0.10102877 -0.02195232 -0.009255037 -0.00093210995 -0.042381 -0.02483699 -0.008127472 -0.08271064
0.005687156 -0.011600167 0.06215469 0.0033674724 0.026948547 0.051316645 -0.016435515 -0.009234063
-0.05116445 -0.02041558 0.117727205 -0.025897672 0.024567073 0.02305952 0.029695565 -0.06145782
-0.026966356 0.07312804 -0.016944524 -0.015422252 0.01711687 -0.039472055 -0.01645403 -0.03504809
-0.0025347248 -0.0027004355 -0.027434632 -0.027905663 -0.011808888 0.009626306 0.0012165662 0.0066766157
0.023983303 -0.01571111 -0.022750868 0.012813487 -0.0077527915 -0.023989888 -0.016801285 -0.026613293
-0.02686711 0.010766132 -0.040462475 0.07855998 -0.032523513 -0.055980206 0.0038002315 0.010221036
00000000: 6e42 e5bc 8bb4 163c d04d c9bc 55b4 d0bc
00000010: 6886 463c c651 fcbb 7187 31bd 701e 1cbd
00000020: 1d0c fdbc aeca c4bc bc76 d73b 0dcc 19bd
00000030: 1cd4 de3c e6d4 fcbb 16c5 95bc 0a43 c83a
00000040: e8df 7ebb aeee 9fbb 2ef9 dd3b d0d7 a3bc
00000050: 7d9a 9c3c bd6e 0fbc d24f 71bd e5d3 cc3c
00000060: 7f8f 80bd b7be 1dbc 0623 94bc 59cb 9cbc
00000070: d20d 1cbd feb8 a2bc f357 3dbc 38d5 653d
00000080: 282b ffbc ddef be3c 3a27 313c a012 0abc
00000090: 2a64 e7bc 2e8b a63c d89a 20bd f1d6 c6bc
000000a0: 6ff9 13bd c904 533a 64c0 5fbd 1200 4b3d
000000b0: c477 17bd e20a d33d bc43 13bc 7595 a0bd
000000c0: 697c 1cbc 563a 80bd 1c67 20bd 80f5 c7bb
000000d0: ae9c 533d 55e7 05bd 91ae 8abc 51db 25bc
000000e0: 68b8 01bd e0dc 9f3b a1c3 e4bc 97e5 cbbb
000000f0: 708f 7c3d 0c52 cf3c 185a 28bd b3de eabc
00000100: 97ef ac3c 907c d5bc 9193 f2bb 2fb6 1cbd
00000110: 00b5 c5bc 3614 b13c def8 c6bc e740 16bd
00000120: 2ce8 ce3d 5ad5 b3bc 70a2 17bc d758 74ba
00000130: b397 2dbd f176 cbbc 1729 05bc 3264 a9bd
00000140: 535b ba3b a00e 3ebc eb95 7e3d d0b0 5c3b
00000150: 33c3 dc3c 6731 523d c6a3 86bc 784a 17bc
00000160: d091 51bd 933e a7bc f61a f13d 5b27 d4bc
00000170: e340 c93c 52e7 bc3c 1d44 f33c 32bb 7bbd
00000180: 8ce8 dcbc 27c4 953d 3ecf 8abc 9dad 7cbc
00000190: ae38 8c3c 73ad 21bd 9aca 86bc 968e 0fbd
000001a0: a01d 26bb caf9 30bb 98be e0bc 6b9a e4bc
000001b0: 117a 41bc a7b7 1d3c 3075 9f3a 83c7 da3b
000001c0: a278 c43c 96b4 80bc 0760 babc a9ef 513c
000001d0: 210b febb 7186 c4bc d9a2 89bc 1f04 dabc
000001e0: 6a18 dcbc 6e64 303c fbbb 25bd 0ee4 a03d
000001f0: 6037 05bd 804b 65bd 4e0d 793b 2276 273c
