local_files/ResNet_20.pt (torch, 734865 bytes, 77 tensors)

conv1.weight f4 [16, 3, 3, 3]
00000000: ccf6 d7bd aa6b 7bbe 0543 4fbe 7db3 923e
00000010: 5f5b 253e 4362 3b3e 2fed 553e 86bc 033e
00000020: f9be 703d 8e5b a5bd 2b4d f3bd e241 6ebe
00000030: 24a8 413e d24b 933d c752 62bd 6d61 febc
00000040: 5372 15be 94af f9bd 65cc f93d 6849 4bbd
00000050: f4aa 2cbe 6d65 2b3e 9ffe 223d 1d2e a6bc
00000060: 6251 31be d919 44be a617 57be 95dc eebe
00000070: c806 d9be 9f7a 94be 3177 a3be a07e bcbd
00000080: 7db6 4fbe 8ad7 e7bc 3684 2e3e 5bbf 16bd
00000090: 691a 583e a530 0b3e 5a23 693e 04d4 c63e
000000a0: bfed 243f 530d a63e efe8 d23e 09dc 253f
000000b0: cc2e 713e b3d5 e7bd 3080 9abe f1d9 a9bd
000000c0: 3ae4 4fbe be01 15be 13c4 8bbe 58ef 5dbe
000000d0: 4bf9 19be 46a3 8cbe 9b48 823e 8fcd 853e
000000e0: 4a68 27be 9fc8 25bc 9453 99be 0a0e 613f
000000f0: 3b84 693e ac8d a43e 23a0 183e 2f22 87bd
00000100: 0a47 82be 2e5f b2be fd5d e4be 9eb5 82bf
00000110: fbbf 993e dee8 c9bd 4be0 64be 9645 1abe
00000120: 45a6 353e a71f 743e 8a3e b3bd d5cd 98bd
00000130: 7a93 01bf a0be cc3e 9ead a53e c766 733e
00000140: f4d0 8bbd b3f6 0bbe a574 adbd 335d 1cbd
00000150: f114 6fbe 7119 c6bc bab4 76be 0c23 05be
00000160: e12c a1be 629d f8bd 6f9b babd fa73 bc3d
00000170: c5a4 e4bd 1f0e 023e 4b35 883e f74a 19bd
00000180: cbba a4bd bfaf 29bd c719 97bd 610b babc
00000190: f12c 803e 98ab cebd 3d62 843e b3e6 3f3f
000001a0: 4bcb 733e cbe2 843e 3845 a83e 6989 543e
000001b0: 6407 47be 9a13 383e 1e3b 923c 88cb 12bf
000001c0: 95aa 5e3e 80e1 ebbe 61fc a13e 7e69 673e
000001d0: c775 f53d 16dd 88be 21ed ac3e ea5d 8fbb
000001e0: 5437 1abf 5949 7c3e bba5 b1be 3057 4d3e
000001f0: 3bf5 623e 68bb ed3d 12ef e4bd 73a6 a13e
00000200: bd3e 2b3e 18ef 9fbe 52a4 873e f144 07be
00000210: 61fe 983d cbbb 7c3c 83a0 333b d284 87bd
00000220: f94c 9ebd da57 f5bd e629 e13d e1b1 a13e
00000230: 7409 903d 2172 843c 1d44 373e 8f69 28bc
00000240: 59da b0bd c838 cabd 2335 f9bd 05bb 923b
00000250: 9c6e a13e 5d65 ad3c 3ccc 5ebd 10a8 5a3c
00000260: 3eec e1bd c81b a3bd e324 aa3c 575c 8cbd
00000270: d140 153e 4a76 da3e f9d3 253e fa00 a93d
00000280: a0fd 513e 808c 413e 501a 0cbd 33a1 80be
00000290: 43bf 84be 541d 43be f853 ffbe 800a e1be
000002a0: 3396 a6be 5709 00bf aded 45be c468 443e
000002b0: 0234 483d d124 f03d 9601 8c3e ae3a abbc
000002c0: 0577 3b3e f309 ad3d 79ba e9bd 864e a53b
000002d0: 75e2 f03d 84b1 233e 9ef1 043e 4cc7 c43e
000002e0: 46b8 a33e 9414 f63e 966e 963e 0702 f43d
000002f0: d842 803e 6947 ec3e ffe7 df3e 07c6 fe3e
00000300: 686a 443f c875 853e 8bdd a7bc 55a6 44be
00000310: a846 9ebe eea9 5cbe 2e65 ddbd f0a7 dcbe
00000320: c1a4 8ebe e79d 8a3e 05be cebe 7802 f1be
00000330: 45f6 e0bd a059 57be bf79 52bd b6ab 34be
00000340: 1314 86be 2e6e 32be e850 8a3e 2c58 9d3d
00000350: 4bb1 82be f9d4 f03d 3df4 493e 6962 a93e
00000360: 2c2b 893e 1dc6 c13e ac25 a23e c9c8 c0bd
00000370: d5e8 e5bd 2f71 f93d ad48 70be 832d 03be
00000380: 160b de3d c84d 87be 055c 76be f36e 1ebe
00000390: 6689 9dbe 5af1 dbbe de32 20be 0a29 14be
000003a0: 85de 25be c05e 2ebc 0d39 1fbe f27f fcbd
000003b0: 7fd3 f0bd bfee aebd f65c e7bd 48fc 00bd
000003c0: fb94 573c 7020 803d 569b 1c3e 439b 323c
000003d0: 6edc 2c3f ec5c dd3d 39a9 3bbc 8058 1ebf
000003e0: 95cd 663e bd5b d0bd ed52 29bf 3a9b 393e
000003f0: 61bc 10be 6eca 5e3e 2264 653d 6283 7ebd
-0.1054512 -0.2455279 -0.2024041 0.28652564 0.16148137 0.18299203 0.2089126 0.12864885
0.058775876 -0.08074103 -0.11879953 -0.2326732 0.18911797 0.07192196 -0.055254724 -0.031052316
-0.14594392 -0.12191692 0.12197188 -0.049630553 -0.16862088 0.1673791 0.039793607 -0.02028566
-0.17316201 -0.19150485 -0.21005115 -0.46652666 -0.42387986 -0.28999802 -0.31926873 -0.09203839
-0.20284458 -0.02830102 0.17042622 -0.036803585 0.21103825 0.13592775 0.22767392 0.3883363
0.6442527 0.3243204 0.4119334 0.6478887 0.23553008 -0.11320057 -0.30175924 -0.08293522
-0.20301905 -0.14551446 -0.2729803 -0.21673334 -0.15036504 -0.27468318 0.2544602 0.2613339
-0.16348377 -0.010118633 -0.29946578 0.87912047 0.22804348 0.32139337 0.14904837 -0.06598317
-0.25444824 -0.3483824 -0.44602957 -1.0211675 0.30029282 -0.09858869 -0.22351186 -0.15065607
0.17739208 0.238402 -0.08752163 -0.07461134 -0.50615656 0.39989185 0.32359022 0.23769675
-0.06826964 -0.13668327 -0.08469514 -0.03817482 -0.23347832 -0.024182053 -0.24092379 -0.1300165
-0.31479552 -0.121393934 -0.09111678 0.09201808 -0.1116424 0.127007 0.2660316 -0.037425008
-0.080434404 -0.04142737 -0.073779635 -0.022710504 0.25034288 -0.10091323 0.258562 0.74961394
0.23808019 0.2595428 0.3286531 0.20755543 -0.19436413 0.17976227 0.017850455 -0.57341814
0.2174476 -0.4607048 0.31637862 0.22598836 0.11985355 -0.26731175 0.33774665 -0.004375209
-0.60240674 0.24637355 -0.34696755 0.2005279 0.2216386 0.116080105 -0.111784115 0.31572303
0.16723152 -0.31237102 0.26492554 -0.13209893 0.07470394 0.015425633 0.0027408905 -0.0661713
-0.07729525 -0.11979647 0.109943196 0.31581023 0.07033053 0.016167702 0.17897077 -0.010279073
-0.086353965 -0.098741114 -0.12168338 0.004477861 0.315297 0.021166498 -0.05439399 0.013345733
-0.11031388 -0.07964283 0.020769542 -0.0685355 0.14575507 0.42668372 0.16194142 0.082521394
0.20506907 0.18901253 -0.03420478 -0.25122985 -0.2592717 -0.19054157 -0.4986875 -0.43953323
-0.32536468 -0.5001425 -0.19328947 0.1918059 0.048877724 0.11725772 0.2734496 -0.020902004
0.18307121 0.08449163 -0.1141252 0.005044761 0.11761943 0.15985686 0.12982795 0.384333
0.31976527 0.48062575 0.29381245 0.11914449 0.25050998 0.46148232 0.43731686 0.49760458
0.76724863 0.26066422 -0.020491382 -0.19204076 -0.3091328 -0.21549198 -0.10810314 -0.43096876
-0.27860072 0.27073595 -0.40379348 -0.47072196 -0.10984472 -0.21030283 -0.051385637 -0.17643628
-0.2618719 -0.17424843 0.27014852 0.07682833 -0.2552589 0.11759371 0.19722076 0.33082893
0.2679075 0.3784646 0.31669366 -0.09413297 -0.1122605 0.12179791 -0.23465224 -0.1281033
0.10841958 -0.2642653 -0.2405854 -0.15472011 -0.3076889 -0.42957574 -0.15644404 -0.1446878
-0.16198166 -0.010642707 -0.15549107 -0.12329091 -0.1175909 -0.08541631 -0.11297028 -0.031490594
0.013158078 0.06256187 0.15293631 0.010901275 0.6752385 0.10808739 -0.01145392 -0.6185379
0.22539361 -0.10173748 -0.6614216 0.1812562 -0.14134361 0.21756908 0.056003697 -0.062137015

bn1.weight f4 [16]
00000000: 7e5b d53e cd40 113f 4b81 063f b11b fb3e
00000010: 32d6 ce3e ec30 1e3f 268f 2e3f e456 013f
00000020: cc91 263f ddac 1a3f 3810 033f 12df 083f
00000030: c6be f03e ec7d 153f 9b11 133f 9fba 083f
0.41671365 0.56739503 0.52541035 0.49044564 0.40397793 0.617934 0.6818718 0.5052321
0.6506622 0.6042002 0.5119662 0.5346538 0.4702055 0.58395267 0.5744874 0.5340976

bn1.bias f4 [16]
00000000: a6b9 08be d156 8f3d 1375 0d3f e8b2 7c3e
00000010: f545 463f 9f7e 12be d83e 203e 89bc 273e
00000020: bdbb 20be 62e6 2f3f 85f0 00be ee7c 693e
00000030: 1f69 113f dea8 213f 17e2 32bd f5f2 073f
-0.1335207 0.06998981 0.55256766 0.24677622 0.77450496 -0.14306115 0.15648973 0.16380514
-0.15696616 0.6871091 -0.12591751 0.22801563 0.5680103 0.63148296 -0.043672647 0.531051

bn1.running_mean f4 [16]
00000000: aa44 903d 58b3 c73d 76e2 53bc 2e93 6dbe
00000010: 1db2 f8bc 3cd3 f6bd 3ad2 7ebe 706c ca3c
00000020: 7026 c43d 7c5a 163c a3c1 8fbd ca52 a03d
00000030: 274e 4c3d 88e4 bcbc 8b80 b9bd fcaa 5cbd
0.07044347 0.09751004 -0.01293241 -0.23200676 -0.030358369 -0.120520085 -0.24884883 0.02470991
0.09577644 0.009176847 -0.07019355 0.07828291 0.04987922 -0.023058191 -0.09057721 -0.053874

bn1.running_var f4 [16]
00000000: 9c90 0e3e 5490 833e 86c9 343e e761 003f
00000010: c729 043e 6818 fe3e 4229 143f ea9c 5a3e
00000020: cb39 263f ef87 853e 6889 eb3e 31b2 d93e
00000030: f4a1 a63e 10c0 2e3f 4598 6e3e e5cd ea3e
0.13922352 0.2569605 0.17655 0.5014939 0.12906562 0.49627995 0.57875454 0.2134892
0.64931935 0.26080272 0.4600327 0.42518762 0.32545435 0.68261814 0.23300274 0.4586021

layer1.0.conv1.weight f4 [16, 16, 3, 3]
00000000: afde 833c 0e9e 073d 591d 9b3d cda9 21bd
00000010: b8c8 b03c c919 b53c fa4c 44bc 36cd d33d
00000020: 967d ea3d 4f69 503c e956 53bd d06b 42bd
00000030: f0c7 05bb 656f 303c f0a0 173d ca39 3f3d
00000040: bdff 083e 4b98 143e bdb2 03be 740d 95bd
00000050: be95 01be b8a3 41be c7d7 7c3e f452 3d3c
00000060: a748 633d 2e70 22be dde0 5ebe 8b03 c73c
00000070: 1024 143d 0263 13bc f6e8 19bd b1e9 c6bd
00000080: ae0f 64bd 11b5 ef3c 983a 573c 019c 393d
00000090: ceb6 75bd 035a a8bb e1e4 3a3d 5d6f e83d
000000a0: e5ba b9bd 7f6e 183e e4fb c0bc 49a6 55bd
000000b0: ffe5 f53d cd9b 183d ee6d 853d a737 883d
000000c0: 61a6 483d 1957 ae3d aa95 613d 878e cd3d
000000d0: d28f 373e 48ef 143e 1e80 8cbc 968d dabc
000000e0: e653 2e3d 7447 d6bd 284b bcbd 064d 1bbd
000000f0: e6b6 26bd e7ce 08bd 9ddb 8a3d efc6 03be
00000100: b44b 733d 46eb c83d 2e29 16bd e58e f6bb
00000110: d159 50bd c61e 2dbe 7371 7bbd 3e00 c8bc
00000120: 8a9d 7a3c 5ee1 693d 9952 c23d 70c2 a63c
00000130: 2905 443d 540c 8b3d 86c1 6b3c f0e3 da3c
00000140: 1307 a23c 564e 71bb e0ca 3e3e 6b04 83bd
00000150: afbd e13c 0e8d bc3e 800b e03c 0fdf 613d
00000160: 6726 bfbd f7e4 7e3d 2e80 95bb d2d2 fabc
00000170: 92a9 a53d 5209 0bbd ef55 03bb 05b9 d8bc
00000180: 8f6a d2bc 4342 243d 8dc5 a83c 2770 c6bd
00000190: fe2e aa3d 00fe 703d e04b c2bb a69f fe3d
000001a0: 5177 4f3d 1fcd a3bd 50d2 2ebd 7968 d6bd
000001b0: a9c1 383d 7ca3 863e aaca a33d 8cea 993c
000001c0: 5f0b 163d 4259 683c e48a a1bd 4e73 0cbe
000001d0: bcfb c6bd 59a2 b2bd 8f9d 7c3d 32c2 1b3e
000001e0: 46f1 ee3d c711 183e 858d 353d b270 d1bd
000001f0: 40c0 303e ec36 7b3d eff2 7e3d 4466 823e
00000200: 2d29 c13d 9f39 77bd ad12 b13d 23eb ba3d
00000210: 6383 c7bd 6fcc eebd d109 6e3d 5cc8 063d
00000220: f9be 8ebc 8c0c 0fbd 973a 8bbd f65b d13d
00000230: dbb5 7f3d 558b 8f3d 2ad5 993d 85f2 af3a
00000240: f168 53bd 1a86 1dbd a6de 35bd 2b1c 55bd
00000250: 4d20 04bd fd55 67bc 749e 6abd d65f 8ebd
00000260: ddd2 35bd d0b0 67bc b40c 74bd c7d4 b7bd
00000270: 6f80 46bc 9030 e3bd ac33 b2bd f629 9ebd
00000280: 5053 0fbe afa6 22be 6283 d53c 9184 113d
00000290: 3f26 9c3d 98e0 4f3d b3d1 203d 6155 76bc
000002a0: 8523 d73c 6caa 38bd 6552 8fbd 0655 f8bd
000002b0: b8ed 73bd af8f 8abb 4c27 0abd 4000 b93c
000002c0: 66f9 083e dc73 983c 702a 123e 340e 453e
000002d0: 5566 453d cb29 893d e41d 573d 83eb dcbc
000002e0: 2f07 d43c 95af d6bc 5936 283d d47d 903c
000002f0: ef37 b33c 6dc1 45bd ee7d 94bd bfd7 8dbd
00000300: aebd cc3c f66a 73bc 174a 503c a84a 59bd
00000310: 1528 d8bc ac80 b63c 9575 dbbd f954 80bd
00000320: f5bc 91bc ada8 5dbd 6a6b c73c 238e bd3d
00000330: df8d 9c3d 92a4 253e b022 443e f0c3 47bd
00000340: a6db 99bc 4140 3d3b 1e33 6e3b 92e3 28bc
00000350: de5a 04bc 7ede 22bc 6e6b 34bd 1f3f f4ba
00000360: ddb5 3dbb b624 a2bc 4a42 3cbd 5bb2 e9bb
00000370: a77d 9cbd bd48 73bd 4e53 34bd a0c7 9fbd
00000380: 5255 b8bd ec24 9b3c 1bcc 4b3c e14c aebc
00000390: 2271 ac3c 14a7 4b3c 4eff 303d be49 3c3d
000003a0: 97b0 723b 084f 5c3d 9b35 bb3c 83c0 7b3d
000003b0: 6232 6b3d 8907 963d 596f 683d 6e52 683d
000003c0: 9d08 2abc 58f3 3a3d 58ae 313d 69eb 86bc
000003d0: bd9d fd3b 5d71 923c c0fc 6dbd e5fb 06bd
000003e0: 1354 a5bd 4c08 02bd 186d 42bd e432 6cbd
000003f0: f32f 1abd f6c5 2cbd 94f3 cdbc 7803 d4bc
0.016097395 0.033109717 0.07573957 -0.039468575 0.021580085 0.022107022 -0.011981243 0.10341875
0.11449735 0.01272042 -0.051596556 -0.0474661 -0.0020413361 0.010768746 0.037018716 0.04668597
0.13378806 0.1451122 -0.12861152 -0.072779566 -0.12654778 -0.1891011 0.24691688 0.011555422
0.05548921 -0.15863106 -0.21765466 0.024293682 0.036167204 -0.008995773 -0.037575684 -0.09712542
-0.055679016 0.029261144 0.013136528 0.045314793 -0.05998879 -0.0051376834 0.045628432 0.11349366
-0.090688504 0.14885901 -0.02355761 -0.052160535 0.12006759 0.03725796 0.06515108 0.0665124
0.048986796 0.08512706 0.05507437 0.100369506 0.17925957 0.14544404 -0.017150935 -0.026678842
0.04256048 -0.10462847 -0.091940224 -0.037915252 -0.04070177 -0.033400442 0.06780169 -0.12868856
0.059398368 0.098105 -0.036660366 -0.0075243586 -0.050866906 -0.1690627 -0.06138749 -0.024414178
0.015296349 0.057099693 0.094884105 0.020356387 0.047856484 0.06789461 0.014389401 0.026720017
0.019778764 -0.0036820373 0.18632078 -0.06397327 0.027556268 0.36826366 0.027349234 0.055144366
-0.093334965 0.062230077 -0.0045623994 -0.030618105 0.080889836 -0.033944435 -0.0020040234 -0.026455412
-0.025685577 0.040102255 0.020602012 -0.0968936 0.08309744 0.058835983 -0.005929455 0.12432794
0.0506509 -0.07998108 -0.04268104 -0.10469145 0.045106564 0.26296604 0.079976395 0.018788598
0.036631938 0.014181437 -0.078878194 -0.1371586 -0.09715983 -0.087223716 0.061673697 0.15210798
0.11667113 0.14850532 0.044324417 -0.10226573 0.17260838 0.061331674 0.0622434 0.25468647
0.09431682 -0.060357686 0.0864614 0.0912688 -0.09741857 -0.11660086 0.05811483 0.03290592
-0.017425047 -0.034924075 -0.067982845 0.10222618 0.06242929 0.07008997 0.07511361 0.0013423717
-0.05161375 -0.038457967 -0.044401787 -0.052028816 -0.032257367 -0.014119622 -0.05728002 -0.06951873
-0.044390548 -0.0141412765 -0.059582427 -0.08976131 -0.012115582 -0.11093247 -0.08701262 -0.07722847
-0.13996625 -0.15883897 0.026063625 0.035526816 0.07624482 0.0507513 0.039262485 -0.015035004
0.026262054 -0.045084402 -0.069981374 -0.12125592 -0.05955288 -0.004228554 -0.033728883 0.022583127
0.13376388 0.018609934 0.14274001 0.192437 0.048193295 0.066974245 0.05251874 -0.02696777
0.025882332 -0.02620677 0.041067455 0.017638125 0.021877257 -0.04828017 -0.07250582 -0.06925916
0.02499279 -0.014857044 0.012712977 -0.053049713 -0.0263863 0.022278152 -0.10715786 -0.06266207
-0.017790297 -0.05411594 0.024343211 0.09255626 0.07644247 0.1617606 0.19153857 -0.048770845
-0.018781494 0.002887741 0.0036346386 -0.010308163 -0.008078305 -0.009940742 -0.044047765 -0.0018634534
-0.002894751 -0.019792896 -0.045961656 -0.0071318573 -0.07641154 -0.05939554 -0.044024758 -0.07801747
-0.090006486 0.018938504 0.012438799 -0.021276893 0.02105004 0.012429971 0.043212228 0.045968764
0.0037031525 0.053786308 0.02285271 0.06146289 0.057421096 0.07325656 0.056746814 0.056719236
-0.01037803 0.045642227 0.043379158 -0.016469674 0.007739751 0.017876321 -0.05810237 -0.03295507
-0.080726765 -0.031746194 -0.04746732 -0.05766572 -0.037643384 -0.042180978 -0.025140561 -0.02588056

layer1.0.bn1.weight f4 [16]
00000000: d954 ef3e c2cb 9b3e 7b37 ba3e 7db5 aa3e
00000010: 4156 e13e 6518 c63e 5380 ce3e 690b b73e
00000020: 223f d33e 2a6f 093f c8ef fa3e 9900 d63e
00000030: c2fd f13e 97fd fa3e 84c0 213f 0588 f03e
0.4674442 0.30428892 0.36370453 0.3334159 0.4401112 0.38690487 0.4033228 0.35750893
0.41259104 0.5368525 0.49011064 0.4179733 0.47263914 0.490216 0.6318438 0.46978775

layer1.0.bn1.bias f4 [16]
00000000: 9c51 c9bc 404c 213d b864 6abc 5681 a33d
00000010: e859 efbe 654a 9f3e e145 1fbd 9227 073e
00000020: deee 3c3b 5a56 1d3f 0122 253e 21e3 7fbb
00000030: d200 9dbe d7a0 3bbd e7f8 103f 3b99 1b3e
-0.024575047 0.03937936 -0.01430624 0.07983653 -0.4674828 0.31111446 -0.038885 0.13198689
0.00288289 0.6145989 0.16126253 -0.0039045291 -0.30664688 -0.045807686 0.56629795 0.15195172

layer1.0.bn1.running_mean f4 [16]
00000000: c7c6 803f 2132 c6be 08d6 d63e 1cf2 56bf
00000010: 5508 b53f 7dfb 40be 6117 92bf d5f9 87bf
00000020: e82c 8bbf 2142 1fbf c64d 12bf 8b7b debd
00000030: 8580 4240 dc78 33c0 17c0 babf 3fa8 863f
1.0060662 -0.3871012 0.41960168 -0.8396318 1.4143168 -0.18845935 -1.1413385 -1.0623118
-1.0873079 -0.6221028 -0.5714992 -0.10863408 3.0390942 -2.8042517 -1.4589871 1.0520095

layer1.0.bn1.running_var f4 [16]
00000000: b102 fa3e b117 c53e d230 143f 36cb 1e3f
00000010: 94fc e03e e388 123f b374 e33e a1e7 1c3f
00000020: 2b69 033f d3c4 243f 6f27 353f 6bf1 5e3f
00000030: edea 763f d228 893f 7669 423f 1224 523f
0.48830178 0.38494638 0.57886994 0.62028825 0.43942702 0.5724012 0.44424972 0.6129094
0.5133235 0.6436283 0.70763296 0.87087125 0.9645222 1.0715582 0.7594217 0.8208629

layer1.0.conv2.weight f4 [16, 16, 3, 3]
00000000: 08d2 b53d f7de 763d 90c2 993c b3b9 313d
00000010: 5344 5b3d 9d5a 27bd f7bc cebc fb70 fa3c
00000020: 60d5 cfbd 62c1 a23d b4d9 d23d 6a3e 1c3e
00000030: 7dc0 b03d d565 a93d 4d97 fd3d 5ef0 6c3d
00000040: a26e 083c bafe 9b3d f10d 213e 37d8 ec3d
00000050: 05c3 2e3e f57a dd3d 9a91 8b3d d4ff c33d
00000060: 57d2 3a3d e06d e03b 630f e13d 4700 823d
00000070: cc86 963d e0c4 2b3d f545 683d 1657 6c3d
00000080: a1ac ea3c 7735 0b3d f84b 003d 0e36 ff3a
00000090: b0df 99bc a872 e3bc f7f7 48bd fc31 95bc
000000a0: 7204 01bd 4023 f7bc ab90 96bd fed7 03bd
000000b0: 31da 8fbd 8ba5 953d 0e6b 3c3d d727 353d
000000c0: 2734 013e 6b2d ee3d 3ee8 943d 71d0 213d
000000d0: f984 d83d 52e0 873d e556 ba3c cb40 c63d
000000e0: 7c62 423e 73c5 07bd b945 b63b fcfa 473d
000000f0: 0d90 1fbd f5d6 70bc 8aec f43c 2283 3f3d
00000100: 5f02 4c3d 2ed0 0d3e 0f81 483d f747 143d
00000110: 4742 493d 31d5 723c cb89 883d 9ca0 003d
00000120: 2bbc f23d e034 0a3e d5da c83d 5a3f 82bc
00000130: e5ad 983d 9a2a 0f3e 2bd4 e1bd 0536 b9bd
00000140: 7a17 ddbc 62b1 233e 89c3 bc3d c34f b73c
00000150: ac2a 9ebc 2927 1c3d ef54 d33d ef4b cbbc
00000160: 1e72 453c bfc5 6b3d 91b1 243d 879f 983c
00000170: eb6e 20bd 41f9 073d c0c2 413d 908b 383c
00000180: b918 d63d f648 ca3d 479f 0f3d 5a16 843d
00000190: a548 453d 34a6 49bb ef1e e0bc dfef 39bb
000001a0: 5813 c63b 4273 2f3c 2fd4 8fbc 90de b2bc
000001b0: 022e c4bd 4eae febd 2883 03be 2fec 273d
000001c0: 7f14 57bb 4fa1 d9bc 9268 593d 8c43 0a3d
000001d0: b1eb 0fbd 8178 aa3c f671 593c 9b2d 0abd
000001e0: e8a5 ba3c 53ed 173d 912f 003d e617 dfba
000001f0: 2222 b1ba ad2c 8739 afce ecbc 4872 f03c
00000200: 2fb6 9bbb f14f 813d 91e7 2b3e 5ddd 5b3d
00000210: a12f 033d a980 813d f80c 863d 3323 033e
00000220: 48c4 c33d 8cf4 0b3d f0ac 913d 3242 353e
00000230: 1d9c bd3d 39bd e3bc 7e22 9bbc 6502 4c3c
00000240: ad31 0abd f5cd 7f3d 1155 02ba efa3 57bd
00000250: d5d5 36bd 871c 273d e138 233d 782f c83b
00000260: c685 e33c 928a f2bd 6f95 c0bd 42f8 00bd
00000270: 6f5b 11be 4776 8bbd 15c3 61bd a82a f1bd
00000280: c441 9ebd de08 c6bc 9fe3 63bc 14c5 ddbc
00000290: 8749 62bc c5f8 75bd 06d4 b0bd fc14 b1bc
000002a0: 2cc3 afbd e85f 10bd 3389 343c c168 3a3d
000002b0: 1cd9 023e a64a ab3d 14dd 2f3d 3ec3 ce3d
000002c0: b511 ea3d e460 173e 3351 163e bbfe 253e
000002d0: 2ec0 bdbd fa09 b0bd 3273 99bd 2483 96bc
000002e0: 089c d8bd de15 bdbd 5b4f cbbc ee7e 9bbc
000002f0: 490f 06bc 1f53 ad3d b48a d93c ee37 82bd
00000300: 5286 673d 04d8 30bd 85a8 a8bd 5b73 4abd
00000310: ce42 52bd 9a4a c4bd 1ab7 dfbc 2ae8 fa3c
00000320: 3f05 943d 31df 59bd 474b 613d fbcc 513d
00000330: 4d07 96bc c5ce 083d 985d 553d 4fd1 6ebc
00000340: 1020 be3d f4e4 d73d 3ddf 4bbc 6794 5d3d
00000350: f411 b73d 4c31 b83b 37c8 1c3d 683c 953d
00000360: 7a2d 26bc 6ffc 82bd 89e5 f8bc 1dd2 083d
00000370: 09fb 59bb f578 f9bc ffa0 d73d 24c8 363d
00000380: 778e 993d def6 883d 9753 e83d cb82 02be
00000390: 76d5 ef3c c986 553d 54d7 003c 19f0 9e3d
000003a0: 42d2 a9bd 891e bcbb 87d6 db3c 88c9 3c3d
000003b0: ac36 4cbd 935e d3bc e462 c73c b729 d33c
000003c0: 480a 773d 9696 dc3c b514 86bd a840 4cbd
000003d0: 8298 d3bb c0e3 86bd 55e6 933d 1f19 d33d
000003e0: 56c3 6d3d d3c5 ab3d 03e9 6e3d fbfa a23b
000003f0: c39d cd3a a84f 6abd 1294 74bc a694 5abd
0.08877951 0.06027123 0.018769532 0.043389987 0.053531956 -0.0408579 -0.02523659 0.030571451
-0.1014812 0.07947041 0.1029543 0.15258184 0.08630464 0.08271376 0.12382374 0.05784642
0.008327158 0.076169446 0.15727974 0.11564677 0.17066582 0.10814468 0.06814881 0.0957028
0.045610752 0.0068490356 0.10989263 0.06347709 0.07349929 0.0419358 0.05670734 0.05770024
0.028646769 0.033986535 0.03132245 0.0019471066 -0.01878342 -0.027764633 -0.049064603 -0.018212311
-0.03149838 -0.030168176 -0.07351812 -0.032188408 -0.070240386 0.073069654 0.046000533 0.044227447
0.12617551 0.116297565 0.07270859 0.039505426 0.105722375 0.066345826 0.022746513 0.09680327
0.18982881 -0.033147287 0.005562511 0.04882334 -0.038955737 -0.014699687 0.029897947 0.046755917
0.04980695 0.13848945 0.048951205 0.036201444 0.049135473 0.014821337 0.06666907 0.03140317
0.118522964 0.13496733 0.09807364 -0.015899349 0.07455043 0.13981095 -0.11026796 -0.090435065
-0.026988734 0.15985635 0.09216983 0.0223769 -0.019307457 0.038123284 0.10318934 -0.024816481
0.012051133 0.057561632 0.040208403 0.018630756 -0.03916828 0.03319669 0.04730487 0.011263743
0.10453934 0.098771974 0.035064008 0.06449576 0.048164982 -0.003076923 -0.0273585 -0.0028371734
0.0060447864 0.010708632 -0.017557232 -0.021834642 -0.09579088 -0.1243559 -0.12843001 0.040996727
-0.0032818613 -0.026566176 0.05307824 0.033755824 -0.035136882 0.020809414 0.013271799 -0.0337349
0.022784188 0.037091564 0.031295363 -0.0017020672 -0.0013514201 0.00025782493 -0.028907148 0.029351369
-0.0047519426 0.06314076 0.16787554 0.053677905 0.032027844 0.06323368 0.06545442 0.12806396
0.09558922 0.034168765 0.07113063 0.17701033 0.09258292 -0.02780019 -0.018937346 0.012451743
-0.03373878 0.062452275 -0.00049717823 -0.052646574 -0.04463752 0.04079869 0.039849166 0.0061091743
0.02777375 -0.118428364 -0.09403502 -0.031486757 -0.14195035 -0.06809669 -0.055117685 -0.11775714
-0.077273875 -0.02417415 -0.01390925 -0.027071513 -0.013811476 -0.0600517 -0.0863419 -0.021616451
-0.08582148 -0.035247713 0.011019039 0.045510057 0.12778133 0.083638474 0.042935446 0.10095833
0.114291586 0.14783055 0.14679413 0.16210453 -0.09265171 -0.08595653 -0.07492675 -0.01837308
-0.105766356 -0.092326865 -0.024818113 -0.018981423 -0.008182355 0.0846312 0.026555397 -0.06358324
0.056524582 -0.04317476 -0.082352675 -0.049426418 -0.05133324 -0.095845416 -0.02730899 0.030628283
0.07227563 -0.053191368 0.05500343 0.051220875 -0.018314028 0.033400316 0.05209121 -0.01457627
0.09283459 0.10541716 -0.012443361 0.054096606 0.08938971 0.005621111 0.038276877 0.07286912
-0.010142678 -0.06395804 -0.030382888 0.033403505 -0.00332612 -0.030453185 0.105287544 0.044624463
0.07497876 0.06687711 0.113440685 -0.12745206 0.02927659 0.052130494 0.007863838 0.07760639
-0.082920566 -0.0057409448 0.026835693 0.046090633 -0.049856827 -0.025801932 0.024339147 0.025776727
0.06031254 0.026927274 -0.06546918 -0.04986635 -0.0064573893 -0.065864086 0.07221667 0.10307526
0.058047615 0.08387341 0.058327686 0.004973767 0.0015687275 -0.057204872 -0.014927881 -0.05336442

layer1.0.bn2.weight f4 [16]
00000000: 6144 cd3e 9675 a43e dfba 1c3f ada9 153f
00000010: 338a e53e bac1 ba3e 1d5c e93e 39e0 c53e
00000020: e1dd ca3e 73b7 2f3f e270 b03e 6f7b a03e
00000030: a293 163f 5630 a03e b5af 063f b1cf 0c3f
0.4009123 0.3212096 0.6122264 0.5846203 0.44832 0.36475927 0.4557809 0.3864763
0.39622405 0.68639296 0.34461123 0.31344172 0.5881902 0.31286877 0.5261186 0.5500441

layer1.0.bn2.bias f4 [16]
00000000: 53e0 01be 2cda 2fbe 8dee 20be 8ac6 a63d
00000010: 625a f5bd 0c83 163e e171 3e3e 9dcb 753e
00000020: f45e 64be b374 813d d5dd 413e 5884 2e3d
00000030: 1c3b 7c3e 4031 2a3e 2c26 88bc 3648 1f3d
-0.12683229 -0.1717307 -0.15716 0.08143337 -0.1198013 0.14698428 0.18598129 0.24003454
-0.22301847 0.06321087 0.18932278 0.04260668 0.24631923 0.1662035 -0.016619764 0.038887225

layer1.0.bn2.running_mean f4 [16]
00000000: 15ff c03f 3a4b 913e 14bd 23be 442d 8dbf
00000010: 7de8 9fbe e987 d2be a59c 15bf 0e65 313e
00000020: f21f 15bf 1792 003f b918 24bf 3249 713e
00000030: cb51 49be a2b4 c7be afec 3dbf 36db 19bf
1.5077845 0.28377706 -0.15990096 -1.1029439 -0.31232062 -0.41119316 -0.58442146 0.17323706
-0.5825187 0.50222915 -0.64100224 0.23563078 -0.19660108 -0.39005 -0.74189276 -0.60100114

layer1.0.bn2.running_var f4 [16]
00000000: 7f17 803e cfe8 843e e530 e13e b3d6 e63e
00000010: 7c1f 723e c8f4 b83e bf6d b33e 43ba ac3e
00000020: dbd0 b13e 5744 333f 3977 b93e abe7 ea3e
00000030: 7e19 c53e 037d 1f3f 2d2e e73e c1b0 dc3e
0.25017926 0.2595887 0.43982616 0.45085678 0.23644823 0.36124253 0.35044667 0.33735856
0.34729657 0.70026153 0.36223772 0.45879874 0.38496011 0.6230013 0.45152417 0.43103603

layer1.1.conv1.weight f4 [16, 16, 3, 3]
00000000: 2986 afba fa9b a9bd b8dd 9bbc 6df3 b7bd
00000010: 3140 adbd 0b0d 12bd ce8d 983c ac73 103c
00000020: b184 c93c 1638 303d e336 9abd fb58 b6bd
00000030: aa11 973c b59f b2bd 989e b9bc bfa2 41bd
00000040: ed2b 83bd 8945 093d 51be a9bc 7f7f 77be
00000050: 76b0 64bd 72da 17be ef24 09be a4be 023d
00000060: e59d 0cbe 9b25 96bd d5c9 47be 5c12 163e
00000070: d855 263d 6f5a d7bc 43e0 233e 9a7d 863c
00000080: 7800 70bc e9b4 6b3d 5587 10bc c449 123e
00000090: 991f 803d 50b0 133e f324 9fbd 8e43 1f3e
000000a0: 2d9f bc3d 1c09 e9bc 1774 343d 5cf1 2cbc
000000b0: 5c7a b3bd 0fc3 033c 3d13 ca3c 22ce 19bd
000000c0: 52fd 57bc e841 5dbd c22b a7bd 9d5f 96bd
000000d0: 444d 93bc 5467 7e3c dbc3 053e 6e53 1abd
000000e0: 9ffb d33c 3597 03bd fc4f 44bd cdc5 b3bd
000000f0: 53a9 50bd 2940 c8bd c5ba 90bd f548 81bd
00000100: 2eb3 d03d 7a53 773d 5289 3e3c b6ac e73d
00000110: 6edc e7bd 8c78 04bd 5985 92bd 8a36 1abe
00000120: cec3 52bd ac09 14bd 6e4e 023e 783c 88bd
00000130: 024b 243d ef3e 3a3e 307b ecbd 9fa8 753d
00000140: 8867 283d 8b26 19be 51eb 50be fc48 1dbd
00000150: e1e1 6fbe c89e 97bb 4e71 0d3d 7c99 36be
00000160: 47a9 ddbb f374 fabc 4f15 a33c 3a42 49bd
00000170: e91e e33c a81c 443d d676 20bc bacb e73d
00000180: 0d7c 3abd c288 52bd 4bfe f9bc 662b 48bd
00000190: 7f7b 8ebd 8dd0 f9bc 56e3 af3d 4939 e7bc
000001a0: 1172 55bd 0c70 3c3e 0788 c33d 9515 0cbb
000001b0: d268 85bd 95f4 743c 23b6 c3bc 22b5 883b
000001c0: 7876 6f3d 75ab 2ebe c8d4 c73d 4ef8 303d
000001d0: 592f a63d a8d2 e0bd cd9b 0c3e 4b20 f8bd
000001e0: 9a82 203e d191 353e 5c7a d1bd ef18 d63d
000001f0: f45e f0bd 8b33 0cbe bc86 cdbd 770d b0bd
00000200: 3574 ca3d b1ba 4fbe ea73 783c 73ab 6c3c
00000210: 9722 a1bd cfee a73d f5b3 79bd b35e cbbc
00000220: de03 19be 57bb 99bd 40a4 e8bc ca0b a7bd
00000230: 4745 0e3e bb57 b7bd acb7 b2bd 8f6f a53d
00000240: 1136 c4bd b275 c1bd d5e5 abbc e4ba c5bd
00000250: e7dd aabd 648d 4bbd 5013 5abd 5f9b 163d
00000260: bb67 1e3c 6dad 46bd 5bfc ffbc a74a ed3a
00000270: 5a2d 48bd e5bc 70bd 6b1b 9a3c ce8a 79bd
00000280: 45b9 c3bd 1728 873d adb6 b83d 2f85 a8bd
00000290: 4871 09be 5121 abbd f144 bcbd 567f 76bb
000002a0: f798 1cbe 260a cd3d c93c 9fbd e766 9f3c
000002b0: bab8 bb3c fea3 993c 2aa2 b43c 89f2 903c
000002c0: 2892 0abc fdd1 7b3c d7bb bebd 801c db3d
000002d0: ed03 55bc a7f9 203d 3e7d 22bc a9ca a73d
000002e0: cee2 073e bc53 73bc 47ea ea3d 9855 8abc
000002f0: fefa cd3c 90f2 f3bc 0652 b53d 0b43 c53c
00000300: 1cc0 b53c b049 943c e0e0 7ebd a7fb 3b3d
00000310: 48d6 babc c263 a13c 7f19 58bd c620 97bd
00000320: 290e 873d 0b8d bcbd 0f3a 03bc 14e8 36bc
00000330: d8e2 fabd fd7d 14bd 7625 09bb 1450 41bd
00000340: 92e9 0e3c 60f6 003e d9c2 dbbd 3fe1 e93d
00000350: 445d 943d f1cc 94bd 22e8 853d a484 dcbc
00000360: 4974 3abc d7f7 35bd b02e a63b cd7f c1bd
00000370: 962a 21bd f8cb 003e d2e2 dabd 3e1e d73c
00000380: 1ac2 a0bc 1ddb 4dbd 16ea 04be fd9d f03d
00000390: 7b23 14be 106d dc3c 66ae 9b3c 2a14 adbd
000003a0: dba6 63bd 74ed d5bd b9f0 09bd f1d5 66bc
000003b0: 90de 2f3d 2bf0 43bd cd76 80bc daa2 7d3d
000003c0: 579a 3cbd 85e7 dcbc 58f9 3fbc 730a 81bd
000003d0: fe75 c4bd 9dcb 8b3c ee66 12bc 789f ab3d
000003e0: 0aa3 bb3d cc2f 593c dcff ac3b 0170 053d
000003f0: 7937 c1bd 411f 11bd 048a 283e 39fd 7ebd
-0.0013391423 -0.08281703 -0.019026622 -0.08981977 -0.08459509 -0.03565697 0.018622305 0.008816641
0.024599405 0.043022238 -0.0753 -0.089036904 0.01844104 -0.08721868 -0.022658631 -0.047274347
-0.064048626 0.03351358 -0.020720633 -0.2416973 -0.05583235 -0.14829424 -0.13392995 0.03192009
-0.13732107 -0.073313914 -0.19510587 0.14655441 0.04060921 -0.02628824 0.16003518 0.016417313
-0.014648549 0.057545576 -0.008821328 0.14285952 0.06256027 0.14422727 -0.077707194 0.15553114
0.09210048 -0.028446727 0.044056024 -0.010555591 -0.087635726 0.008042111 0.024667377 -0.0375501
-0.013182955 -0.05401793 -0.08162643 -0.073424555 -0.017981179 0.015527565 0.13062994 -0.03767722
0.025876818 -0.032126624 -0.04792784 -0.08777962 -0.05094273 -0.097778626 -0.070668735 -0.063127436
0.10190426 0.060382344 0.011629419 0.11312239 -0.113213405 -0.032341525 -0.0715434 -0.15059868
-0.051456265 -0.036142036 0.12725231 -0.066521585 0.040110596 0.1818807 -0.11546934 0.059975263
0.04111436 -0.14956109 -0.20402266 -0.03839968 -0.2342601 -0.0046270825 0.034531884 -0.17831987
-0.006764564 -0.030573344 0.019907622 -0.049135424 0.0277247 0.04787889 -0.009793958 0.11318155
-0.04552846 -0.051399954 -0.030516764 -0.048869513 -0.06957149 -0.030494953 0.08588283 -0.028225558
-0.052110735 0.18402117 0.095474295 -0.0021375169 -0.065141335 0.014950891 -0.02389056 0.0041719833
0.05846259 -0.17057593 0.09757382 0.04320555 0.081144996 -0.109776795 0.13731308 -0.121155344
0.1567482 0.17731406 -0.10228416 0.104539745 -0.11736861 -0.13691537 -0.10035464 -0.08596318
0.09885446 -0.20286061 0.015164355 0.014445174 -0.078679256 0.08199846 -0.060962636 -0.02482543
-0.14942881 -0.07506435 -0.028398633 -0.081565455 0.13893615 -0.0895228 -0.08726439 0.08077919
-0.09580625 -0.09446277 -0.020983616 -0.09654787 -0.08343106 -0.049695387 -0.053241074 0.036769267
0.009668286 -0.048505235 -0.031248262 0.0018103913 -0.048871376 -0.058773894 0.018811902 -0.06092339
-0.09556822 0.065994434 0.09019218 -0.08228528 -0.1342212 -0.08355964 -0.09192837 -0.003761252
-0.15292726 0.10011701 -0.07775266 0.019458247 0.022915233 0.018754955 0.022049982 0.017693775
-0.008457698 0.015369889 -0.09313171 0.10698795 -0.013001424 0.039300587 -0.009917555 0.08192951
0.13270113 -0.014851507 0.11470466 -0.016886517 0.025144096 -0.029778749 0.08853535 0.02407982
0.022186331 0.018101543 -0.062226176 0.04589429 -0.022807255 0.019700889 -0.05275869 -0.07379298
0.06594498 -0.09206589 -0.008009448 -0.01116373 -0.12250298 -0.036252964 -0.002092687 -0.04719551
0.00872268 0.12593985 -0.107305236 0.114199154 0.072443515 -0.07265652 0.065384164 -0.026918717
-0.011380264 -0.04442581 0.0050714836 -0.09448204 -0.039347254 0.12577808 -0.10687794 0.026259538
-0.019623805 -0.05025779 -0.12979922 0.11748884 -0.1446666 0.026907474 0.019004058 -0.084511116
-0.055579048 -0.10445681 -0.033676837 -0.014089094 0.04293686 -0.047836464 -0.015681649 0.061922885
-0.046045627 -0.026965866 -0.011717163 -0.06300821 -0.09592818 0.017064864 -0.008935673 0.083800256
0.091619566 0.013256025 0.0052795243 0.03257752 -0.09434409 -0.035430197 0.16458899 -0.06225321

layer1.1.bn1.weight f4 [16]
00000000: c71e e03e 31d0 c23e f89a 0a3f 78a3 da3e
00000010: dc75 033f c4d8 fd3e 0b41 c23e 0cd2 ce3e
00000020: e1d6 f63e fbbe fc3e 1832 bf3e 6632 db3e
00000030: de57 b53e 6fd3 003f 0849 fc3e ec54 db3e
0.4377348 0.38049462 0.54142714 0.42702842 0.51351714 0.49579442 0.3794025 0.40394628
0.48210815 0.49364457 0.37342906 0.42811888 0.354186 0.5032262 0.49274468 0.42838228

layer1.1.bn1.bias f4 [16]
00000000: e3fd 32bd 1aa6 07be 8193 78be a382 203e
00000010: 732e 2bbc 7cd6 a7bc f859 aa3d e2d3 e1bd
00000020: 2bee 753d 94ad 003e a26c 63bc 0447 46be
00000030: a69b 893d f915 49be d730 69be a12f 58be
-0.043699156 -0.13246956 -0.24275018 0.15674834 -0.010448086 -0.020488016 0.083179414 -0.110267416
0.060041588 0.12566215 -0.013880881 -0.19363028 0.06719141 -0.19637288 -0.22772537 -0.21111919

layer1.1.bn1.running_mean f4 [16]
00000000: 7b15 b1bf c011 3fbf 21a3 6ebf 331b a03f
00000010: ce9e 86bf d4a7 e3bf fd94 94bf cedd c0bf
00000020: 5a0a eabf 27b4 edbf 9942 003e d183 4fbf
00000030: 5efe a2bf da6e f3bc 3acf 22bf 58f8 7cbc
-1.383468 -0.7463646 -0.93217665 1.25083 -1.0517213 -1.7785592 -1.1607968 -1.506769
-1.8284409 -1.8570603 0.12525405 -0.8106051 -1.2733877 -0.029715944 -0.6359745 -0.015440069

layer1.1.bn1.running_var f4 [16]
00000000: deb9 bc3f 96a3 503f 8ce0 cf3f ee61 0240
00000010: f67d b63f fc11 813f ca97 a73f 31d0 783f
00000020: c1a8 de3f 9cb5 0240 484e 9e3f 0e60 493f
00000030: 74e0 8e3f e6c2 eb3f 4d53 533f e203 4d3f
1.4744222 0.8149961 1.6240401 2.0372272 1.425719 1.0083613 1.3093197 0.97192675
1.739525 2.0423346 1.236764 0.7866219 1.1162248 1.8418853 0.8254898 0.8008405

layer1.1.conv2.weight f4 [16, 16, 3, 3]
00000000: e600 b63d 62e9 a4bd 5962 e63b b7fc 1f3c
00000010: 248c babd c5e9 0f3d a637 933d 9418 1abd
00000020: 0cf6 68bd 6f61 e2bc 1034 0bbe d68a 33bd
00000030: 87ec 193b fb2d b7bd 59e0 90bd 0e1b 203d
00000040: 6ee1 63bd 87cb 1abe e6ba 62bd 1be8 b7bd
00000050: 7489 2e3d 14e8 0dbe 20bf 5fbd 8755 da3c
00000060: 7662 593a 4ec0 353d a119 7f3d 7727 183e
00000070: b844 4e3e fd5f 87bc 6359 ec3d dacd 133e
00000080: 29c4 343e e3f6 9bba b576 06be fb89 b43d
00000090: 2382 6e3d 2e47 003e aeac 993d 81cd 913d
000000a0: 1f66 823d 59bc 983d ef90 d13c 7b7f 1f3c
000000b0: a373 153d 5030 5fbd ed3a 6e3c 149c 023e
000000c0: 2f65 0fbe 9b06 603a 54ff 92bd 4b73 25be
000000d0: 3d7c 56bd 7340 a8bd 2c22 45bd f94e d8bb
000000e0: b116 403d af2a d63c 11dc 6f3d a970 e13c
000000f0: 4452 41bd 5546 9b3d 4d1a 993c 715e 313d
00000100: 9570 8c3d 66d3 bf3d 3a25 9b3c b04a 27bd
00000110: e44a b93d 7bf4 af3d 4ab2 dfbc d32c 893d
00000120: 916c 543d 43ac 0abd 1e51 6e3d 44ad d7bd
00000130: 033b cbbd d6a6 103e a79e afbd 3311 1ebe
00000140: 6152 a2bd 732f 4b3c 91d6 d9bc 67db cbbd
00000150: 4f08 6c3d 8755 b83d 310f 36bd f583 06bb
00000160: 4018 73bb 345a 3f3d 807d 2b3d cfa6 1a3d
00000170: 2c4d cbbc 9c9b 3d3c fa62 2abd 3857 f3bc
00000180: 418b c5bd b26c a8bd 1ffe 04be b472 603e
00000190: 1b78 c13d 5332 1e3e 69bc 193d 4ba0 233e
000001a0: 4888 363e 1575 66bd 7a5e 9d3d d338 4f3d
000001b0: 8325 7b3b 7b23 0139 bcb0 da3d 0807 853d
000001c0: a6f3 adbd b219 0b3e 36c5 dc3d 87ca 443d
000001d0: 405e 41bc 353e c63d 913d ec3d 12af 8d3a
000001e0: 70d2 86bc 1fd9 133d ab52 8bbd 4afc 64bd
000001f0: 2e00 36bc 2e2b e9bc fd46 ac3d 3bae 2c3d
00000200: 4dbd 653d dc34 893c bca6 85bc b840 433d
00000210: d978 a5bd 24a7 01be 1381 a5bd 22a6 3b3c
00000220: 1e1d 803d 1e4e 86bc a876 ffbc 4fb8 913d
00000230: fe07 3b3e dbd6 8dbd d44d 7abd 806a 823d
00000240: 4f24 b93d 1196 a9bd d8b7 803d 24c0 953d
00000250: 86c5 6c3d 230b b43d 9d3e 1e3d c9a3 dd3c
00000260: bf50 bbbd d3af b23d eb8d 7bbd 34b4 303d
00000270: f521 143d 91da af3d 067d 9f3d f846 a63d
00000280: 586c 153d 2915 203b c56a 7f3d 1f2f 99bd
00000290: 332c 083e b142 4a3e 409e 843d f3a8 11bd
000002a0: 5d64 853d 500e 793e b621 bc3d c403 31bd
000002b0: 94ee aa3c ebf2 4d3d 39aa 79bd cef8 2fbd
000002c0: 16e7 52bd 2c2c 4dbd e956 41be 3f23 f93d
000002d0: c371 df3c 00df 1c3e e8a7 59b9 3e6a e0bc
000002e0: 1329 2bbd 73e1 9abd 6df8 80bd 529b bcbd
000002f0: c160 343c 450f 4bbd 2704 6a3d cee2 3f3e
00000300: de4a 013d f444 a43d c1ad e33d 9510 cb3d
00000310: 3f31 df3d ac19 cb3c e8b2 373e 9584 253c
00000320: 9a4b 9f3d e8de 73bd 5482 e4bd 7f97 a8bd
00000330: a3d5 2bbe d921 33bd fbc9 19bd 027f f83c
00000340: f370 0f3d 70d1 233d 2a05 d73c fb86 513c
00000350: 577f 9fbc 8849 2ebd 7768 efbd a5b1 023d
00000360: 087a 353d 8834 043c 634f 23bb dac3 0cbd
00000370: 67c3 d43b 0f04 f83c b378 8d3d f150 c0bc
00000380: f7f7 d1bd f29a 403d 9895 0c3d f9fa 1f3d
00000390: 7079 ee3d 11e5 143e e84a 7fbd 4e63 79bd
000003a0: 3df3 a8bd ca12 b3bc fe88 a53d dd8f 533d
000003b0: 779b 4f3c 11bb 42bc d075 213d ac0e 273e
000003c0: b5b4 b13d 0f9d a23c 681d 5dbd 5ca4 953d
000003d0: d283 803d d2e5 9a3b ae38 0bbc 29dc 7d3d
000003e0: 64cf 073e d148 71bd a2df bc3d 2332 ba3d
000003f0: 43b5 21be 3179 ecbb bab5 6bbc 7c62 b5bc
0.0888689 -0.08052327 0.007030767 0.009764842 -0.09108761 0.03513505 0.071883485 -0.037621096
-0.056875274 -0.02763435 -0.13594079 -0.043833576 0.0023486929 -0.08944317 -0.07074041 0.0390883
-0.05563491 -0.15116702 -0.05535402 -0.089798175 0.042611554 -0.13858062 -0.05462563 0.02665211
0.0008292565 0.04437285 0.0622803 0.14858805 0.20143402 -0.016525263 0.11540487 0.14433995
0.17652954 -0.001189914 -0.1313122 0.0881538 0.058229577 0.12527153 0.07503639 0.07119275
0.06367134 0.074577995 0.025581805 0.009734984 0.036487233 -0.054489434 0.014540416 0.12754852
-0.14003442 0.0008545906 -0.07177606 -0.16157262 -0.052364577 -0.08215418 -0.048128292 -0.006601211
0.04689664 0.0261434 0.05855948 0.02751954 -0.047197595 0.07581774 0.018689299 0.043302957
0.06857411 0.09366493 0.01893865 -0.040842712 0.090474874 0.08591553 -0.027306695 0.06698003
0.05186135 -0.033855688 0.058182828 -0.10531095 -0.09923365 0.14126143 -0.085751824 -0.15436248
-0.07925869 0.0124014495 -0.026591571 -0.09953957 0.05762511 0.09000688 -0.04444808 -0.002052543
-0.0037093312 0.046716884 0.041867733 0.037756737 -0.024817072 0.011572745 -0.041598298 -0.029704675
-0.09645701 -0.08223857 -0.12987565 0.21918756 0.094467364 0.15448885 0.037533198 0.15979116
0.17825425 -0.056264002 0.076840356 0.0505913 0.003832192 0.00012315616 0.10678241 0.06495482
-0.08493738 0.1358402 0.107798025 0.048044708 -0.011802256 0.09679834 0.1153518 0.0010809621
-0.016457766 0.036095735 -0.06802877 -0.055904664 -0.011108441 -0.028462972 0.084119774 0.042158347
0.056088734 0.016748838 -0.016314857 0.047669142 -0.080796905 -0.12661415 -0.080812596 0.011453183
0.06255554 -0.016394671 -0.03118451 0.07115232 0.18264768 -0.06925746 -0.06110938 0.063679695
0.090401284 -0.08280576 0.062850654 0.073120385 0.05780556 0.08791187 0.03863393 0.027055638
-0.091462605 0.08724942 -0.06141464 0.043140605 0.036165196 0.0858661 0.07787518 0.08119005
0.036480278 0.0024426675 0.062357683 -0.07479691 0.1329811 0.19752003 0.06475496 -0.035561513
0.065132834 0.24321866 0.09186117 -0.04321648 0.020865716 0.050280493 -0.060953353 -0.042961888
-0.051489912 -0.050090954 -0.1888081 0.12164926 0.027275926 0.15319443 -0.00020757283 -0.02739441
-0.04178722 -0.07562532 -0.062973835 -0.092093125 0.011009396 -0.04957511 0.057132866 0.18738863
0.03156554 0.08020964 0.11117125 0.09915272 0.10898065 0.024792515 0.17939341 0.010102411
0.07778092 -0.05953875 -0.111576706 -0.082320206 -0.16780715 -0.04373345 -0.03754614 0.030334
0.035019826 0.039994657 0.02624758 0.0127885295 -0.0194699 -0.042550594 -0.11689847 0.031907696
0.04430583 0.008069165 -0.0024919144 -0.034366466 0.0064930203 0.030275373 0.06907787 -0.023476096
-0.10252374 0.047022767 0.03432235 0.039057706 0.11644256 0.14540507 -0.062327296 -0.06088572
-0.08249519 -0.021859545 0.0808277 0.05165087 0.012671343 -0.01188542 0.039418995 0.1631419
0.08677045 0.019850282 -0.053983122 0.0730674 0.06275143 0.0047271037 -0.0084974 0.06197754
0.13262707 -0.058907334 0.09222342 0.09091594 -0.15791802 -0.0072165956 -0.014386589 -0.022141688

layer1.1.bn2.weight f4 [16]
00000000: a5ba 0c3f 99be c03e 6b4c a23e 4738 123f
00000010: f6d8 173f 6e4a b63e 8495 fa3e 2da3 7b3e
00000020: d1ea 853e b6d1 f63e b8d3 c13e aa7f d73e
00000030: af6a 0c3f 3b44 be3e c5dc 193f 1e73 143f
0.54972297 0.37645414 0.31698927 0.5711712 0.5931543 0.3560366 0.48942196 0.24573965
0.26155713 0.48206872 0.3785684 0.42089587 0.54850286 0.3716143 0.6010249 0.57988155

layer1.1.bn2.bias f4 [16]
00000000: ea2b bcbd 97dc c9bc 0992 87be dd07 933d
00000010: 0e1b 81be 6f90 8c3d 028c 0e3d 8b21 cd3d
00000020: c4f5 c43d 7705 2dbe ef64 febb 30aa d5bd
00000030: 52c3 673d bb77 b43d 8d45 773d dd43 143e
-0.091880634 -0.024641318 -0.26478603 0.07179234 -0.25215954 0.06863486 0.03480149 0.100161634
0.096171886 -0.16896616 -0.007763497 -0.10432851 0.056582756 0.08811899 0.060369063 0.14479013

layer1.1.bn2.running_mean f4 [16]
00000000: af75 873e f814 163e 62ae 9cbd e4ba 3abf
00000010: b617 b1bd e23d ddbd ab4e 65be 3f02 72be
00000020: a66a dc3d 1047 b3bd 471c b9be 5c66 533d
00000030: 0a91 27be e866 eabd 999e fbbe 320e 4abc
0.26456973 0.14656436 -0.076504484 -0.7294142 -0.086471006 -0.10802819 -0.2239329 -0.2363367
0.10762529 -0.087537885 -0.36154386 0.05161129 -0.16363922 -0.11445409 -0.49144438 -0.012332486

layer1.1.bn2.running_var f4 [16]
00000000: b288 3e3e 1ad8 193e 98a1 e63d 0826 4c3e
00000010: 80dd 313e af3c 233e 56e4 233e aacd e83d
00000020: a3d9 d03d 9cd7 413e 5c08 143e 82c6 423e
00000030: 7d22 1e3e 8cf7 573e 3adf 783e 92f0 683e
0.18606833 0.15023842 0.1126129 0.19936383 0.17369652 0.15941118 0.16005072 0.11367352
0.10197761 0.18929905 0.14456314 0.19021037 0.15442844 0.21090525 0.24303904 0.2274802

layer2.0.conv1.weight f4 [32, 16, 3, 3]
00000000: 0273 923d 91a2 033c e4b2 fc3c b0b7 39bc
00000010: 7ef5 91bd 9dfe b5bd 5bb5 b8bc 66c7 1cbd
00000020: 2c77 03be a96c d0bc 96f5 aa3c e102 683d
00000030: 0dea 2cbc 8a0d 91bc 2cc2 143b c245 23bd
00000040: fa1e ab3d 8506 b33c d6f6 e13b 0698 4fbd
00000050: 3bb1 89bd 9503 613d b762 97bd 2374 293d
00000060: c979 ff3d 1a1d 20be 16e9 f03d 5f2a 58bc
00000070: 1b10 e73c d599 e5bb e2ec 1d3d 1b87 8f3d
00000080: c9ab 61bc 6e3b b1bc 8dd6 393d f85a 86bd
00000090: 8668 acbc e903 16bd 9a45 f83c 835e 053d
000000a0: d52e a9bc 60df 603d 4b0c babc d5e2 823d
000000b0: 397e b43c 587d bc39 cbd4 43bd 7ed9 5ebd
000000c0: d41c 1739 554e f4bc 6e2e 34bc 4315 eebc
000000d0: 5ae2 f23d 52b5 83bd b7ca d33c 1bf7 a0bc
000000e0: 5a13 6f3d fb00 813d f3d7 e8bd a119 903d
000000f0: a402 b83d e0b8 2cbe 0648 e13d 54bd a63c
00000100: b1ae 393d 3568 3a3b a8c1 623a 8da5 353d
00000110: 653e 1ebc 475f 1e3b 941d cebb b347 053d
00000120: e344 973d a25c 383c e56f 2fbd ace7 063b
00000130: e14d 3fbc 36fa 293b 0c9b 52bc e412 27bd
00000140: 2632 50bd 28b0 99bd 8aed 49bd bd3b 38bd
00000150: 4a02 e33d 8e99 1ebe 17d8 463e b631 563e
00000160: 097a 4dbe 2ee9 973d 6d70 53bc f92f 863c
00000170: 963f b83c 3353 d43c 5c66 cbbd 60da 3dbd
00000180: 4b47 763c 81cb a1bd f919 383d 878d fbbc
00000190: 3e22 4ebd 2195 ddbc 2f9b 283b 5ef2 8abc
000001a0: 5b9d 463c d9dc 0fba 41c4 8e3c 0670 033d
000001b0: 5aba 09bd daa2 dfbc 7cc8 553d 30ed 863d
000001c0: 84a8 cdbd 7168 31bd a1fe 3d3d 9c86 25bd
000001d0: 133b 09be 8f95 5bbb 84c4 d63c 7103 afbd
000001e0: 8949 66bd d45a 683e 55a1 7cbe 4f1e e2bd
000001f0: 83d8 863e d911 5cbe 7b6b 95bc fcae 723b
00000200: 494f 21bc 0eb1 5a3d b138 8ebc ddc3 bb3d
00000210: 1030 613a c8a8 0abe 35a6 9e3c 7a28 88bc
00000220: b09a ccbd 87e8 f1ba 1686 be3d 9fff d5bd
00000230: 2be1 ea3d eefb 013e 32c6 3ebe 15cd 5a3d
00000240: a771 8bbb f8f2 943d 614b 8b3d 7567 09bd
00000250: 33e3 5f3c ea27 203d 6728 f63a a5ab 583c
00000260: 4232 bfbc f52e e0bc ef7c ecbc b559 b23c
00000270: f976 8fbd 448c c4bc 1943 eb3c f4ad 95bc
00000280: 5059 83bd c790 2dba 19ef 66bd a671 4d3d
00000290: 1769 9b3c 6317 153e 72c3 e3bc c2dc 30bd
000002a0: 915a 163e b2d2 71bc ef9e 44bd 4fcc 9b3c
000002b0: 0db9 1c3e 7546 c33c d2e0 663d 46c6 0d3e
000002c0: 2e25 283e 2a29 89bc 5100 583d fdac 8a3d
000002d0: 4a7f a23a 65c9 41bd 2ce4 abbd 37a2 3fbc
000002e0: 55a1 a0bd 3987 dcbd 3f31 e3bd e46b 58bc
000002f0: cc2c f3bc 2817 49bd 73e2 08ba d259 0fbb
00000300: 22a6 773c e41e 5e3c 0d1a 293c 160b 74ba
00000310: b007 443c 8181 b6bd f2aa be3d b265 3e3d
00000320: be20 fa3d aece 50bb fc52 813c 1300 c03d
00000330: 10c0 f0bb 961a d23c a307 673d 48e6 70bd
00000340: fbe0 64bd cee4 f53c 6099 c5bd fbd0 78bd
00000350: 70e1 96bc 7884 27bd 5909 9ebc bbe5 723c
00000360: 3ac0 2a3d 7183 8fbc 6065 04be ad6b 1e3e
00000370: 8971 913c d0e6 46bd 5bb8 a93d c441 373c
00000380: fdaa 58bd 517c 8fbb 8558 3c3d 38dd 7bbb
00000390: 2412 3c3d b801 8abd 1104 1dbd ae43 ad3d
000003a0: 0357 3c3d d4d7 b5bd 87f2 08be 8643 83bd
000003b0: 4b2c 38bd 234b 53bd d5cc 9abd e415 c2bd
000003c0: 2a54 1c3d c6f7 35bd 4c29 a7bd 3611 813d
000003d0: 4c79 2abd e65f e6bd 358d b13d 1d5c ac3d
000003e0: 2a80 123d 6d6b b6bc a0fa 8fbd d117 563c
000003f0: ccc0 603d 60a6 053e 8854 5f3c 18d0 bf3d
0.07150842 0.008034364 0.03084702 -0.011335298 -0.07126902 -0.08886454 -0.022547415 -0.0382761
-0.12838429 -0.025442438 0.020869058 0.05664337 -0.010553849 -0.017706651 0.0022698743 -0.039861448
0.08355518 0.021853695 0.00689588 -0.05068209 -0.06723257 0.054935057 -0.07391875 0.041370522
0.124744006 -0.15636101 0.117632076 -0.013193696 0.028205922 -0.0070068636 0.038555987 0.07008191
-0.013773867 -0.021634784 0.045370627 -0.0656032 -0.021045934 -0.036624823 0.030306626 0.032560837
-0.020652214 0.054900527 -0.02271094 0.06390921 0.022032844 0.00035951543 -0.047810357 -0.054406635
0.00014411221 -0.029822508 -0.010997398 -0.029062873 0.118595794 -0.064310685 0.025853498 -0.01964908
0.058368064 0.06299015 -0.11369314 0.07036138 0.08984879 -0.16867399 0.110000655 0.02035395
0.045332614 0.002844346 0.0008650073 0.044347335 -0.009658431 0.0024165676 -0.006290147 0.03253908
0.07386186 0.011252554 -0.04283132 0.0020584865 -0.011676283 0.002593649 -0.012854349 -0.0407895
-0.050829075 -0.07504302 -0.0492988 -0.044978846 0.11084421 -0.15488264 0.19418369 0.209174
-0.20066084 0.07417522 -0.012905222 0.016380297 0.022491258 0.025918579 -0.09931633 -0.046350837
0.015031646 -0.079001434 0.044946644 -0.030707134 -0.050325625 -0.02704865 0.0025727262 -0.016961273
0.012122477 -0.0005487926 0.017427566 0.032089256 -0.033624984 -0.027299333 0.05219315 0.06588209
-0.100419074 -0.043312494 0.04638541 -0.040411577 -0.13401441 -0.0033505892 0.026216753 -0.08545578
-0.056222472 0.22690898 -0.24670918 -0.11040937 0.2633706 -0.21491183 -0.018239727 0.0037030568
-0.009845563 0.05339151 -0.017361017 0.09168217 0.0008590231 -0.13540947 0.019366363 -0.016620863
-0.09990442 -0.0018456139 0.093029186 -0.104491465 0.11468729 0.1269376 -0.18630293 0.053418238
-0.004255492 0.07272905 0.06801487 -0.03354593 0.013665008 0.039100565 0.0018780351 0.013224517
-0.023339394 -0.02736614 -0.028868167 0.021771291 -0.07005114 -0.023992665 0.028718518 -0.018271424
-0.064135194 -0.0006621 -0.056380365 0.05015721 0.01897101 0.14559703 -0.027803157 -0.04317928
0.14682986 -0.014759706 -0.048003133 0.01901832 0.15304966 0.023837307 0.05636675 0.13845167
0.16420433 -0.016743261 0.052734677 0.06771276 0.0012397554 -0.047311205 -0.0839313 -0.01169639
-0.07843272 -0.10767979 -0.11093377 -0.013209317 -0.029684447 -0.04909435 -0.0005221732 -0.0021873605
0.015115293 0.01355717 0.010321152 -0.0009309513 0.0119647235 -0.0891142 0.09309949 0.046483703
0.12213276 -0.0031861472 0.01578664 0.09375014 -0.0073471144 0.025647443 0.056403767 -0.058813363
-0.05587862 0.03001633 -0.096483946 -0.060746174 -0.018418044 -0.040897816 -0.019291567 0.01482528
0.041687228 -0.01751873 -0.12929296 0.15470763 0.017754333 -0.048559964 0.08287116 0.011185113
-0.052897442 -0.0043788333 0.045982856 -0.0038431417 0.045915738 -0.06738609 -0.038333956 0.084601745
0.04598142 -0.088790566 -0.13373767 -0.064093634 -0.044964116 -0.051585328 -0.075586 -0.094768316
0.038166203 -0.04442575 -0.08162174 0.06302111 -0.041619584 -0.1124876 0.08669511 0.08416007
0.035766758 -0.022268021 -0.07030225 0.013067202 0.054871365 0.13051748 0.013630994 0.093658626

layer2.0.bn1.weight f4 [32]
00000000: e314 d03e b04b c33e b515 143f 29d7 c83e
00000010: 353d 1d3f a9ba 173f 4686 eb3e d425 e63e
00000020: 8915 0a3f 0e3c 243f 3a32 bc3e 9a4f d23e
00000030: 42ad d63e 7aeb 0f3f 2dbc f23e c546 cf3e
00000040: d32a dc3e fc73 fd3e 497b 093f ad91 093f
00000050: b4aa 163f 9bb1 083f c777 073f d9ee cf3e
00000060: cd68 1d3f 23cc 123f 55f6 f53e 1cca 0b3f
00000070: a1f0 fa3e 6ee0 253f 9616 093f bd96 fd3e
0.40640935 0.38143682 0.5784562 0.39226654 0.6142152 0.59269196 0.4600088 0.44950736
0.5393911 0.64154136 0.3675707 0.41076356 0.4192906 0.56218684 0.47409192 0.4048368
0.43001422 0.49502552 0.53703743 0.5373791 0.5885422 0.53396004 0.5291714 0.40611914
0.6148804 0.5734274 0.480395 0.5460527 0.4901171 0.6479558 0.5355009 0.49529067

layer2.0.bn1.bias f4 [32]
00000000: 603a 6dbd 8088 a5bd fbfd 58bd 4597 143c
00000010: ca1d 79bd 9b1d e7bd 1447 85bd 0d9c a2bd
00000020: 00af b3bd c1e9 71be bc80 ccbd d3ef c23b
00000030: fe24 aabc 842d 5dbe 6217 f3bd 73d4 97bc
00000040: 4cea 32bd 983f 08be ab03 8bbd c408 c5bd
00000050: 4485 8bbe 54f2 58be 6ea7 90bd 8926 153e
00000060: d0d7 03be 0a6d 6fbd bed8 83bd e9e6 83bd
00000070: fcb0 a4bd 4cdb 0fbd a9de c8bd 2684 f4bd
-0.057917 -0.08082676 -0.05297659 0.009069269 -0.060819425 -0.11284944 -0.06507698 -0.079399206
-0.08773613 -0.23624326 -0.09985492 0.0059489994 -0.020769592 -0.21599394 -0.11869694 -0.01853392
-0.043680474 -0.13305509 -0.06787809 -0.096208125 -0.2725011 -0.21186191 -0.07063185 0.14565481
-0.12875295 -0.058453597 -0.06437825 -0.06440527 -0.080415696 -0.035121247 -0.09808094 -0.11939268

layer2.0.bn1.running_mean f4 [32]
00000000: d3a7 a1be 7104 5abd 0ca2 433e d06b f2be
00000010: 9d19 87bf 0a2a 60bd cfce 913b 46cb c7be
00000020: 0c64 213f 7531 8dbf ca7d de3e 833e 13be
00000030: 20cf 99be 9264 3cbf 9760 54bf a4a2 edbf
00000040: d556 45c0 3231 0f3f b2e0 a0bf ffb6 60bf
00000050: 7aca 0cc0 62c5 7c3f 5950 16bf ab10 25c0
00000060: 007c bdbe d908 4a3f 3bff 9e3f 3d37 6fbf
00000070: 00b8 8b3f 58e6 73bf 303c 363e c937 54bf
-0.31573352 -0.053226892 0.19104785 -0.4734788 -1.0554692 -0.05472759 0.0044497023 -0.39022273
0.63043284 -1.1030718 0.43455344 -0.14379315 -0.30040836 -0.7359096 -0.82959884 -1.8565259
-3.0834248 0.5593444 -1.2568572 -0.8777923 -2.1998582 0.9873868 -0.5871635 -2.5791423
-0.37008667 0.7891975 1.242164 -0.9344366 1.0915527 -0.9527335 0.17796397 -0.8289762

layer2.0.bn1.running_var f4 [32]
00000000: 9f1d 4440 644f b93f a5fe 4240 e2ce 893f
00000010: b1fa b940 af6a 8b40 0de7 e73f 8475 a63f
00000020: 4fab 8440 7694 a240 77ec 9f3f 16e1 c43f
00000030: 3520 0e40 058e 5740 d352 c03f 5ef1 af3f
00000040: 9035 c13f 03aa 2740 c706 6940 e4e4 5640
00000050: a42f 2640 3ee1 2740 a78e 7940 dc16 d43f
00000060: b30f 2d40 60e2 1c40 4321 0f40 092e be40
00000070: f842 bc3f 7790 9b40 3b4d 1140 1a00 2640
3.064308 1.4477353 3.0467923 1.0766261 5.811852 4.356773 1.8117386 1.3004613
4.1459117 5.0806227 1.2494038 1.5381191 2.2207158 3.3680432 1.5025276 1.3745534
1.5094471 2.6197517 3.6410387 3.3577204 2.5966578 2.6231227 3.8993318 1.6569476
2.7040832 2.4513168 2.2364051 5.9431195 1.4707937 4.861385 2.2703388 2.5937562
