local_files/ResNet_20_2.pt (torch, 734865 bytes, 77 tensors)

conv1.weight f4 [16, 3, 3, 3]
000000 cc a5 90 bd 92 86 bd bd 53 7e 81 3c e3 46 67 be
       -0.07062873 -0.09254183 0.015807306 -0.22585635
000010 81 09 09 bf 57 94 bc be c5 87 3f be b7 0e fa be
       -0.53530127 -0.36831924 -0.18704136 -0.48839352
000020 31 80 cd be 11 a8 bd 3d 03 f7 53 3e ab 92 46 3e
       -0.40136865 0.09260572 0.20699696 0.19391887
000030 c4 2f 9e 3d 1f 3c 06 be 98 8c 37 bd d8 35 bd 3d
       0.07723954 -0.13108872 -0.044811815 0.092387855
000040 36 f4 a0 bd 11 0d 31 be 3e 23 33 3d 26 b4 b6 3e
       -0.078590795 -0.1729014 0.04373478 0.35684317
000050 66 d1 c9 3e 28 4e 2d 3e d9 23 9e 3e 64 6f 84 3e
       0.3941757 0.16924345 0.30886725 0.25866234
000060 61 6f 9d 3e 4d 80 82 3e 86 df 7d 3e a4 3a a2 3c
       0.30749038 0.2548851 0.24792299 0.019803353
000070 ac 4b 8c 3c 05 8c 08 be 99 33 95 3e df 48 14 3e
       0.017125927 -0.13334663 0.29140928 0.14480923
000080 51 0d ad b9 90 84 f1 3d a2 4b 80 3d 33 07 42 3d
       -0.00033007053 0.117928624 0.06264426 0.047370147
000090 13 57 8e 3e c9 6d 56 3e 9b 53 2f bd 08 12 3a 3e
       0.27800807 0.20940317 -0.04280434 0.18170941
0000a0 a0 c6 cd b9 65 68 62 3c e6 93 24 be f0 d2 42 be
       -0.00039248634 0.013818835 -0.16072044 -0.19025779
0000b0 dc f9 1e 3d ae 60 5d 3e 19 95 5e 3e 6d 71 a3 3d
       0.038812503 0.21618912 0.21736564 0.079806186
0000c0 58 af ba 3d 7a 69 b8 3b b0 42 7b bb c4 88 a2 be
       0.091154754 0.005627808 -0.003833931 -0.3174497
0000d0 6c eb 6f be 84 a8 ab bd 4e f3 66 bd d8 78 8f be
       -0.2342965 -0.08381751 -0.056384377 -0.28021884
0000e0 d7 43 14 be e2 05 2c be 92 3a 52 bd 30 e1 35 bd
       -0.14479004 -0.16799119 -0.05132539 -0.04440421
0000f0 26 1a c6 bd 9a 9a df bb 94 d3 ce bc d2 b1 69 bd
       -0.09672956 -0.00682385 -0.025247373 -0.05705435
000100 9b 26 91 be 2a da 45 be f6 83 7d bd f8 45 50 3d
       -0.28349766 -0.19321504 -0.061893426 0.050847977
000110 91 5c dc 3d 67 40 a3 bd 88 95 ab 3d 88 78 8f 3d
       0.10759843 -0.07971268 0.0837813 0.070054114
000120 5a 1b 52 bb 02 3e 65 be 62 25 62 be 47 da 14 3d
       -0.003205976 -0.22386935 -0.22084573 0.036340978
000130 3b 8a 82 3e ba 72 5c 3e 0f 22 53 bc f4 b3 1a 3e
       0.25496086 0.2152814 -0.012886538 0.15107709
000140 2f 4b 20 3e 9b c8 af bb a5 29 03 3d 24 71 0e 3d
       0.1565368 -0.00536449 0.032022137 0.034775868
000150 5e b1 df bd 60 96 cc 3e fd 11 23 3f b5 ab b4 be
       -0.10922502 0.39958477 0.6369932 -0.35287252
000160 69 de d0 be 9a 9c d8 3c f5 3b b7 be 51 48 90 bd
       -0.40794685 0.026441861 -0.3578793 -0.07045043
000170 db 51 3b 3e 6b be f7 be 27 5e 3d 3e fb 86 34 3f
       0.18292944 -0.48387465 0.18492948 0.70518464
000180 31 82 e0 be 3c 80 02 bf 8f 4b fd 3b e0 00 c7 bd
       -0.43849328 -0.5097692 0.0077299546 -0.09716964
000190 04 e7 c1 3c 52 98 57 3e 89 5d 8b be d9 4d 3b 3e
       0.023669727 0.210542 -0.272198 0.18291415
0001a0 e1 d3 1e 3f 59 6d c9 be 8b 2c a3 be 58 a0 15 3e
       0.6204205 -0.39341238 -0.3186992 0.14611948
0001b0 9b 19 d5 be d1 66 ac be de d2 59 be 63 16 b2 bc
       -0.41621098 -0.33672193 -0.21271846 -0.02173919
0001c0 19 2c 03 3e 84 88 4c be d1 f7 9d 3e da 03 1b 3f
       0.1280979 -0.19973952 0.3085313 0.6055275
0001d0 dd 60 18 3f c5 1c 91 bd cc 3c 17 3c fe 07 a1 bd
       0.595228 -0.070855655 0.009230804 -0.078628525
0001e0 52 8a ad bd 85 c1 46 3e 79 db 29 be cc 18 5d be
       -0.08473648 0.1940976 -0.16587628 -0.2159149
0001f0 2c d1 3b 3e 5e 1b 7f 3e d7 ea 10 3e c7 6e 09 3e
       0.18341511 0.24912784 0.14152084 0.13421164
000200 de 9c 22 bd ca 6e 75 3d 94 ca 52 3e 05 06 ce be
       -0.03970038 0.05992011 0.2058509 -0.40238968
000210 b4 dc 93 be 07 8d 03 bd 20 1a 2a be 35 e0 1b 3d
       -0.2887932 -0.032116916 -0.16611528 0.038055617
000220 10 6e 22 bd e8 63 d9 bd d4 c8 c1 3d 2b 2d 35 3c
       -0.039655745 -0.10614759 0.09462133 0.011058132
000230 16 34 31 be 16 15 83 3d ca 5a 23 3d b6 27 4f be
       -0.17305025 0.06400506 0.039881505 -0.20229992
000240 d7 0b e5 3d 5e 03 80 3d 64 c1 84 3d f4 04 56 3e
       0.11183899 0.06250642 0.06482199 0.20900327
000250 ca 3f ba 3d a8 5f 7c bd bb ce 45 3e eb 3a ec 3d
       0.09094198 -0.061614662 0.19317143 0.11534675
000260 22 0e 2d bd 88 39 9a bc 32 d1 06 bd 0e 31 4c 3d
       -0.042249806 -0.018826261 -0.032914348 0.04985147
000270 af e5 0e 3e ed f8 73 3d 0b 81 a7 b9 f3 35 08 3e
       0.13954805 0.059563566 -0.00031948867 0.1330183
000280 4b 0c 95 3c 23 91 94 bd 88 46 0a 3e 7b 47 41 3f
       0.018194338 -0.07254245 0.13503468 0.75499696
000290 78 49 17 3f be 47 0b 3f db cd 01 3f 89 ec 06 be
       0.5909648 0.54406345 0.50704736 -0.13176169
0002a0 f9 21 ad 3c d3 50 04 bd bc 08 5a be fc 4b a9 be
       0.021134363 -0.032303642 -0.21292394 -0.33065784
0002b0 9f 2b 7a be 8f 39 95 be 4e 1a 08 bc ee 41 ca be
       -0.24430703 -0.29145476 -0.008307053 -0.39503425
0002c0 0a fb 69 bf 13 18 1a be 2a e4 8a be 99 ab 29 be
       -0.9139868 -0.15048246 -0.271272 -0.16569366
0002d0 0a 94 8a bd 86 63 15 bd 24 97 8e 3d 8f b3 a9 3d
       -0.067665175 -0.036471866 0.069624215 0.08286201
0002e0 15 b2 24 3c 78 e3 aa be a6 10 5a 3e 26 5e a2 3e
       0.010052224 -0.3337667 0.21295413 0.31712455
0002f0 57 b2 99 3e 4a 3f 6c be 42 18 24 3e 83 58 c1 be
       0.30018875 -0.23071018 0.16024879 -0.37762842
000300 1b 2e 2c 3e 76 11 82 bf 3e e2 f9 3d ec c7 e1 3e
       0.16814463 -1.0161579 0.122013554 0.4409784
000310 fe 2c 98 3e 3e e8 e3 3e 0a 79 e1 3d 8a da c8 3e
       0.29721826 0.44513124 0.110094145 0.39229232
000320 6b f4 7f bd 24 c5 5e 3e 79 9c 81 bf 7c 68 02 3e
       -0.062488955 0.2175489 -1.0125877 0.1273517
000330 a7 1d 90 3d ff 35 93 bc e8 0a f3 3d 51 c4 0a 3d
       0.07036906 -0.017970083 0.118673146 0.03387863
000340 d2 8b 2c 3f 4e 97 2d 3e 22 2f 04 3e 87 0b 0e bf
       0.6740085 0.1695225 0.12908605 -0.5548634
000350 17 13 03 3e 09 43 f5 bd 98 ed 99 be c1 d8 62 be
       0.12800251 -0.119756766 -0.30064082 -0.22152998
000360 0f 8b bc be cc f2 1d be 15 d0 95 be 77 ea a1 be
       -0.36824843 -0.15424651 -0.29260316 -0.31624195
000370 8a 7c 0c 3d bc 99 3b be a1 eb 89 be 5c 85 24 be
       0.034298457 -0.18320364 -0.26937583 -0.16066498
000380 e6 0d 18 be cb 7e 2a 3e 4b 91 f9 3e 19 46 b0 3e
       -0.14849052 0.1664993 0.48743662 0.3442848
000390 90 da 8c 3e 51 a4 46 3f c2 60 f6 3e de 59 3a 3e
       0.275105 0.77594477 0.48120695 0.18198344
0003a0 47 75 94 3e f3 bc 5a 3e 5d 97 af bd 23 38 e6 bd
       0.28995726 0.21361141 -0.08573792 -0.11241176
0003b0 01 f0 e2 bd 7b da 88 be 00 b7 23 be c3 f7 85 be
       -0.11080933 -0.26729187 -0.15987778 -0.2616559
0003c0 f7 6d 5e be 71 56 9c be 9b 69 9f be 68 85 44 bd
       -0.21721636 -0.305347 -0.31135258 -0.04797879
0003d0 bc 50 9a bd 1e 65 12 bd 97 13 a1 3d 0f b3 89 bc
       -0.0753493 -0.035740964 0.078650646 -0.016809015
0003e0 7d 08 80 be f8 e6 11 3d f0 df 87 3c 8e 96 78 be
       -0.25006476 0.03562066 0.016586274 -0.24276182
0003f0 3a 36 82 be 72 60 a8 3c 71 b4 48 3c bc c3 1b bd
       -0.25431997 0.020553801 0.012250052 -0.038028464

bn1.weight f4 [16]
000000 6b fa 0b 3f 9e 34 13 3f 4a 1f 8e 3e b6 88 12 3f
       0.5467898 0.5750216 0.27758247 0.57239854
000010 00 17 c1 3e 01 25 d2 3e 97 57 05 3f 34 b1 07 3f
       0.3771286 0.41043857 0.52086776 0.53004766
000020 05 d9 13 3f b9 42 c4 3e 72 9a 08 3f 50 f3 0f 3f
       0.5775302 0.38332155 0.53360665 0.5623064
000030 96 b1 a2 3e aa a9 1d 3f c3 1e 03 3f b5 bb fd 3e
       0.31776112 0.6158701 0.51218814 0.49557272

bn1.bias f4 [16]
000000 e6 fa 79 3e 33 15 1c be ac 3d 1b bd f7 d0 e9 3e
       0.24412116 -0.15242462 -0.03790061 0.4566724
000010 18 c3 69 3e af 4e 63 be e6 d9 66 3e cb 0b 5b 3f
       0.22828329 -0.22197984 0.22544059 0.8556487
000020 b7 bb a8 bd 64 0a 00 3e 9d fb 25 3f 0b d5 ff 3e
       -0.08238929 0.12503964 0.64837056 0.49967226
000030 78 05 eb 3d 51 60 02 be aa b0 bc 3e 12 91 6e be
       0.114756525 -0.12732054 0.36853534 -0.23297527

bn1.running_mean f4 [16]
000000 cc ee 5f be e7 09 76 bc a9 92 2e bc fe 26 d1 3c
       -0.21868438 -0.015017009 -0.010655084 0.025531288
000010 a4 cd 20 3d 34 d8 6a bd c8 5f 95 3c fd e5 68 3c
       0.039258614 -0.057335094 0.018234149 0.01421499
000020 ca ad b2 3d d8 2f fc bd 15 42 44 3b 11 20 30 3d
       0.08724554 -0.12313813 0.0029946615 0.04299933
000030 8a 48 de bd fa 9e 4a 3d a4 8c 2e 3d c1 52 3c 3d
       -0.108536795 0.049468018 0.042614594 0.045977358

bn1.running_var f4 [16]
000000 f0 00 11 3f b3 01 65 3e 43 94 6a 3e 2d 36 32 3f
       0.56642056 0.2236393 0.2290812 0.69613916
000010 0f 7a 23 3e 7e 55 27 3e 3c 02 89 3e 7b 87 0a 3e
       0.1596453 0.16341206 0.26759517 0.13528244
000020 38 4a 5b 3e 15 a7 4f 3e a2 c1 91 3e 2b 92 3a 3f
       0.21415031 0.2027858 0.28468043 0.72879285
000030 bd 59 4c 3e 95 d7 7c 3e 80 be cc 3e 3c af ec 3e
       0.19956107 0.24691613 0.3998909 0.46227443

layer1.0.conv1.weight f4 [16, 16, 3, 3]
000000 5e 10 51 3b 40 84 4a bc 2a 9d b3 3d 8f c9 46 3c
       0.0031900625 -0.012360632 0.08770211 0.012133016
000010 6a 90 72 3c a4 c6 15 3e 8f ff d2 3d 37 d4 aa 3d
       0.014804939 0.14626557 0.1030265 0.08341258
000020 cc 5c d4 3d 53 dd ea bc 46 bb db bd 74 7f 59 be
       0.10369262 -0.028669989 -0.10729079 -0.21240026
000030 56 3a 76 3d 72 23 8b 3c 76 9a ee bc df 93 53 3d
       0.060114227 0.016984675 -0.029126387 0.051654693
000040 17 1a e0 3d 88 1e f4 3d 57 64 ae bc 48 8a 98 bc
       0.10942476 0.11919886 -0.02128808 -0.018620625
000050 43 99 82 bc f0 ef 2e 3d 13 0a 05 3d 99 d9 d8 3c
       -0.015942222 0.04270929 0.03248031 0.026470946
000060 f2 1b 12 bd db b9 0c 3d 88 27 0c 3d da 9d 5a be
       -0.035671182 0.034356933 0.034217387 -0.21349278
000070 2b 11 ab bd 8b ac a2 bd db 35 06 3e dc 08 8f 3d
       -0.08352884 -0.07943066 0.13106482 0.06984112
000080 5a c1 2b bd ec 79 d6 3d 89 86 0a 3d dd ac 5a bd
       -0.04193244 0.104724735 0.03381971 -0.05338751
000090 64 94 17 ba ee 53 f6 3d ed 4f 67 3c e1 df 63 bd
       -0.0005782305 0.12027727 0.014118177 -0.05563343
0000a0 9d ae 06 3e eb 55 32 3d e7 2a d5 bd bf d2 89 bc
       0.13152547 0.04353897 -0.104085736 -0.016824124
0000b0 87 8c 10 bd f5 59 fa b8 74 4c 3c bb ce f5 6d 3d
       -0.035290267 -0.00011937685 -0.0028732093 0.058095746
0000c0 29 82 34 bb d4 e5 5e 3d f2 5b 15 3e 52 4f 3d 3d
       -0.0027543402 0.0544184 0.14585856 0.046218224
0000d0 7c 9f 9a 3c 24 49 2b 3e 98 64 ef 3d 26 0d 62 3d
       0.018874876 0.1672712 0.116891086 0.05518832
0000e0 92 35 df bb e3 ef 67 bd 82 26 aa bb 89 13 b6 3d
       -0.006811806 -0.05662526 -0.005192579 0.08890445
0000f0 51 7e 70 bb a9 3e 18 3d c0 e1 3d 3d 82 89 17 3c
       -0.0036696384 0.037169132 0.04635787 0.009249093
000100 d8 61 a1 bd c0 6b b5 3d 1f f1 21 3e 94 69 67 be
       -0.0787999 0.08858442 0.15814637 -0.22598869
000110 ca 8d cd 3d 9d b3 d4 3d 5b 09 7f bd 8c 17 54 3d
       0.1003681 0.10385821 -0.06226478 0.05178027
000120 19 75 dc bd 20 24 d8 bd 15 54 a4 bb 59 2d 84 3c
       -0.10764522 -0.10553765 -0.005014906 0.016134905
000130 7c 44 89 3d 01 55 a1 3d 87 17 e0 3d 41 3c e4 3d
       0.067025155 0.07877541 0.109419875 0.11144305
000140 c8 a8 fc 3d 90 4f 60 bd 75 96 a2 3d c9 2b 97 3d
       0.1233688 -0.054763377 0.07938854 0.07381398
000150 16 5e 96 bd 7a 6f 2b 3e 0f 56 f9 3d 98 4c 28 bc
       -0.07342164 0.16741744 0.121746175 -0.010272168
000160 d9 3d 7b 3d 47 4c af 3c 27 de c8 bd 40 0a 0f bd
       0.06133828 0.021398677 -0.09807997 -0.034921885
000170 31 34 e0 3d f7 3a 46 3e 12 0e 0d be 4a 2f 7a 3d
       0.10947455 0.19358431 -0.13774899 0.061080255
000180 80 4c a1 3d 59 93 2f be f4 ab 90 bd 16 6a 55 bc
       0.07875919 -0.17146052 -0.070640475 -0.013025781
000190 00 a2 78 bd 62 06 1e ba f8 ac 43 bd f2 26 35 bd
       -0.06070137 -0.0006028173 -0.047772378 -0.044226594
0001a0 d3 65 b5 3d 5a a5 29 be 21 66 4d be 1e 8e 82 3d
       0.08857312 -0.16566983 -0.2005849 0.06374763
0001b0 9e 7e 64 bd a1 67 6d 3c 3c 9f 92 bc d7 5a 11 bc
       -0.055784814 0.014490039 -0.017898194 -0.008871756
0001c0 53 1f 3d bc d3 91 a7 ba fd d7 54 bd da 37 02 bd
       -0.011543113 -0.0012784548 -0.051963795 -0.031791545
0001d0 b5 8f 5b bd 6c 75 6a bc 23 da c1 3b 0d 66 48 3c
       -0.053603847 -0.014310222 0.0059158965 0.012231362
0001e0 40 f3 90 3d b7 bd e0 3c 4d 5d 76 3d 0c b6 2f bd
       0.07077646 0.027434213 0.060147572 -0.042898223
0001f0 47 c0 37 3d ea 47 be 3d 47 96 28 3c 46 60 94 bd
       0.044861104 0.0929106 0.010289735 -0.07244925
000200 4e 49 dc bd ea 1d 1b 3e df 67 32 bd 66 93 3c bc
       -0.10756169 0.1514813 -0.04355609 -0.011509752
000210 de e6 46 3c dd 28 33 be 08 0e 0e 3e 96 0f 01 bd
       0.012140004 -0.17496057 0.1387254 -0.031509005
000220 52 0e 9a bd 90 5d c0 bd 54 5f 8e bc 90 6b 83 bd
       -0.07522263 -0.09392846 -0.01737944 -0.06417
000230 c9 74 0e be 05 20 47 bd 5f 00 d5 bd bc 96 19 be
       -0.13911738 -0.04861452 -0.104004614 -0.14998907
000240 01 1b cb bd a8 5f 0a be 0c 34 24 be ac 16 9c bd
       -0.0991726 -0.13513052 -0.1603548 -0.07621512
000250 f0 c8 d4 bd de 11 c5 bd 0a e7 ad bd 4b 64 ae bc
       -0.10389888 -0.096225485 -0.08491333 -0.021288058
000260 98 06 5e 3d f7 62 84 3c cb 97 65 bc 2d 42 23 bc
       0.054205507 0.016160471 -0.014013241 -0.009964508
000270 ad 16 15 3b c5 c2 23 bb 29 2a 60 3d e2 1a 80 bd
       0.0022749112 -0.0024987918 0.054727707 -0.062551275
000280 a4 89 e9 bc 3a ef 08 3d 99 07 b5 3d ab 0f 8e 3c
       -0.028508015 0.03343127 0.0883934 0.017341455
000290 d0 bf 7f bc e6 6c 4c 3c 9f 16 57 3c 02 1b 29 bc
       -0.0156096965 0.012477135 0.013127952 -0.010321381
0002a0 17 84 c2 bb 21 27 59 bd a7 72 91 bd 5f ed 12 bd
       -0.0059361565 -0.05301583 -0.07101946 -0.035870906
0002b0 3e 77 ba bc 61 0f b7 bd 3f bc 6e 3d c1 43 89 3d
       -0.022761937 -0.0893848 0.058284994 0.06702376
0002c0 98 ef 41 3d 13 02 84 3c d0 94 b0 bd 20 b5 e7 bb
       0.047347635 0.01611427 -0.08622134 -0.0070711523
0002d0 f7 ae 27 3e 0e 83 71 3e ef b3 1a 3e 96 44 50 3d
       0.16375338 0.2358515 0.15107702 0.05084666
0002e0 29 3f 54 3d c1 7f 6f 3d 6d 0f d9 3c 29 4b 40 bd
       0.051818047 0.058471445 0.026496613 -0.04694668
0002f0 56 a8 37 be a2 94 77 bd 06 e1 e4 bc 1a cf 42 bd
       -0.17935309 -0.06044448 -0.02793933 -0.04756079
000300 41 e1 84 bd 73 8d 8b bd 30 da 20 bd e3 f2 42 bd
       -0.06488276 -0.06814089 -0.03927058 -0.047594916
000310 37 7d 1d bd 13 c5 89 bd fa 72 3e be 64 07 02 be
       -0.038449492 -0.06727042 -0.18598548 -0.12698132
000320 bc b7 5c bd 69 45 c8 bd 6a d2 2c bd c1 0d ef bc
       -0.05388616 -0.09778864 -0.042192854 -0.029181363
000330 05 c3 2e 3d 83 43 0a 3e 9a 60 47 3d 07 cc 55 3e
       0.042666454 0.13502316 0.04867611 0.20878612
000340 bd 69 c5 3d dd 8f 44 3e ea 79 89 3d 91 1e 95 3d
       0.096393086 0.19195504 0.067127064 0.07281221
000350 e0 d5 d9 bc 32 b2 97 bd 1a 9c 34 3d 92 04 f3 bb
       -0.026591241 -0.07407035 0.044094183 -0.0074163163
000360 8d 0f 34 be c8 50 95 bd d0 0b e5 bd d5 e5 0c bd
       -0.17584057 -0.072907984 -0.11183894 -0.034398872
000370 d3 20 1d 3c ba b6 05 bd 4a 77 05 3c 63 b1 75 3d
       0.009590345 -0.032644965 0.0081461165 0.059983622
000380 b3 00 18 3d 12 95 d4 bc 72 b3 82 bc 82 48 2e bc
       0.03711004 -0.025949989 -0.015954707 -0.010637404
000390 0d bf a7 bd 63 a5 9a bd 83 d0 70 bd 79 39 1a bd
       -0.08190737 -0.07551076 -0.058792602 -0.037652466
0003a0 cb 36 69 bd bd bb 7e bd ac 38 26 bd dd 8d 3d bb
       -0.05693702 -0.06219076 -0.04058139 -0.0028923668
0003b0 43 a5 40 3d f9 51 e3 bc d6 e1 0b 3b 94 c6 0b 3d
       0.047032606 -0.027749049 0.0021344326 0.034124926
0003c0 8b 54 54 bc f7 5f 1a 3e 0d c4 d8 3d 42 6f 8b 3d
       -0.01295961 0.1507567 0.10584269 0.0680833
0003d0 6c 21 31 3d 1a f0 f7 bc 28 99 5b 3c 66 85 83 bd
       0.043244764 -0.030265857 0.0134032145 -0.06421928
0003e0 d7 d7 d4 bc 92 db da bc 99 5f 4b bd 35 8c ec bd
       -0.025981827 -0.026716027 -0.049651716 -0.1155018
0003f0 01 e0 6b 3c 86 1e 9f 3c 9f 5a fd bc 71 93 52 bd
       0.014396668 0.019423734 -0.030927 -0.051410142

layer1.0.bn1.weight f4 [16]
000000 9a ab dd 3e b2 a8 99 3e 13 2b ca 3e 23 ee 18 3f
       0.43294984 0.30011517 0.39485988 0.5973837
000010 59 90 df 3e 42 fc de 3e 84 db f9 3e 9f 31 e5 3e
       0.43664816 0.43551832 0.4880029 0.4476442
000020 f9 8b 14 3f d9 d5 e9 3e ad 11 19 3f 3a 11 d8 3e
       0.5802608 0.45670965 0.59792596 0.42200643
000030 ca 80 aa 3e b6 2e f6 3e 8f fd fc 3e f2 23 c2 3e
       0.33301383 0.48082513 0.494122 0.3791805

layer1.0.bn1.bias f4 [16]
000000 13 37 94 bd 50 df 31 bd 52 b9 8b be 8d ec e0 3e
       -0.07237067 -0.043425858 -0.27289826 0.43930474
000010 ed d2 c3 3e 64 bd 46 bd b3 f4 42 3e 28 24 d0 3e
       0.3824686 -0.04852046 0.19038658 0.40652585
000020 d4 8e 75 be 9f 92 36 3e 69 40 4e be e0 5a e9 bd
       -0.23980266 0.17829369 -0.20141758 -0.11394286
000030 82 ac 12 3e 76 0a 8f 3c e4 d5 3b be 76 ad 78 bc
       0.14323619 0.017461043 -0.18343312 -0.015178075

layer1.0.bn1.running_mean f4 [16]
000000 00 f3 32 3e 55 00 e1 3d df d6 62 3f b2 24 5f bf
       0.1747551 0.109863915 0.8860912 -0.8716537
000010 fb 8b 0e 3e 8c 7c f1 be 4d a9 aa bf 67 22 f2 be
       0.13920586 -0.47165334 -1.3332916 -0.47291872
000020 30 47 39 bf 2d 15 af bf d7 90 05 3f cc 49 ee bd
       -0.7237425 -1.3678337 0.52174133 -0.116351694
000030 cd ff 34 3f e9 a1 2a bf 26 c3 ac 3f 1c e8 b1 be
       0.7070282 -0.66653305 1.3497055 -0.34747398

layer1.0.bn1.running_var f4 [16]
000000 b9 dd ee 3e 13 49 c2 3e 95 78 a2 3e 1d 28 84 3f
       0.46653536 0.37946376 0.31732622 1.0324742
000010 3e 9e a1 3e f6 99 7d 3e d6 1d 8a 3f d7 1f d1 3e
       0.31566042 0.24765763 1.0790355 0.40844604
000020 fe 13 32 3f 03 52 38 3f be b4 7a 3f ed 4e 80 3e
       0.69561756 0.7200014 0.9793204 0.25060216
000030 91 17 17 3f 61 c9 2a 3f d6 c3 e9 3e bd d3 9a 3e
       0.59020334 0.6671353 0.45657223 0.30239668

layer1.0.conv2.weight f4 [16, 16, 3, 3]
000000 fa 78 b3 bd 62 d0 7b 3d d0 a5 88 bd c3 d8 8c 3d
       -0.08763309 0.061478026 -0.06672251 0.068772815
000010 8b d4 29 be 9f 8d fa bd dd c7 4f 3d 77 77 35 be
       -0.16584985 -0.12234043 0.050727714 -0.17721353
000020 d0 c2 3e be 74 89 94 bd 59 ee 81 bd 15 47 02 be
       -0.18629003 -0.072527796 -0.06344289 -0.12722428
000030 29 e0 84 bd 81 bc c5 3b 6c 72 d3 bc 94 87 82 bd
       -0.06488068 0.0060344343 -0.025811397 -0.06373516
000040 e9 15 8e bd ad 95 be 3b 2b 2c a7 bd 87 aa 0c be
       -0.06937773 0.0058161826 -0.08162721 -0.13736926
000050 75 5c 49 bd b2 dc b4 bd e9 ae c4 bd 84 50 5e bd
       -0.04916044 -0.08831157 -0.09603674 -0.054276004
000060 d9 32 9d bd 28 69 f8 bd 47 ad 92 bd 3c b5 3e bd
       -0.07675714 -0.12129432 -0.07161956 -0.046559557
000070 8d 17 c0 3c 18 9a 2a 3c 28 63 d7 bc 5a 12 6a be
       0.02344873 0.010412715 -0.026292399 -0.22858563
000080 7e 14 f1 ba 93 f5 1f 3d 8a da 44 bd f7 52 0f 3e
       -0.0018392948 0.039052557 -0.048059978 0.13996492
000090 70 ab 41 be d3 2c 19 be 72 a5 6f 3e 89 1d 0a be
       -0.18913054 -0.14958505 0.23402956 -0.1348783
0000a0 c0 c4 39 bd 62 45 ce 3d 0a 1c 80 be 56 da 79 3d
       -0.04535365 0.100718275 -0.25021392 0.060999237
0000b0 1e 23 a5 bc b2 ad f8 bd 70 8e 57 be 88 01 0b be
       -0.020158347 -0.12142505 -0.2105043 -0.13574803
0000c0 70 aa c7 3c 29 b3 ca 3c da 99 32 39 71 6c 12 3e
       0.024373263 0.024743633 0.00017032717 0.1429918
0000d0 e8 a4 65 3e 45 2f b7 3d 22 c6 18 bd 33 a7 8b bd
       0.22426188 0.08944563 -0.03729833 -0.06819
0000e0 ed 47 40 be 55 8c 06 bd 49 7b 6c 3d 0f 89 86 be
       -0.18777438 -0.032848675 0.05773476 -0.26276442
0000f0 58 df a1 bd 45 22 a7 3d 37 2b 4c bd d1 24 66 3e
       -0.079039276 0.08160833 -0.0498459 0.22474982
000100 35 76 04 bd 9f 91 ee 3c a3 0d 45 3d 02 59 a1 bd
       -0.032339294 0.029122172 0.048108708 -0.07878305
000110 53 af 02 be cf d2 16 be 01 e1 3d bb 31 9d 1f be
       -0.12762193 -0.14728855 -0.0028973224 -0.15587308
000120 94 7b b1 bd 6b 37 e1 3c 96 71 53 3d 71 ee e0 bd
       -0.08666149 0.027492246 0.051621996 -0.10982979
000130 84 a9 80 bd 47 42 c4 bd f3 85 d7 bd 29 1b 1a bd
       -0.062823325 -0.09582954 -0.10523596 -0.03762356
000140 fa 3f 4e 3d fd 1b 11 bc 4c 47 06 be 19 ff 0d 3e
       0.05035398 -0.008856771 -0.13113135 0.13866843
000150 6c 90 38 3d 72 c2 a3 bd 65 0a 5c 3d dd 79 ca 3d
       0.045059606 -0.07996072 0.05372085 0.09886525
000160 66 9b b2 3d 5e 43 b0 3d c5 de 04 be 28 84 0f be
       0.08721046 0.08606599 -0.12975605 -0.14015257
000170 9c e4 27 3d 3f 13 dd bd 88 6c 4a 3c e7 cf 5a 3e
       0.040989503 -0.107946865 0.012354977 0.21368371
000180 fc d9 88 bb ab 08 57 3c 2c bb ae 3a c1 f2 c5 bc
       -0.0041763764 0.013124625 0.0013330928 -0.024163606
000190 84 ae 7e 3e 58 20 96 3e 13 6c a0 bd 2b 91 db 3c
       0.2487126 0.2932155 -0.078331135 0.02680262
0001a0 7f 25 2b 3e c0 58 09 be 92 2e 9a bd 6e 06 a4 3c
       0.16713522 -0.13412762 -0.07528414 0.020022597
0001b0 d7 38 74 bc c3 b8 cf bd fb 71 58 be e4 d8 a4 bd
       -0.01490613 -0.101426624 -0.2113723 -0.08049181
0001c0 67 ed 57 bd fa 8f 46 be 4b c9 aa bd 3f e9 f3 bd
       -0.05271664 -0.1939086 -0.08339175 -0.119097225
0001d0 a0 e5 df bd ad b4 0e 3e 99 13 cc 3a 9d 9c 41 3d
       -0.10932469 0.1393611 0.0015569805 0.0472685
0001e0 ff ab bc 3c 75 a9 03 bd 15 54 33 bd e0 23 16 3d
       0.023031233 -0.03214403 -0.04378136 0.036655307
0001f0 63 06 c2 3c 2d 86 73 3e 61 e6 d9 bd 6e fe 01 bb
       0.023684686 0.23781653 -0.106396444 -0.001983549
000200 0e 51 3d be a8 6e 5f bd e4 ea 43 bd f2 77 17 bd
       -0.18487951 -0.05454889 -0.04783143 -0.036979623
000210 b1 0a 43 3d bd 64 34 bd 8e d5 6a 3d 6e 76 5d bd
       0.047617618 -0.044041384 0.057332568 -0.05406802
000220 36 77 83 bd a3 de 40 be ca 31 4e 3c a7 8d ad bd
       -0.06419222 -0.18834929 0.012585113 -0.08474284
000230 61 26 3e be de 28 98 3c b3 97 3b bd e7 dc 09 be
       -0.18569328 0.018574174 -0.04579897 -0.13463174
000240 09 e1 e8 3d 5c 30 5e 3d a8 53 0e 3c 7b 36 af 3c
       0.11371047 0.054245338 0.008686937 0.021388283
000250 49 56 a9 3c 83 25 13 bd 7f d7 96 bd ff 1b 31 bd
       0.020671027 -0.035924446 -0.07365321 -0.04323959
000260 d9 42 61 bc ca 83 40 bd 65 03 39 bd fd f7 f1 bc
       -0.013748848 -0.047000684 -0.045169253 -0.029537195
000270 71 b2 89 3c 62 23 66 3c 1a ba 30 3d 1f c8 b5 3d
       0.01680872 0.014046522 0.04314623 0.08876061
000280 3e bb b2 3d 45 05 9d 3d 49 c7 ec bc 07 36 63 3c
       0.0872712 0.07667021 -0.02890362 0.013867862
000290 00 51 05 bd 41 cf a3 3a 65 c5 1d bd 31 a0 06 bd
       -0.03254795 0.001249768 -0.03851833 -0.032867614
0002a0 63 e4 ba bc 87 32 27 bd ee f3 ae 3c ac bc b3 bd
       -0.022813981 -0.04081967 0.02135655 -0.08776221
0002b0 97 2d f4 3d 27 75 ec 3b 15 0a 02 3e 48 16 f1 3c
       0.11922758 0.007216114 0.12699158 0.02942957
0002c0 c0 5e d1 bd 07 7f 04 bd 61 96 c6 bd 09 50 81 3b
       -0.1022315 -0.032347705 -0.09696651 0.0039463085
0002d0 55 8e 56 3d c9 04 a3 bd 04 99 94 bb 6b 8e 63 3d
       0.052381832 -0.07959897 -0.0045348424 0.055555742
0002e0 5d 8a 1d bd 27 1c 02 3d ff 9d 2c be bb 34 f3 3d
       -0.03846203 0.03176513 -0.16857146 0.11875292
0002f0 ac cf dc 3d ea f3 3d 3c 83 6a 99 3d ef 6b d2 3d
       0.10781798 0.011593798 0.074910186 0.10274493
000300 b5 0d 60 bd 10 67 9a bb 3e 64 2b bd b0 e1 cd bc
       -0.054700572 -0.004711993 -0.041843645 -0.02513203
000310 5e 8a ba bd e0 99 da bd 64 3f 34 bc 07 e1 98 3d
       -0.09108423 -0.106738806 -0.011001442 0.074647956
000320 34 e6 29 3d 7f dc 88 39 a1 91 ee 3d 99 bd 67 3d
       0.041479304 0.00026104224 0.1164887 0.0565773
000330 d3 ae 6d 3c 18 e0 87 bc 69 38 84 bd 24 81 09 3e
       0.014507013 -0.016586348 -0.06456072 0.1342817
000340 aa 6e 11 3e 4d 42 62 3d 29 bd bc bc a2 1b 5a be
       0.14202371 0.05523901 -0.023039417 -0.21299604
000350 be 97 99 bd a6 84 0a be 42 93 6d 3d 30 34 67 bd
       -0.07499646 -0.13527164 0.058001764 -0.056446254
000360 27 5a 79 bd 22 c6 d8 3a 4f a0 8b bc 0c 18 d4 3d
       -0.06087699 0.001653854 -0.017044215 0.10356149
000370 fb a6 03 3e 48 14 eb bd f4 16 9a 3e c4 d4 09 3e
       0.12856667 -0.11478478 0.30095637 0.1346007
000380 ed 81 6b bd 3c 45 42 bc fd d2 9f bd ba 8d ee bc
       -0.057496954 -0.011857327 -0.07803915 -0.029120315
000390 2e a5 13 3b 21 9b 28 3d cf c0 fb 3d 8e 2a 3f bc
       0.0022528875 0.041163567 0.12292635 -0.011667861
0003a0 b8 ed 77 3e 36 39 07 3e e4 cb 6a 3d b2 6a 95 3d
       0.24211776 0.13205418 0.05732335 0.07295741
0003b0 17 5a f4 3d b4 44 23 3e 59 19 b6 3e db 35 53 3e
       0.11931246 0.15944177 0.35566214 0.20626013
0003c0 7a 45 07 3e ce 3b 8e 3e bd 79 65 bc 2d 29 e3 3c
       0.13210097 0.27780002 -0.014006075 0.027729595
0003d0 ee 34 e7 3d 5c 1e 1d 3d e4 b9 06 3d 59 3e ef bc
       0.112893924 0.03835903 0.032892123 -0.029204534
0003e0 5a 60 7c bb 4d fb 59 bd e0 ca c4 bb 65 76 fb bc
       -0.0038509578 -0.053218175 -0.00600563 -0.030696103
0003f0 6a 9e 57 bd 48 73 13 3d 5d 97 4f 3d 83 2e 5d 39
       -0.05264131 0.035998613 0.05068146 0.0002109353

layer1.0.bn2.weight f4 [16]
000000 5d 49 04 3f ba ed 0f 3f 6c c2 c7 3e 98 58 04 3f
       0.51674443 0.56222117 0.3901552 0.51697683
000010 44 c1 f5 3e c4 ca 0c 3f e6 2c 09 3f fb 7f 1d 3f
       0.47999012 0.54996896 0.53584135 0.6152341
000020 e9 dc bf 3e 5a 9a d2 3e 8a 89 20 3f 8e 73 fe 3e
       0.3747323 0.41133386 0.6270987 0.49697536
000030 c7 1f dd 3e 17 ad 3a 3f ae 8e 12 3f 60 67 16 3f
       0.43188307 0.72920364 0.5724896 0.5875149

layer1.0.bn2.bias f4 [16]
000000 bb ac da bd 27 31 4d be 58 9c 05 bd 7b c5 11 3e
       -0.10677477 -0.20038281 -0.032619804 0.14235489
000010 68 28 51 3d 22 88 13 be 98 63 ee bc 8b 4f 32 be
       0.051063925 -0.144074 -0.029100224 -0.17413156
000020 61 b1 3c bc da 85 b4 3d 02 ba 3c bd 56 5a c2 3d
       -0.0115169 0.08814593 -0.04607583 0.094898865
000030 3b 22 0a be 64 9a e2 bd 68 7b 00 bc 01 67 8f 3e
       -0.1348962 -0.11064604 -0.007841922 0.28008273

layer1.0.bn2.running_mean f4 [16]
000000 a3 97 5d bf aa 85 b2 3e ff 88 3d bf 54 c2 f9 be
       -0.86559504 0.34867603 -0.74037164 -0.48781073
000010 ef 84 a1 bd a5 01 08 3e 40 6b 36 bf d1 d6 c4 3d
       -0.07886683 0.13281877 -0.712574 0.096112855
000020 8d e7 82 3e 12 7c 36 be e7 81 c2 be ba d4 d2 be
       0.25567284 -0.17820767 -0.37989733 -0.41177922
000030 e8 5b 88 bc 74 4b 83 3e 48 44 66 be d2 3e d6 be
       -0.016645387 0.25643504 -0.22486985 -0.41844803

layer1.0.bn2.running_var f4 [16]
000000 88 53 db 3e 8c a0 ca 3e 00 46 6f 3e e2 39 1a 3f
       0.42837167 0.39575613 0.23366547 0.6024457
000010 42 d8 87 3e e1 f2 9e 3e c4 d5 90 3e b5 27 cb 3e
       0.2653218 0.31044677 0.2828809 0.39678732
000020 29 9a 93 3e aa a1 56 3e 3f a2 04 3f 45 5b 1e 3f
       0.28828552 0.20960107 0.5181007 0.61858016
000030 72 d9 b6 3e f8 8d e0 3e 7c c3 d8 3e 94 c2 f1 3e
       0.35712773 0.43858314 0.42336643 0.47218764

layer1.1.conv1.weight f4 [16, 16, 3, 3]
000000 38 d1 f3 3d b3 95 1c 3d ac 6e c1 3d 3e 1a be 3d
       0.1190514 0.0382287 0.09444937 0.09282349
000010 4e 2b d5 3d 13 a6 e7 3d 77 d6 0c 3e 0f 4c a7 3c
       0.1040865 0.11310973 0.13753687 0.02042201
000020 3f 20 ce bc f4 84 28 bd 83 ff bb bd 87 67 a5 bd
       -0.02516186 -0.04114242 -0.09179594 -0.08076387
000030 e4 b7 e3 bc 6b 61 ce 3c 5a 92 20 bc aa f4 0d 3e
       -0.027797647 0.025192937 -0.009800518 0.13862863
000040 e0 0d ec 3d 0b be 76 3d f3 be 57 3d c2 34 81 3d
       0.11526084 0.060239833 0.052672338 0.06308891
000050 fd ea 83 3d 7f 07 1a 3d 76 c6 15 3c ed b3 f8 3b
       0.06441305 0.037604805 0.009141555 0.007589808
000060 c7 26 63 3b fc 95 19 bd 52 0d 89 bd 14 b5 6f bb
       0.0034660564 -0.037496552 -0.06691994 -0.0036576437
000070 8f cb 63 bd e6 49 92 bd 46 4a 16 bd ff 7e 15 be
       -0.05561405 -0.07143001 -0.036691926 -0.14599226
000080 e3 13 98 bd a6 62 e4 3c a2 11 08 bd 92 e1 52 bd
       -0.07425668 0.02787907 -0.03321994 -0.051484652
000090 96 2c 45 bd d8 ef a1 bd 12 f0 63 bc 99 ec 50 bd
       -0.048138224 -0.07907075 -0.013912218 -0.051006887
0000a0 34 b7 40 bd bb 4e b5 bc e4 8a 05 3e 27 89 8e 3c
       -0.047049716 -0.022132268 0.13041264 0.017399384
0000b0 7f 15 46 3d 34 cc 13 be 0b 1e 6d bd c4 f0 00 be
       0.048360344 -0.14433366 -0.05788998 -0.12591845
0000c0 19 71 f1 bc 45 2b 86 bd cc 82 39 bd 60 8c 9d 3d
       -0.029472874 -0.06551222 -0.045290753 0.0769279
0000d0 50 73 64 bd 4f 29 86 bd 76 37 80 bd c2 11 82 bd
       -0.055774033 -0.06550848 -0.06260578 -0.06351043
0000e0 f7 8b 0c be 94 f1 95 bd aa 2a b5 3c 5f 85 c0 bd
       -0.13725267 -0.07321468 0.02211507 -0.094004385
0000f0 3e e9 c5 bc 9d 08 b3 bd 75 57 83 bd d2 f7 44 be
       -0.02415907 -0.08741877 -0.064131655 -0.19235161
000100 c3 32 e4 bd 97 ef 9a 3c 38 db 73 be 83 50 2f 3d
       -0.111424945 0.018913073 -0.23814094 0.04280139
000110 82 28 f9 b9 e9 0f 95 3d 63 89 0c 3e 64 95 e0 bd
       -0.00047523162 0.07278425 0.13724284 -0.10965994
000120 1b 71 27 bd c5 a5 15 bd e8 ba 88 bd 6a 54 af bd
       -0.04087935 -0.036535043 -0.066762745 -0.085610226
000130 73 ec 44 bd bd 7b 83 3c a6 87 aa bb c7 13 06 3d
       -0.048077058 0.016050214 -0.005204159 0.032733705
000140 01 39 bf 3d 95 01 4d 3c 23 43 8e bd 0f 2b 0d 3d
       0.093370445 0.012512584 -0.06946399 0.034464892
000150 0b 91 45 bd 0b 44 95 bc 36 ab 1b 3d 7a 5f 59 3d
       -0.048234027 -0.018220922 0.038005076 0.05306957
000160 b6 c8 b3 bb 2b 57 90 3c b9 01 be bd 1d 24 8d bd
       -0.005486573 0.01761969 -0.09277672 -0.06891654
000170 0f 9a 7d ba 83 8a 4d bd cd ed b7 bd 3d 2d 25 3d
       -0.00096741406 -0.050180923 -0.08980904 0.040326346
000180 43 3a b4 bd 31 19 52 3d 4f 49 2d be 94 12 09 3e
       -0.08800175 0.051293556 -0.16922496 0.13385993
000190 95 42 bf 3d ae 2c 26 be 01 da 99 3d cb 1b ad 3d
       0.093388714 -0.16227981 0.07512284 0.08452567
0001a0 b5 be 0c bd 2d 4c 56 be 79 fb c6 bd bf 4f 83 bd
       -0.03436156 -0.20927496 -0.09715933 -0.06411695
0001b0 62 fe 77 3d 95 98 2b 3d 2d b0 2d bb 79 14 28 3d
       0.060545333 0.04189356 -0.0026502714 0.04103515
0001c0 e9 bf 3a 3d 22 32 df 3c 79 72 e3 bb e5 d3 7d 3b
       0.045593176 0.027245585 -0.0069411364 0.0038731035
0001d0 6c 88 24 bc 3e 60 b9 bc 3e 90 0b bd eb d2 c1 bc
       -0.010042291 -0.0226289 -0.034073107 -0.023660144
0001e0 06 99 28 3c c8 32 13 bd 8f 21 9a 3d 31 9f ef 3d
       0.01029039 -0.0359371 0.07525932 0.11700285
0001f0 e4 0d 17 3e 03 95 c0 bb 68 d8 4f 3c db bb bc bc
       0.14751393 -0.0058771386 0.012685873 -0.023038795
000200 19 53 a6 3d 98 88 2c 3c 22 4f bc 3d 64 50 07 3d
       0.08121318 0.010530613 0.09194781 0.03303565
000210 03 a5 98 3d b7 7a 48 3e 84 9d ab bd a0 a2 5c ba
       0.074533485 0.19578062 -0.08379653 -0.0008416567
000220 9f 44 96 3d ff 6a a9 bc 9b 48 85 3d 90 e4 dd bb
       0.07337307 -0.020680903 0.06507989 -0.0067716315
000230 36 b5 d4 bd 8c c3 96 3d a4 25 cd bd 21 9e 6b bd
       -0.10386126 0.07361516 -0.10016945 -0.05752385
000240 b1 96 09 bd df 8d 31 bc 4a 1b a6 3d ae f9 45 bd
       -0.033590976 -0.010837047 0.08110674 -0.048333816
000250 84 aa 88 3c d1 a2 47 bd e0 6b aa bd 47 8e 0e be
       0.01668287 -0.04873926 -0.08321357 -0.13921462
000260 0f c7 f0 bd 4e 35 5b bc d7 57 55 bd 14 0e 96 3d
       -0.117567174 -0.013379408 -0.052085724 0.07326904
000270 78 0f 7d 3d c3 f1 4a 3c 94 d5 77 bb f1 d5 b7 3d
       0.06178233 0.012386742 -0.0037816511 0.08976353
000280 19 e8 f3 bb 06 65 01 bd dd a3 e1 bd c1 f0 86 bd
       -0.0074434397 -0.031590484 -0.110175826 -0.06588889
000290 95 e4 2c bc d2 96 90 bd f2 3f 4b bd 3e f5 62 bd
       -0.010552545 -0.07060017 -0.04962153 -0.055409662
0002a0 c4 6d 26 bd 0b 22 7b bd a8 27 6d bc 2c 4b 6e 3e
       -0.040632024 -0.061311763 -0.014474787 0.23270863
0002b0 43 59 7d 3e f6 c1 10 bc 05 66 25 ba c9 2c c0 3d
       0.24741082 -0.008835306 -0.00063094526 0.09383542
0002c0 f5 a6 18 be a8 85 c2 3c 76 20 e3 3d c9 1d 20 be
       -0.14907439 0.023745373 0.11090176 -0.15636362
0002d0 93 b2 7c 3d 88 70 45 bc 31 ce 20 bd 59 c3 c8 3a
       0.06169374 -0.012050755 -0.03925914 0.0015317007
0002e0 10 64 05 3b 50 74 95 bd a9 7c c5 bc 71 1f de 3b
       0.0020353831 -0.072975755 -0.024107294 0.0067786505
0002f0 ff 8b b0 3d 66 51 83 3d 8e a0 d8 3d d9 8b bd 3d
       0.08620452 0.0641201 0.105774984 0.092551894
000300 79 4f b6 bc f4 1b 45 3d bd b1 81 bc f9 c7 32 bd
       -0.022254692 0.04812236 -0.015831823 -0.04364774
000310 ee b0 3f 3c 76 17 db ba c8 9e fc 3c c9 c3 fa 3c
       0.011699898 -0.0016715366 0.030837432 0.030610936
000320 d9 de a3 3d 15 5f 57 3d af 74 98 3c 1a c4 d3 bd
       0.08001489 0.05258091 0.018610327 -0.10340138
000330 20 fe 9a 3c 12 4d 2d bd 73 a5 81 bd f4 60 4f 3e
       0.018920004 -0.042309828 -0.06330385 0.20251828
000340 3a 27 9b 3d 97 f3 9e 3d 5a cc 18 3e a5 66 ab 3d
       0.07575841 0.07761305 0.14921704 0.08369187
000350 69 1b a4 3d 10 29 97 3a 6f fb 2d 3d ed a1 a8 3d
       0.080130406 0.0011532623 0.042476114 0.0823401
000360 08 3f 90 3c dd 4f 94 3c 40 2d 55 3c 04 9b 42 bd
       0.01760818 0.018104488 0.013011277 -0.047511116
000370 04 fe 1a bc cb cc 26 3d 3f f5 75 bb fe 9d 3c bc
       -0.009459976 0.04072265 -0.0037530211 -0.011512278
000380 d6 a0 93 3c 86 3a ac bc 5e 9a 55 3d db 5e 16 bb
       0.018021028 -0.021024 0.05214917 -0.0022944722
000390 c3 c4 da bc 4d f1 75 3d d1 a1 2c 3d 85 d2 08 bc
       -0.026705151 0.060044575 0.042146508 -0.008350973
0003a0 7c 8e 8b 3c 95 81 0d 3d b5 da d1 bc 25 df df 3d
       0.017035715 0.034547407 -0.025616983 0.10931233
0003b0 08 5f 10 bd 09 6e ee bd 3e a2 33 3b 58 7e 05 be
       -0.03524688 -0.11642081 0.0027409936 -0.13036478
0003c0 09 83 c5 bd 5a 2c 4c 3c 81 b9 b4 bd be 95 0c 3e
       -0.096441336 0.012461746 -0.088244446 0.13728997
0003d0 28 b5 57 3d 1e f7 62 bd 48 a3 67 3e aa 2f 17 3e
       0.052663 -0.05541145 0.2262088 0.14764276
0003e0 09 7b e9 3d f5 fe 6c 3e 09 ed 3b 3e 86 7f 8d 3e
       0.1140042 0.23144133 0.1835214 0.27636355
0003f0 d5 f1 b9 3c e6 98 93 3c 11 4c 34 bd d1 25 29 bb
       0.022698322 0.018017244 -0.044017855 -0.0025809894

layer1.1.bn1.weight f4 [16]
000000 d9 94 c9 3e 5f 27 da 3e 8f 50 dc 3e 9b 7c f3 3e
       0.39371374 0.42608163 0.4303021 0.47556004
000010 ae 21 04 3f 9e 1c f8 3e bb 2e 04 3f 4a 37 e2 3e
       0.5161389 0.48459333 0.51633805 0.44182807
000020 7d 58 dc 3e 35 59 bf 3e e9 97 e9 3e 37 24 e8 3e
       0.4303626 0.37372747 0.4562371 0.4534013
000030 4e e1 e6 3e 0a e1 e3 3e 02 d4 ff 3e ab 64 a0 3e
       0.4509377 0.4450763 0.49966437 0.31326804

layer1.1.bn1.bias f4 [16]
000000 98 7c 4c be b0 6b ef bd 2a 34 37 be 9b b5 8f 3c
       -0.19969404 -0.11690462 -0.17890993 0.01754265
000010 24 f4 39 bd 24 82 24 3e 81 d6 81 be c4 3f 58 be
       -0.045398846 0.1606527 -0.25358966 -0.21118075
000020 e4 da d0 3d bd 29 bb 3c 8e 6f 60 3d 84 3f 0d 3e
       0.10198 0.02284705 0.054793887 0.1379376
000030 da bc 10 3e 60 aa 88 be cc 87 b9 bc 6c eb cd bd
       0.14134541 -0.26692486 -0.02264776 -0.10054669

layer1.1.bn1.running_mean f4 [16]
000000 b8 20 5c bf fb 5b c4 3f ec a5 f8 3c a0 5e ad bf
       -0.85987425 1.534057 0.030352555 -1.3544502
000010 88 0e dd bd bb ca ba bf 91 b8 cd 3b 6a b1 a2 3f
       -0.10793787 -1.4593118 0.0062781055 1.2710392
000020 0f f7 71 bf b7 f3 06 c0 37 19 a7 bf a1 1d aa be
       -0.94517606 -2.1086252 -1.305457 -0.3322573
000030 40 3f 0b c0 52 1b b2 3f 5d 1f 7e bf 2b 3f c7 bf
       -2.1757355 1.3914587 -0.99266607 -1.5566152

layer1.1.bn1.running_var f4 [16]
000000 b3 26 4c 3f 25 14 6c 3f d1 7b 00 3f c5 40 78 3f
       0.7974655 0.9221824 0.5018893 0.9697383
000010 f2 d2 af 3f 03 7c 87 3f c5 4b 48 3f db ca 3b 3f
       1.373625 1.058472 0.78240615 0.7335641
000020 9f 7e ac 3f 2f d1 84 3f 5d 2b 67 3f 0b c6 cd 3f
       1.3476142 1.0376338 0.9030054 1.6076063
000030 b3 9f d1 3f 73 a0 5b 3f 17 c3 96 3f 4b 53 52 3f
       1.6376861 0.857917 1.1778287 0.82158345

layer1.1.conv2.weight f4 [16, 16, 3, 3]
000000 72 ca 79 be a0 33 df bd d4 8e 0c bd ee 56 d4 bd
       -0.24393633 -0.108985186 -0.0343159 -0.10368143
000010 69 5d 94 bc 76 14 72 3d 5b 64 e3 bd 7d 3e 18 3d
       -0.018110948 0.059101544 -0.11103126 0.03716897
000020 ea d0 22 3c 67 6b 05 be a3 dd 86 bd 9d 1b eb bd
       0.009937504 -0.13029252 -0.065852426 -0.11479876
000030 89 52 4f 3d 60 db 98 3b 2d 0f 35 bd 7b ed 0f 3e
       0.05061582 0.0046648234 -0.044203926 0.14055435
000040 b6 75 7c 3d 31 84 9a 3d a0 58 c6 bc 7b 2e 12 bc
       0.061635695 0.07544745 -0.024212182 -0.008922215
000050 96 9b a3 39 c9 69 74 3c 9d 13 43 3c a1 14 d1 bc
       0.00031205703 0.014917799 0.011906532 -0.025522532
000060 e4 88 78 3d a1 aa a6 bc e9 f2 27 bd 0c fe 06 be
       0.060677424 -0.020345034 -0.04100314 -0.13182849
000070 67 a2 bf 3d 28 ae 17 3e b7 9d c8 bd 61 53 49 bd
       0.09357148 0.14812529 -0.09795707 -0.049151782
000080 8f 6a 17 3e 16 aa 12 be 3a c0 f8 3c 8b 1e 2d bc
       0.14786743 -0.14322695 0.030365098 -0.010566364
000090 11 c5 ef 3d 1d 1a 40 3e 09 f2 b1 bd 50 36 b6 3d
       0.11707509 0.18759961 -0.08688743 0.08897078
0000a0 72 1b 81 bd ea 9d b4 bd 15 99 68 bd f9 80 bb bd
       -0.06304063 -0.08819182 -0.056786615 -0.09155459
0000b0 8c 88 5a bd e9 14 57 bd fb 29 09 3c fd 83 7c 3d
       -0.053352877 -0.052510176 0.008371825 0.06164931
0000c0 b5 d8 b6 bd 82 a2 01 be 14 72 22 3d 74 16 40 3e
       -0.08928052 -0.12659648 0.039659575 0.18758565
0000d0 5c d7 e6 3c 5f ea 26 3e dd ec 3c 3e d0 d9 d8 3d
       0.028178863 0.16300343 0.18449731 0.105884194
0000e0 ba e7 da 3d c0 22 b1 3d 61 eb 63 3d e9 ff 1b bd
       0.106887296 0.08649206 0.055644397 -0.03808585
0000f0 29 7f 18 3e b1 01 8d 3c 5a 3f 56 bd d9 f9 bd bd
       0.14892258 0.01721272 -0.05230651 -0.0927617
000100 c0 45 3c bd e0 aa ab 3c a7 bd c5 bd 4c 0a b1 bd
       -0.045964956 0.020955503 -0.09655314 -0.08644542
000110 de be 21 3d d3 87 e3 bd ad 4b 0a be 5d b6 39 bc
       0.039488666 -0.11109891 -0.1350543 -0.011334983
000120 8a 0b 92 bd a4 07 d4 bd 97 2d 4c be c3 0b 22 3d
       -0.07131107 -0.1035302 -0.19939266 0.039561998
000130 28 b8 94 3d 68 95 75 bd d5 98 3f bd 62 52 8b bc
       0.072616875 -0.059956938 -0.04677661 -0.017007057
000140 8b 3a 10 3c 3b 72 2b bb 75 7a 74 bc 95 af 01 3e
       0.00880302 -0.0026160616 -0.014921774 0.12664635
000150 25 bd 27 bd 76 3d b7 3c 8e 34 9c 3d 10 f4 2b bb
       -0.040951867 0.022368174 0.076272115 -0.0026238002
000160 e1 bd b1 3b 69 5a 55 3d df 2c 06 3e 07 90 90 3d
       0.0054242467 0.052088175 0.13103054 0.07058721
000170 46 da 55 bd 8e e2 26 3d e6 49 48 bd 85 52 ea bd
       -0.052210115 0.040743403 -0.0488986 -0.114415206
000180 47 28 27 be 78 1b 00 bd 13 de 0a be 64 df 9b bd
       -0.16323958 -0.031276196 -0.13561277 -0.07610968
000190 0c 3b 9a 3c 01 ea ac bb 9d 9a 25 be 09 c4 28 3d
       0.018826984 -0.005276919 -0.16172262 0.04120258
0001a0 7b 14 ba 3c 4a 30 6d bd 5b df 4c be aa 2f 70 be
       0.022714844 -0.05790738 -0.20007078 -0.23455682
0001b0 b4 d1 a2 3d f7 7d 99 3d b5 cf b1 3d c6 e5 3f 3d
       0.07950154 0.07494729 0.08682195 0.04684999
0001c0 f2 22 fb 3c ac 8d c0 3d 7d 69 ef 3d 3b 50 40 3d
       0.030656312 0.09402022 0.11690042 0.046951514
0001d0 5c 3f c6 3d 78 e7 db bd 8a e3 1b bd b2 69 36 bd
       0.096800536 -0.107375085 -0.038058795 -0.044534393
0001e0 0b c9 d1 bc 9c 9f be bd 57 56 ac bc c8 77 6f bd
       -0.02560856 -0.09307787 -0.021037264 -0.05846384
0001f0 f9 00 fe bd ed 87 8d 3c 5c bd a7 3d 0f 0a 09 be
       -0.12402529 0.017276729 0.08190414 -0.13382743
000200 df f0 1e 3d 9f 4a d0 3d e8 96 44 3d 5c 27 38 3c
       0.03880393 0.10170483 0.047995478 0.011239853
000210 a4 1d 30 bd 5b f0 87 bd 1a c5 2c 3d 0e 01 7b bd
       -0.042997018 -0.06637641 0.04218016 -0.061280303
000220 c1 02 5f 3c 32 d1 7c 3d 9a e4 b3 bd 04 e5 92 bd
       0.013611496 0.06172294 -0.08783837 -0.071725875
000230 87 dc 6b bb 1d 85 f5 bd 8f c3 88 bd ae d5 37 3d
       -0.00359896 -0.1198828 -0.06677925 0.044881515
000240 81 c0 60 bd c4 42 1f 3d 4c 4e 5f 3c af ab 1f b9
       -0.054871086 0.038882032 0.013629507 -0.00015227379
000250 b6 bd 2c bd 9e 8c 41 be 01 6a 74 bc ad 2d b2 bd
       -0.04217311 -0.18901297 -0.014917851 -0.08700118
000260 5b 81 0c 3b a3 04 0d be d1 80 04 be dc 51 e3 bd
       0.0021439407 -0.137713 -0.12939765 -0.11099598
000270 b3 6c 1b 3d f4 9d 1b 3d 73 89 e8 bb c1 72 bb 3b
       0.03794546 0.037992433 -0.0070964633 0.005720467
000280 61 31 11 bd 51 4e 7b 3c 28 c4 0c be ab fe a2 3c
       -0.035447482 0.015338496 -0.13746703 0.019896826
000290 21 02 d3 3c dd 00 fd 3c 11 ea c9 bc 70 6c ea 3d
       0.025757851 0.0308842 -0.024647744 0.11446464
0002a0 ac c5 45 bd 74 9d ca bd 5c 6f a0 3d 54 8a 18 3d
       -0.048284218 -0.09893313 0.0783374 0.037241295
0002b0 9a 8f 5f 3b 9a 6a 87 bd 59 3c d8 bd 00 cd bf bd
       0.0034112693 -0.066121295 -0.105583854 -0.093652725
0002c0 28 ad 30 bc b8 e2 16 bc b2 d6 f0 3d eb db 14 bd
       -0.010783471 -0.009209327 0.117597 -0.036342543
0002d0 84 98 b8 bd 2e c5 a1 bc 9c 44 01 3d dd 8d 3d 3b
       -0.09013465 -0.019747343 0.03155957 0.0028923668
0002e0 16 a3 9d bd ba bd 57 3e c2 70 a4 3c 45 ac 9f 3e
       -0.07697122 0.21068469 0.020073298 0.3118612
0002f0 2f f4 fd 3d f4 1b 60 bd 49 eb 05 3e 44 67 c9 3d
       0.1240009 -0.05471416 0.13078035 0.098341495
000300 ab b5 60 3e 4c 15 1b 3d 45 62 53 be 7c 5d a9 3d
       0.21944301 0.037862107 -0.20642956 0.08269784
000310 fb 0a ed bd a9 2d d7 3d 9c 29 4e 3d 86 43 f2 bd
       -0.1157436 0.10506756 0.05033265 -0.11829285
000320 02 5d 0b be f6 e9 ba bc df 60 fa bc 02 e5 46 3d
       -0.13609698 -0.02281664 -0.03056377 0.048558243
000330 f8 d5 5c 3d 19 35 68 3d d5 d8 e2 3d 60 b1 f1 bd
       0.053914994 0.056691263 0.11076514 -0.1180141
000340 93 3c 9f bd c3 87 bb bd 0a a6 64 bd 1f 9c 7b 3d
       -0.077752255 -0.09156754 -0.05582241 0.061428186
000350 01 2a 93 3c 90 41 f3 bd 56 fa 64 bd 69 03 40 3d
       0.017964365 -0.118777394 -0.0559028 0.046878252
000360 2a a3 90 bc 83 57 89 bd b1 58 de 3d ac 90 fb 3c
       -0.017655928 -0.06706145 0.1085676 0.030708633
000370 9a 33 ff 3d 16 a1 68 3d 2b b3 a6 3c b8 33 00 be
       0.12461014 0.05679425 0.020349106 -0.12519729
000380 53 44 ea bd 9d 55 a7 3c b2 68 f7 bc 2c d0 83 bd
       -0.11438813 0.020426566 -0.03020129 -0.0643619
000390 3b 02 ed 3d 09 e3 87 3c d3 87 a5 bd 05 ca 20 3e
       0.11572691 0.016587751 -0.08082547 0.15702064
0003a0 85 71 6a 3d f4 7b 92 bc 83 3e 19 be a6 d5 a1 bc
       0.057237167 -0.017881371 -0.14965253 -0.019755196
0003b0 15 c8 02 bd c6 ac f0 bd c2 42 2e be 15 52 26 3e
       -0.031929094 -0.11751704 -0.17017654 0.1624225
0003c0 12 a3 8a 3b 6f 85 c6 3d 72 14 99 3d 71 41 ba 3c
       0.0042308653 0.09693419 0.07474603 0.022736283
0003d0 c6 91 20 3e 9b d7 20 3d 5b 40 d0 3d 0a c5 7d bd
       0.15680608 0.039268117 0.10168525 -0.06195549
0003e0 45 fd 0b be f8 79 dd bd 25 17 da bd 4d 86 0c 3d
       -0.13670833 -0.10814279 -0.10648946 0.034307767
0003f0 de 13 46 3d 04 53 6e bd 74 24 67 bc 19 4b 9d 3c
       0.04835879 -0.05818464 -0.014107812 0.019200848

layer1.1.bn2.weight f4 [16]
000000 2c 54 cc 3e f3 aa d4 3e 76 e3 e3 3e 4c b2 c5 3e
       0.39907968 0.41536674 0.44509476 0.38612592
000010 82 d8 ae 3e cf d4 db 3e c9 b8 18 3f 47 0d 0f 3f
       0.34149557 0.42935798 0.5965696 0.55879635
000020 f5 53 58 3e d0 5b 07 3f e2 b3 02 3f 7d d8 e3 3e
       0.21125777 0.5287447 0.5105573 0.44501105
000030 77 8f 8f 3e 29 86 14 3f e6 29 f5 3e e8 36 f8 3e
       0.28039142 0.5801721 0.47883528 0.4847939

layer1.1.bn2.bias f4 [16]
000000 58 38 97 3d cd d3 77 3c 89 f7 81 3c 63 b0 aa 3c
       0.073837936 0.015126181 0.015865104 0.02083606
000010 de 96 4d bd 52 1d 4a be 78 7f f5 bd 7f 2d 6f be
       -0.050192706 -0.19737747 -0.11987203 -0.23357199
000020 03 4c 3c bd d8 45 a8 bd 39 a3 a3 bd 41 77 61 be
       -0.045970928 -0.08216447 -0.079901166 -0.22018148
000030 2f 94 1f 3d e4 af 51 be b5 34 90 bd 00 bc 84 3d
       0.03895968 -0.20477253 -0.07041303 0.06481171

layer1.1.bn2.running_mean f4 [16]
000000 b4 28 0d be 55 0b 8b bd 29 dc e1 be 9c 86 4f be
       -0.13785058 -0.06789271 -0.4411328 -0.20266193
000010 97 e3 17 3d 54 4a 0c bc 42 d5 03 bf 36 43 b9 be
       0.03708228 -0.008562643 -0.5149728 -0.3618409
000020 da e5 f1 bb 75 6a 9f be 8a f0 b8 be a7 d1 85 be
       -0.007382137 -0.31135908 -0.36121017 -0.26136515
000030 9e 9e 73 3e 76 cc 28 be 78 58 9b be f3 7e 65 be
       0.23790976 -0.16484246 -0.30340934 -0.22411709

layer1.1.bn2.running_var f4 [16]
000000 e6 5f 72 3e fb a6 45 3e d6 45 19 3e ce af 9d 3e
       0.23669395 0.19301979 0.14968047 0.3079819
000010 c7 8c e0 3d 55 52 0f 3e 4b 2f 65 3e e9 e8 51 3e
       0.10964351 0.13996251 0.22381322 0.20499004
000020 ed 2a db 3d d1 71 30 3e f5 98 6f 3e a8 56 91 3e
       0.10701547 0.17230918 0.23398192 0.28386426
000030 3b c6 20 3e 60 d1 5a 3e 9f 32 3f 3e 39 3c 7b 3e
       0.15700619 0.21368933 0.18671654 0.24534692
