local_files/ResNet_20_apprx5B.pt (torch, 813115 bytes, 14 tensors)

conv_layer1.weight f4 [16, 3, 3, 3]
0	0xbdbab2f2	-0.09116162
1	0xbdd16270	-0.102238536
2	0x3db7f6c9	0.089826174
3	0xbdd7dc30	-0.10540044
4	0x3d91af1e	0.07113479
5	0xbc8d7766	-0.017268848
6	0xbcffa753	-0.031207716
7	0xbddfc044	-0.10925344
8	0x3d59a186	0.053132556
9	0xbcc4e170	-0.024033278
10	0xbd93688f	-0.07197677
11	0xbca4982f	-0.020092098
12	0x3dabcd42	0.08388759
13	0x3d19396d	0.03740828
14	0x3ddddbe2	0.10832955
15	0xbd9eb608	-0.077495635
16	0xbd94abb6	-0.07259314
17	0xbdcc9e26	-0.09991102
18	0xbc52186b	-0.0128232045
19	0x3dbf9b2b	0.09355768
20	0x3dd4be4f	0.10387861
21	0xbd609c91	-0.054836813
22	0xbdd5c687	-0.10438257
23	0x3a5119f7	0.00079765863
24	0xbd5d0ace	-0.053965382
25	0xbc28449d	-0.010270265
26	0x3d427018	0.047470182
27	0xbdbac932	-0.09120406
28	0x3de74776	0.11292927
29	0x3d7f2743	0.062293302
30	0x3dd0beb5	0.101926245
31	0x3df5a47c	0.119942635
32	0x3dd5a6c3	0.10432198
33	0xbd948102	-0.07251169
34	0xbb3893f4	-0.0028164359
35	0xbd879e83	-0.066220306
36	0x3d19b65c	0.037527427
37	0x3dabb939	0.08384938
38	0x3d830d97	0.063990764
39	0x3b3f6cec	0.002920921
40	0xbd970037	-0.07373088
41	0xbda6d54d	-0.08146153
42	0xbd8866b3	-0.06660213
43	0xbd996d02	-0.07491495
44	0xbd2983c1	-0.041385416
45	0xbc81f6b9	-0.015864717
46	0xbcb45c91	-0.022016795
47	0xbd2a4f89	-0.041579757
48	0xbc9f2088	-0.019424692
49	0xbdcab476	-0.098977014
50	0xbcf6629a	-0.030076314
51	0xbd4582ae	-0.04822033
52	0x3da31a9c	0.0796406
53	0x3d9be4a3	0.07611968
54	0x3d8269c0	0.063678265
55	0x3da81944	0.08207944
56	0x3d7cbff6	0.061706506
57	0xbd94b72b	-0.07261499
58	0xbc1f6e8f	-0.009730949
59	0x3d826078	0.06366056
60	0x3c454b40	0.012041867
61	0xbd265a69	-0.040613566
62	0xbde742cb	-0.112920366
63	0x3d89bd61	0.06725574
64	0xbd99e2bd	-0.0751395
65	0xbda8011a	-0.08203335
66	0xbd4eacf3	-0.050457906
67	0x3cfba03b	0.030716052
68	0x3dccb2e2	0.09995057
69	0xbb8ce58e	-0.004299826
70	0x3cabee7e	0.020987745
71	0xbd8157a1	-0.06315542
72	0xbe1de4b9	-0.15419282
73	0x3d1c9575	0.03822847
74	0xbd5c4518	-0.05377683
75	0xbda30741	-0.07960368
76	0xbd4e2471	-0.050327722
77	0xbd50ff6f	-0.05102485
78	0xbd922c71	-0.07137383
79	0xbda9a912	-0.08284201
80	0x3d6b27c3	0.057410967
81	0xbdd2de5a	-0.102963164
82	0x3dc9cd88	0.09853655
83	0x3da0c00e	0.078491315
84	0x3d4284c5	0.0474899
85	0xbdd49e4d	-0.10381756
86	0xbcc192f5	-0.023629645
87	0x3ddf215a	0.10895033
88	0x3db80dc9	0.08987004
89	0x3daab9a3	0.08336189
90	0x3df5d7e6	0.1200407
91	0xbd046de7	-0.032331374
92	0x3df519c5	0.11967806
93	0xbd16d003	-0.03681947
94	0xbbdb6435	-0.006695295
95	0x3d058b34	0.032603458
96	0x3dd25d4a	0.102717
97	0xbd6183c9	-0.05505732
98	0x3c052030	0.00812535
99	0xbc7fa9fa	-0.01560449
100	0xbd8b5830	-0.0680393
101	0x3d6267b8	0.055274695
102	0x3dde711d	0.108614184
103	0xbd29c697	-0.041449156
104	0x3e1e0b54	0.15434009
105	0x3e05d0c8	0.13067925
106	0x3d9c11fc	0.07620618
107	0x3e06dba6	0.13169727
108	0x3df72a7b	0.120686494
109	0xbca2fc9f	-0.01989585
110	0x3c29d04d	0.010364604
111	0x3dacb7a2	0.08433463
112	0x3cea8d4a	0.028631825
113	0x3ca42126	0.020035338
114	0x3d3a470b	0.045477908
115	0x3cef0c62	0.02918071
116	0x3da31c95	0.07964436
117	0xbd9082a5	-0.070561685
118	0xbd9459a8	-0.07243663
119	0xbdb24e07	-0.08706289
120	0x3dbe7621	0.09299875
121	0x3da47510	0.080301404
122	0x3db3ac3e	0.08773087
123	0x3d77d763	0.060508143
124	0xbd71da88	-0.0590463
125	0x3dd6dab6	0.104909346
126	0xbdaf426e	-0.08557592
127	0xbdf8ef26	-0.12154989
128	0xbd098d2e	-0.033581905
129	0xbd45a0ab	-0.048248928
130	0xbdee4a58	-0.11635274
131	0x3db38cb3	0.087670706
132	0x3cd64ea0	0.026160538
133	0xbdaa8d4c	-0.083277315
134	0xbd907b6d	-0.070547916
135	0x3da489a0	0.080340624
136	0x3de57d8b	0.11205586
137	0xbd944e58	-0.072415054
138	0xbcfd93b3	-0.030954218
139	0x3d59ed71	0.053204957
140	0x3da3ae9d	0.07992289
141	0x3d1b8fb1	0.03797883
142	0xbdf2737b	-0.118384324
143	0xbcce6c0c	-0.025198005
144	0x3db78ed2	0.08962788
145	0x3db7bef0	0.08971965
146	0x3dfbb00c	0.12289438
147	0x3d9c8870	0.07643211
148	0x3c20feaa	0.009826342
149	0x3db6a24e	0.08917676
150	0x3e09c7fc	0.13455194
151	0xbdd4f15a	-0.10397597
152	0xbd7d2b75	-0.061809022
153	0x3ddd9bae	0.10820709
154	0x3e2fc6b1	0.17165639
155	0x3d0b03d9	0.033939216
156	0x3acb2af8	0.0015500477
157	0x3d67ecef	0.05662244
158	0x3e218c58	0.15776193
159	0xbd6cf090	-0.057846606
160	0x3d9838c1	0.074327
161	0xbd6289eb	-0.05530731
162	0xbdae2500	-0.08503151
163	0x3c84543d	0.01615345
164	0x3bc8c4e6	0.0061269877
165	0xbdd2520c	-0.102695554
166	0xbd7ec571	-0.062200014
167	0x3d9a0618	0.075206935
168	0xbd1af9c1	-0.03783584
169	0x3d8832d1	0.066503175
170	0xbdd24d9c	-0.10268709
171	0xbd993eec	-0.074827045
172	0xbde442a6	-0.11145525
173	0xbc609ea7	-0.013709701
174	0x3cc92c41	0.024557235
175	0x3b87dc21	0.0041461145
176	0x3c3c24d4	0.01148339
177	0xbd8019d9	-0.0625493
178	0x3d92da88	0.07170588
179	0x3d3c0fef	0.045913633
180	0x3da8fc6d	0.082512714
181	0xbe06c3d4	-0.1316064
182	0xbe1534d5	-0.14570935
183	0xbd9c33c5	-0.07627062
184	0xbe065379	-0.1311778
185	0xbe061054	-0.13092166
186	0x3cadc4b2	0.021211956
187	0xbced4050	-0.02896133
188	0x3d961273	0.07327738
189	0x3dcaa05b	0.09893867
190	0x3b96b28f	0.0045989226
191	0x3db6d9a7	0.08928233
192	0x3dd2ca8e	0.102925405
193	0xbd9b9586	-0.07596879
194	0x3de16dbe	0.1100726
195	0x3dd690b0	0.10476816
196	0xbdf1a696	-0.11799352
197	0x3de8f1b6	0.11374228
198	0xbce49cde	-0.027906831
199	0xbde7ad5a	-0.11312361
200	0xbdd2f005	-0.10299686
201	0x3d85f40f	0.06540691
202	0x3ceafad8	0.028684065
203	0x3da2c6ee	0.07948099
204	0x3c401161	0.011722893
205	0xbde231ec	-0.11044678
206	0xbdf49e13	-0.11944213
207	0xbddb0bdf	-0.106956236
208	0xbdfe62b8	-0.12421173
209	0x3da944d6	0.082650825
210	0x3ccf3678	0.025294527
211	0x3c6399e4	0.013891671
212	0x3cbe25b5	0.02321134
213	0xbd537f12	-0.051634856
214	0xbd942cd8	-0.07235116
215	0xbc949bed	-0.018140757
216	0x3c1896b7	0.009313277
217	0xbd051ebc	-0.032500014
218	0xbd763256	-0.060106598
219	0x3abcce58	0.0014404757
220	0xbd8194ed	-0.063272335
221	0x3db02ec8	0.08602673
222	0xbd84da81	-0.06486989
223	0xbd18a96a	-0.03727094
224	0xbd2d0c2b	-0.042247932
225	0xbde91272	-0.11380471
226	0x3d8f0517	0.06983393
227	0xbb26bc86	-0.0025441959
228	0x3da02066	0.078186795
229	0xbde579a1	-0.112048395
230	0x3bfe1548	0.0077540018
231	0x3d5d9950	0.05410129
232	0xbd9d8111	-0.07690633
233	0xba82d296	-0.0009980972
234	0xbd9a9ff8	-0.07550043
235	0x3db8053f	0.089853756
236	0xbdda5214	-0.106601864
237	0x3d5458b2	0.0518424
238	0xbd9df1ce	-0.07712136
239	0xbc3a4a53	-0.011370259
240	0x3dce595a	0.10075636
241	0xbdb7333b	-0.08945318
242	0x3d721144	0.059098497
243	0x3dafc270	0.08582008
244	0x3d65cec5	0.056105394
245	0x3d07247d	0.032993782
246	0xbdcf9e15	-0.10137574
247	0xbddcec13	-0.10787215
248	0xbcd172c6	-0.025567424
249	0xbd40f9e5	-0.047113318
250	0xbc854779	-0.016269432
251	0xbddc2681	-0.107495315
252	0xbd20da76	-0.03927084
253	0x3de94bb5	0.11391393
254	0xbdca6df2	-0.09884252
255	0x3d2edd74	0.042691663

conv_layer1.bias f4 [16]
0	0x3dff1bc1	0.124564655
1	0xbe049401	-0.12947084
2	0xbcbd648a	-0.02311923
3	0xbe00a913	-0.12564497
4	0x3d384efd	0.044997204
5	0x3de0622e	0.10956226
6	0xbd3d7a92	-0.04625947
7	0x3e01748b	0.12642114
8	0x3d50a30d	0.050936747
9	0xbe02d913	-0.1277812
10	0xbc84d681	-0.016215565
11	0x3d38cb85	0.045115966
12	0xbdd9caa1	-0.106343515
13	0x3d43e4c6	0.047825597
14	0xbd38ed72	-0.04514832
15	0xbdd8b269	-0.10580904

conv_layer2.weight f4 [32, 16, 3, 3]
0	0x3c9db4a9	0.019251185
1	0x3d11c830	0.035591304
2	0x3c10c87e	0.008836864
3	0xbd1f2b17	-0.038859453
4	0xbcff16cc	-0.0311388
5	0xbd02a983	-0.03189994
6	0xbcca946d	-0.024728978
7	0x3d303ec7	0.04302862
8	0x3bb0d8a2	0.0053969184
9	0x3ba2ee97	0.00497229
10	0x3d53f9bb	0.051751833
11	0x3af64d59	0.0018791362
12	0xbd411fb0	-0.04714936
13	0xbc42588e	-0.011861933
14	0xbd4066e1	-0.046973113
15	0x3d5df83c	0.054191813
16	0xbba9dd70	-0.005183868
17	0xbc06650c	-0.008202802
18	0x3a1cd1d0	0.0005982192
19	0xbd35e705	-0.04440977
20	0x3cea79ca	0.028622527
21	0x3c114b92	0.008868115
22	0xbcafefa0	-0.021476567
23	0x3b2f7a51	0.0026775787
24	0xbb997739	-0.004683402
25	0xbd610036	-0.05493184
26	0xbd382baa	-0.044963516
27	0xbcf7a913	-0.030231988
28	0x3cf36469	0.029710965
29	0x3d63373d	0.0554726
30	0xbd05b01d	-0.032638658
31	0x3d33952d	0.043843437
32	0x3d667c59	0.05627093
33	0xbc0ddef6	-0.008659115
34	0xbcf8e67b	-0.03038334
35	0xbcd81afb	-0.026380053
36	0xbd4240d9	-0.047425125
37	0x3d3cf702	0.046134003
38	0x3c0af035	0.008480121
39	0xbd5c37ac	-0.05376403
40	0xbceca096	-0.028885167
41	0x3d4825bf	0.048864122
42	0xbcd20c6c	-0.025640689
43	0x3d09591e	0.033532254
44	0x3d072de8	0.033002764
45	0xbcc76b43	-0.024343139
46	0x3d0e9ca9	0.03481737
47	0xbc806767	-0.015674306
48	0x3d60723c	0.054796442
49	0x3d4360d2	0.047699757
50	0x3cd636b2	0.026149128
51	0xbbef5bcd	-0.0073046447
52	0x3c70c297	0.014694831
53	0x3d5622e7	0.05227938
54	0x3d479844	0.048729196
55	0xbd3b1033	-0.045669746
56	0x3c994134	0.01870785
57	0x3a95efd5	0.0011439273
58	0x3d2922aa	0.041292824
59	0xbbc849bb	-0.006112305
60	0x3ca5dc04	0.020246513
61	0x3cd01bb7	0.02540384
62	0x3b763e33	0.0037573695
63	0xbce1788c	-0.027523302
64	0x3b08104f	0.0020761674
65	0xbd496806	-0.04917147
66	0x3d4509b3	0.048104953
67	0xbca027c9	-0.019550221
68	0x3cab56bf	0.020915387
69	0x3b66d590	0.0035222508
70	0x3d402255	0.04690774
71	0xbc4c2f50	-0.012462452
72	0x3d178875	0.03699537
73	0x3d30908c	0.0431066
74	0x3d1d15d5	0.0383509
75	0x3d1fb82c	0.038994
76	0x3cffbbf4	0.031217553
77	0x3cbc7061	0.023002805
78	0xbd13c260	-0.036074042
79	0xbcf56e94	-0.029959954
80	0x3be7cfee	0.0070743477
81	0xbb80bcda	-0.003928763
82	0x3cf12ced	0.029440368
83	0x3d24e8ea	0.040261187
84	0xbcd24aa1	-0.025670351
85	0x3b80b8bc	0.003928272
86	0xbd022e43	-0.0317824
87	0xbc7e1858	-0.015508734
88	0x3d62fbf5	0.055416066
89	0x3c6d99ad	0.014501971
90	0xbd50d9af	-0.05098885
91	0x3c62254a	0.013802836
92	0xbc0c3dd8	-0.008559667
93	0x3cfd4351	0.030915888
94	0xbcb25b27	-0.02177198
95	0x3d11f09d	0.035629857
96	0x3d45311a	0.04814253
97	0xbc87706c	-0.0165331
98	0xbcd660ee	-0.026169267
99	0xbb6c712a	-0.0036078193
100	0x3c202f2d	0.009776873
101	0x3cc6d061	0.024269285
102	0xbca21ed9	-0.0197901
103	0x3ba8f5e2	0.0051562646
104	0xbd548a1e	-0.05188953
105	0x3b08b420	0.0020859316
106	0x3cb8a489	0.022539394
107	0xbb70078c	-0.0036625592
108	0x3cb15c66	0.021650504
109	0xbd038b66	-0.032115363
110	0x3d2305e1	0.03980053
111	0xbcd4bd3b	-0.025969138
112	0x39627815	0.00021597774
113	0xbd2b25ad	-0.041783977
114	0x3cf27660	0.029597461
115	0x3c224fc3	0.009906712
116	0xbd12f168	-0.035874754
117	0xbc819072	-0.015815947
118	0x3d09ec2d	0.0336725
119	0xbcb8756d	-0.02251693
120	0xbc926d29	-0.017874317
121	0x3d067082	0.03282214
122	0x3cb493ba	0.022043098
123	0x3c791de7	0.015204883
124	0xbc915c53	-0.017744219
125	0x3c35c27d	0.011093733
126	0xbd38f275	-0.0451531
127	0x3bc05ff6	0.0058708144
128	0x3ba09ad1	0.004901268
129	0xbc8ba5b3	-0.017046785
130	0xbd2ddf6c	-0.0424494
131	0xbca83e04	-0.020537384
132	0x3ccd42e8	0.025056317
133	0xba5dce7f	-0.0008461251
134	0xbd2c92c1	-0.042132143
135	0xbcf53940	-0.029934525
136	0x3c9da977	0.019245846
137	0xbc810e73	-0.01575396
138	0xbd187c95	-0.037228186
139	0x3c8d9365	0.017282197
140	0xbd41db6b	-0.047328394
141	0x3c2c3f34	0.010513116
142	0xbcddc73f	-0.027072547
143	0x3d2e4432	0.042545505
144	0x3bd67831	0.0065450897
145	0x3ca19124	0.019722529
146	0xbca9a4c2	-0.020708445
147	0x3c0af7a3	0.008481893
148	0xbca74ed9	-0.02042334
149	0xbcfd6c03	-0.030935293
150	0xbcf72938	-0.030171022
151	0x3d37b5d4	0.04485114
152	0xbc44d692	-0.012014048
153	0xbc5992ee	-0.01327966
154	0xbd10a521	-0.03531373
155	0x3d2b4502	0.041813858
156	0xbd6049ce	-0.054757886
157	0x3d108ac1	0.035288576
158	0xbcbe4ff6	-0.023231488
159	0xbc12702c	-0.008937877
160	0xbb052e9a	-0.0020321966
161	0x3d347941	0.04406095
162	0xbc47f7e9	-0.0122051025
163	0x3ce80be8	0.02832599
164	0x3ca98467	0.020693017
165	0xbd53b53a	-0.051686503
166	0xbcf4214a	-0.02980103
167	0xbd3c7a50	-0.046015084
168	0x3c2e1773	0.010625708
169	0x3d0819b5	0.03322764
170	0xbcded11a	-0.027199317
171	0xbc40a1e7	-0.0117573505
172	0xba7cc602	-0.00096425426
173	0xbcfe1fff	-0.031021116
174	0x3ca080e8	0.019592717
175	0x3c369e6e	0.011146171
176	0xbcd0213d	-0.025406474
177	0x3c68717a	0.014187211
178	0xbc1f50b6	-0.009723833
179	0xba9b31ae	-0.0011840367
180	0xbc19000f	-0.009338393
181	0xbd245b7f	-0.04012632
182	0x3b358e28	0.002770314
183	0x3d04966d	0.03237002
184	0xbc7f3010	-0.015575424
185	0xbd2d9fd3	-0.04238875
186	0xbd3274ae	-0.043568306
187	0x3d32af5e	0.043624274
188	0xbc8b8fb8	-0.017036304
189	0x3c2b2846	0.010446614
190	0xbd4c9d63	-0.049954783
191	0xbd3f34b0	-0.046681106
192	0x3c4df838	0.012571387
193	0x3cbb6bde	0.022878584
194	0xbd0dd3c1	-0.034625772
195	0xbc7589d1	-0.014986471
196	0xbd386277	-0.04501578
197	0x3d603458	0.05473742
198	0xbd4c8806	-0.04993441
199	0xbd2c3b12	-0.04204852
200	0xbc0c8701	-0.008577109
201	0xbc825bde	-0.015912946
202	0x3c840989	0.016117828
203	0x3d3b2e21	0.04569829
204	0xbd3bf75b	-0.045890193
205	0x3d28b269	0.04118577
206	0xbd02abd8	-0.031902164
207	0xbd606da5	-0.054792065
208	0x3cc699ab	0.024243196
209	0xbc694fb1	-0.014240191
210	0xbd0d6ace	-0.034525685
211	0xbd2fc776	-0.04291483
212	0xbd19305f	-0.037399646
213	0x3ce85dea	0.028365094
214	0x3d36d9cd	0.044641305
215	0x3d52eb61	0.051494006
216	0xbb92b2a0	-0.00447686
217	0xbd23aa94	-0.039957598
218	0xbc928c15	-0.017889062
219	0x3cfdc35d	0.030976946
220	0x3c285d19	0.010276102
221	0xba5cf3e5	-0.0008428677
222	0x3d33ee9f	0.04392874
223	0xbc8510f9	-0.016243445
224	0x3c8c783f	0.017147182
225	0xbc97705a	-0.01848619
226	0x3d16d84b	0.036827367
227	0xba83fa0d	-0.0010069028
228	0xbc6a52e8	-0.014301993
229	0xbd19c907	-0.03754523
230	0xbc17ba42	-0.009260716
231	0xbd3ecece	-0.046583943
232	0x3c190996	0.009340664
233	0xbcec04d2	-0.028810892
234	0x3c58dedd	0.0132367285
235	0x3d3b455e	0.04572045
236	0xbc84022e	-0.01611432
237	0x3d4517cf	0.04811841
238	0x3ca2d7e9	0.019878345
239	0xbd11d630	-0.035604656
240	0xbcc8c8cc	-0.02450981
241	0x3cee5d2c	0.029097162
242	0xbd338231	-0.043825332
243	0xbc50be4e	-0.012740685
244	0xbd1e7d45	-0.038693685
245	0xbc91f8b9	-0.017818796
246	0x3d0db52d	0.03459661
247	0x3cddca01	0.027073862
248	0xbd585925	-0.05281939
249	0x3c92fb14	0.017941989
250	0xbbe7389a	-0.007056308
251	0x3c9586a2	0.018252674
252	0x3b8baafe	0.004262327
253	0xbd3b7d5d	-0.045773853
254	0xbd0dc9e5	-0.03461637
255	0xbcf9e285	-0.03050352

conv_layer2.bias f4 [32]
0	0xbc0f7b00	-0.008757353
1	0xbd142c38	-0.036174983
2	0x3ceadb6e	0.028669085
3	0xbc0b4148	-0.008499451
4	0xbd487439	-0.048938964
5	0xbb8c5055	-0.0042820373
6	0xbd894f2c	-0.06704554
7	0x3ce7ca45	0.028294692
8	0xbc26549a	-0.0101520065
9	0xbc0cfa60	-0.008604616
10	0xbd0f7bfc	-0.03503035
11	0xbd2c0125	-0.04199328
12	0x3b32ccef	0.0027282794
13	0x3d73ce30	0.059522808
14	0xbd40aa4f	-0.04703742
15	0x3ba7278c	0.00510115
16	0xbc639143	-0.013889614
17	0x3ccf110d	0.025276685
18	0x3c05c5c3	0.008164826
19	0x3c2a16c9	0.010381409
20	0x3b3f45cb	0.0029185887
21	0xbc83528f	-0.016030578
22	0xbd1b4c9b	-0.037914854
23	0x3be0862a	0.006851931
24	0xbd8ec5f3	-0.069713496
25	0x3cc83479	0.024439083
26	0xbd50f0a4	-0.051010743
27	0xbc0df6ea	-0.008664826
28	0xbc0bbaa9	-0.00852839
29	0xbd1718b2	-0.036888786
30	0xba879a2c	-0.0010345629
31	0x3d514ab0	0.05109662

conv_layer3.weight f4 [32, 32, 3, 3]
0	0xbc524f39	-0.012836271
1	0xbae07e3b	-0.0017127463
2	0x3c8f5a52	0.017499123
3	0x3c5ae6ff	0.013360738
4	0x3c64e2f9	0.01397013
5	0x3b8783b4	0.0041355733
6	0xbcf46cfb	-0.029837122
7	0x3cb843e1	0.022493305
8	0xba41514d	-0.00073744805
9	0x3a0fb10c	0.0005481399
10	0xbb86cca8	-0.0041137524
11	0xbd0f4d29	-0.034985695
12	0x3d0ca44f	0.034336384
13	0xbcdef058	-0.027214214
14	0xbc5245a1	-0.012833984
15	0xbc8d4002	-0.017242435
16	0x3bff843e	0.007797747
17	0x3af8a583	0.0018970225
18	0x3c0f017b	0.00872838
19	0x3c84af86	0.016196977
20	0x3cd0d408	0.02549173
21	0x3c1c15fe	0.009526728
22	0xbcc4d66e	-0.02402803
23	0x3cbaf7ed	0.022823298
24	0x3ce88c3a	0.028387178
25	0x3d02754c	0.031850144
26	0x3a1b4430	0.00059229415
27	0xbc6ef24c	-0.014584135
28	0xbcecefe8	-0.02892299
29	0x3cd30eb1	0.025763841
30	0xbd077261	-0.033068065
31	0x3d0c9536	0.034321986
32	0x3ce5e317	0.028062386
33	0xbce35cdc	-0.02775424
34	0x3ca386e7	0.019961787
35	0x3cd95d3c	0.026533715
36	0xbba31e3b	-0.004977969
37	0x3cab7d0d	0.020933652
38	0x3c32c2d9	0.010910713
39	0xbce46abe	-0.02788293
40	0xbc9e0285	-0.01928831
41	0x3c5e0b45	0.013552492
42	0x3c6cfd7c	0.014464732
43	0xbc78ab03	-0.015177491
44	0x3d268c42	0.040661104
45	0xb9974307	-0.00028850904
46	0xbcc3698f	-0.023854045
47	0xbcb10c91	-0.021612437
48	0xbcd24ce4	-0.02567143
49	0xbce47450	-0.027887493
50	0xbcf21c29	-0.029554443
51	0x3c02b97c	0.007978793
52	0x3cff053d	0.031130427
53	0x3d14c9ab	0.036325138
54	0x3cdec1b6	0.027191978
55	0xba47cbbf	-0.0007621608
56	0x3cfcf6a6	0.03087933
57	0xbc2bc452	-0.010483818
58	0xbd28537f	-0.041095253
59	0x3b48e5aa	0.0030654469
60	0xbc8dc902	-0.017307762
61	0xbbc5f8a2	-0.006041602
62	0xbd0c3917	-0.034234133
63	0xbc62dbf5	-0.013846387
64	0xbc4c0c94	-0.012454171
65	0xbceb85ed	-0.028750384
66	0xbcaec813	-0.021335637
67	0x3cac5f93	0.021041667
68	0xbbb6e5df	-0.005581602
69	0xbc6d33ab	-0.014477651
70	0xbd0315a6	-0.032003067
71	0x3c55010a	0.013000736
72	0x3c9a96d7	0.018870754
73	0x3b7ec984	0.0038877437
74	0xbc9c22a8	-0.019059494
75	0x3ca01b9e	0.019544419
76	0x3c5eaf7e	0.013591645
77	0xbc9a599f	-0.018841563
78	0x3b8caf02	0.0042933235
79	0x3cc66fc9	0.024223225
80	0x3cf14608	0.029452339
81	0x3cd2a514	0.025713481
82	0x3accf9fe	0.0015638468
83	0x3cd2604d	0.025680685
84	0x3ca7ab57	0.020467443
85	0x3c1ca0bb	0.0095598055
86	0xbd09919a	-0.033586122
87	0x3b909fe7	0.004413593
88	0x3c7f7404	0.015591625
89	0x3ab306d8	0.0013658656
90	0x3c877bea	0.016538579
91	0x3bcab9e5	0.006186711
92	0xbca3b519	-0.019983815
93	0xbd20bf41	-0.039244894
94	0xbd094645	-0.03351428
95	0xbcbe65d2	-0.023241911
96	0xbcf2e493	-0.029650008
97	0x3ab44d40	0.0013755932
98	0xbbd9438b	-0.006630366
99	0xbd2190ae	-0.039444618
100	0xbbc4178a	-0.0059842514
101	0xbc4e17fd	-0.012578961
102	0xbc972fc2	-0.01845539
103	0xbcbb88d2	-0.02289239
104	0xbcb9af64	-0.02266664
105	0xbcd2fdd3	-0.025755798
106	0x3c4a7798	0.012357615
107	0x3cb9c7f8	0.02267836
108	0xbcf85054	-0.030311741
109	0x3cb82dec	0.022482835
110	0xbc04e937	-0.008112243
111	0xbc4c5774	-0.012472022
112	0x3a83acb3	0.0010045975
113	0x3b3297ba	0.002725108
114	0xbc42398f	-0.011854543
115	0xbc80d689	-0.015727298
116	0xbb92951b	-0.004473341
117	0x39cb330a	0.00038757204
118	0x3c840f86	0.016120683
119	0xbcba3583	-0.022730595
120	0x3d0134d6	0.03154453
121	0xbca1c5aa	-0.019747574
122	0x3d10e7c2	0.03537727
123	0xbc65e385	-0.014031296
124	0xbc5cc12f	-0.013473793
125	0xbd1111f0	-0.035417497
126	0x3c908a9a	0.017644215
127	0x3be08337	0.0068515795
128	0x3c82d93b	0.015972724
129	0x3ade1778	0.001694425
130	0xbc1ea20b	-0.009682189
131	0xba24eb9c	-0.0006291212
132	0x3ce70930	0.028202623
133	0xbbed819f	-0.007248118
134	0xbca9deae	-0.020736065
135	0x3d0e55e0	0.034749866
136	0x3ad3b03a	0.0016150542
137	0x3cd01d90	0.025404721
138	0x3ca29015	0.019844094
139	0xbc363d0c	-0.011122953
140	0x3cfdd693	0.030986106
141	0x3d2d9fef	0.042388853
142	0x3ccfc94a	0.025364537
143	0x3c9b04b9	0.01892315
144	0x3d189c78	0.037258595
145	0x3ccdd87b	0.02512764
146	0x3c7c6026	0.015403783
147	0x3ccbbb48	0.024869576
148	0xbcd40444	-0.02588094
149	0x3b8a98e4	0.0042296518
150	0x3ce2aef4	0.027671315
151	0xbcf698b2	-0.030102108
152	0xbd0aa10c	-0.033844993
153	0x3d1d6706	0.03842833
154	0xbcd982cb	-0.026551625
155	0xbcf83fc1	-0.030303838
156	0xbcfabf9d	-0.030608946
157	0x3c847446	0.016168725
158	0x3c6bebba	0.014399463
159	0x3ac4b9d6	0.0015008997
160	0x3d05c466	0.032658003
161	0x3cb0ea02	0.021595959
162	0x3c713877	0.014722935
163	0x3c915788	0.017741933
164	0xbcd378ba	-0.025814403
165	0xbb244e36	-0.0025071031
166	0xbd083bc6	-0.03326013
167	0xbcce8f00	-0.025214672
168	0x3ca384d3	0.019960796
169	0x3c15dc38	0.0091467425
170	0xbcd58b9e	-0.026067551
171	0xbcd64e9e	-0.026160534
172	0xbc7fc839	-0.015611702
173	0xbcc515f2	-0.024058316
174	0x3c79e041	0.01525122
175	0xbd05aebf	-0.032637354
176	0x3d2021ff	0.03909492
177	0xbc8f5e89	-0.017501133
178	0x3cdd21ad	0.026993597
179	0x3d193837	0.037407126
180	0x3c3b400f	0.011428847
181	0xbcf95734	-0.03043709
182	0xbc90d0ba	-0.017677654
183	0xbd056a92	-0.032572336
184	0xbc78f829	-0.015195885
185	0xbcb8178f	-0.022472171
186	0xbbc7f1d2	-0.0061018253
187	0xbcaa63b1	-0.02079949
188	0xbc17dec2	-0.009269418
189	0x3d453e1b	0.04815493
190	0xbc8ff4e1	-0.017572822
191	0xbcd7f577	-0.026362164
192	0x3c4dde7a	0.01256525
193	0x3c47310d	0.012157691
194	0x3d41feaa	0.047362007
195	0xbcdb90eb	-0.0268025
196	0x3c568770	0.013093814
197	0x3ace8493	0.0015756063
198	0x3ca19fba	0.019729484
199	0xbbc80144	-0.0061036665
200	0xbbe723ac	-0.007053813
201	0xbb422d00	-0.0029628873
202	0x3c9bf3dc	0.01903718
203	0x3d0e52a0	0.034746766
204	0xbb4af0d7	-0.0030966306
205	0x3c19b39c	0.009381201
206	0xbce6c860	-0.028171718
207	0xbd029f9a	-0.03189049
208	0x3a242b43	0.000626255
209	0x3b1ed4f4	0.0024235817
210	0xbb9dae75	-0.0048120567
211	0x3c9419eb	0.018078765
212	0x3cb7d3f0	0.022439927
213	0x3d030241	0.03198457
214	0x3c5ee3e3	0.013604137
215	0xbcca4955	-0.02469317
216	0x3c83f728	0.016109064
217	0xbd0a265e	-0.033727996
218	0xbc5048a3	-0.01271263
219	0x3ad335ac	0.0016114018
220	0x3c3b8fe3	0.0114478795
221	0x3aeb615c	0.0017958093
222	0xbd0cff15	-0.034422953
223	0x3cf7d797	0.030254168
224	0xbc9536bc	-0.018214576
225	0x3cc8303f	0.024437068
226	0x3b130884	0.0022435496
227	0x3c3d8459	0.011567199
228	0xbbd6b443	-0.0065522506
229	0x3ce568b8	0.028004035
230	0x3d0e6ac2	0.03476978
231	0x3cc1afd5	0.023643414
232	0xbc39a72b	-0.01133136
233	0xbbdb550b	-0.0066934875
234	0x3cecbcf3	0.028898692
235	0xbcf0f48b	-0.029413482
236	0x3c414a7e	0.0117975455
237	0x3bba9a6d	0.0056946785
238	0xbcef7dc6	-0.029234778
239	0xbca849c4	-0.020542987
240	0xbcfcca9b	-0.030858329
241	0x3ce8dcf7	0.028425677
242	0x3d011ffe	0.03152465
243	0xbc09c2b4	-0.008408237
244	0xbce802e8	-0.028321698
245	0xbc367837	-0.01113706
246	0xbabe10b4	-0.0014500828
247	0x3cad1674	0.02112887
248	0xbbf28120	-0.007400647
249	0xbc0d4e4f	-0.008624627
250	0x3c08a450	0.008339956
251	0x3c7244d0	0.014786914
252	0xbc895ca5	-0.01676781
253	0x3bf67253	0.0075209527
254	0xbd0b1089	-0.033951316
255	0x3cfdf845	0.031002173

conv_layer3.bias f4 [32]
0	0x3d0fc0ea	0.035096087
1	0x3d66952b	0.0562946
2	0x3d2cf5cd	0.0422266
3	0x3d2e0e8f	0.042494353
4	0xbac26643	-0.0014831502
5	0x3c0dbe67	0.0086513525
6	0x3bfad8b9	0.00765523
7	0xbc6cdb87	-0.014456636
8	0x3d5fd434	0.054645732
9	0xbc919f75	-0.01777623
10	0xbce8f4f7	-0.02843712
11	0xbc0d7103	-0.008632901
12	0x3d1551c4	0.03645493
13	0x3d1b71a1	0.03795016
14	0xbd0e6d22	-0.034772046
15	0xbc8133b0	-0.015771717
16	0x3ce550b4	0.027992584
17	0x3cadf55f	0.021235166
18	0x3d2155ba	0.039388396
19	0xbcb474b7	-0.02202831
20	0x3caaa7d3	0.020831978
21	0x3ce33dc8	0.02773942
22	0x3c339a4a	0.010962078
23	0xbc90361d	-0.017603928
24	0xbd180840	-0.037117243
25	0x3cd24b4d	0.025670672
26	0xbcbf5ea7	-0.023360563
27	0xbd161043	-0.036636602
28	0xbd1b57e3	-0.037925612
29	0xbce39be1	-0.02778429
30	0x3d94e39b	0.07269975
31	0x3d254203	0.040346157

conv_layer4.weight f4 [64, 32, 3, 3]
0	0xbcbb0034	-0.022827245
1	0xbac60eb7	-0.0015110587
2	0x3d0fed90	0.035138667
3	0xbbff898c	-0.0077983793
4	0x3d272269	0.0408043
5	0x3d0c944c	0.034321114
6	0x3c76362a	0.015027562
7	0x3ca09d54	0.01960627
8	0xbd0fbce9	-0.03509227
9	0x3c6ded53	0.0145219145
10	0x3cc0c5bd	0.023531789
11	0x3a6e6aaf	0.00090948766
12	0xbc42a268	-0.011879541
13	0xba5dba61	-0.00084582536
14	0x3b85f413	0.004087934
15	0x3d2f98a8	0.042870194
16	0x3c9e4a10	0.019322425
17	0xbca25fd9	-0.019821094
18	0x39b68992	0.00034816243
19	0x3c5dcfa2	0.013538273
20	0xbd2c607a	-0.042084195
21	0xbc439e4c	-0.011939596
22	0xbd0f5516	-0.034993254
23	0xbcd5e5de	-0.026110586
24	0x3d071e12	0.03298766
25	0xbc733436	-0.014843991
26	0xbcb2bf9a	-0.021819878
27	0xbbf7da49	-0.0075638634
28	0xbcf762a9	-0.030198412
29	0x3cfb1df1	0.030653926
30	0xbb903d43	-0.004401834
31	0xbc416344	-0.011803452
32	0x3c20ad81	0.009806992
33	0x3d04bcb1	0.032406513
34	0x3c4fbd1b	0.012679364
35	0xbce6b48b	-0.028162261
36	0xbc441ea5	-0.011970197
37	0xbc40348f	-0.011731281
38	0xbcf39329	-0.029733257
39	0xbb7b5a71	-0.0038353468
40	0xbbfa0078	-0.0076294504
41	0xbcc20a4c	-0.02368655
42	0x3c91f836	0.017818552
43	0x3d1ab8d2	0.037773915
44	0xbcf514f0	-0.02991721
45	0x3d1e60d2	0.038666554
46	0x3cecff06	0.028930198
47	0x3d04acc1	0.032391313
48	0x3ca684ea	0.02032705
49	0x3c033f4a	0.008010695
50	0x3d104a24	0.035226956
51	0xbaf76884	-0.0018875753
52	0x3cf898b6	0.030346256
53	0xbc4006b8	-0.011720352
54	0xbbfdc761	-0.007744715
55	0xbd03810b	-0.032105487
56	0x3c575f4d	0.01314528
57	0x3c9e28c4	0.019306548
58	0x3c585686	0.013204223
59	0x3bf64331	0.007515334
60	0x3c35e08a	0.011100898
61	0xbcba6e62	-0.022757713
62	0x3c257ef3	0.010101068
63	0xbcced152	-0.025246296
64	0xbd0e8793	-0.034797262
65	0x3b639722	0.0034727533
66	0xbc4ba811	-0.012430207
67	0x3cef4260	0.029206455
68	0x3caedeaf	0.021346418
69	0xbc1d3186	-0.009594327
70	0xbb787704	-0.0037912736
71	0xbc728292	-0.014801638
72	0xbbef8703	-0.007309796
73	0xbc89d09a	-0.016823102
74	0x3ca970dc	0.020683698
75	0xbc45b485	-0.012066965
76	0xbcb82e1f	-0.02248293
77	0xbd0aff05	-0.03393461
78	0x3cfba86b	0.030719956
79	0x3c947863	0.018123811
80	0xbd036f75	-0.032088716
81	0xbcb70fcc	-0.0223464
82	0x3cdb13f1	0.026742907
83	0x3ca4910c	0.020088695
84	0xbcba9990	-0.022778302
85	0xbd03c8a2	-0.03217376
86	0x3cdf6da3	0.027273959
87	0x3d0123b6	0.031528197
88	0xbc14d57d	-0.009084103
89	0x3cadf56a	0.021235187
90	0x3bf1346c	0.0073609855
91	0xbcf7cd11	-0.03024915
92	0x3cae056b	0.021242818
93	0xbc9ba80b	-0.019001028
94	0x3d058bf8	0.032604188
95	0xbcdf0f0f	-0.02722886
96	0x3bcd2b1f	0.006261244
97	0x37eecff8	2.8468654e-05
98	0xbc0219c9	-0.007940718
99	0xbcea06a2	-0.028567616
100	0x3cadd776	0.021220904
101	0xbce4eccf	-0.02794495
102	0xbd048d0a	-0.032361068
103	0x3cccb47f	0.024988411
104	0x3d0c1d0a	0.03420738
105	0xbc55c28e	-0.013046874
106	0xbcadce03	-0.021216398
107	0xbca52fb4	-0.020164348
108	0x3ca88b57	0.020574255
109	0xbc3d17c9	-0.011541315
110	0xbd1b469a	-0.037909128
111	0x3ca76367	0.02043314
112	0x3bbd8a93	0.0057843416
113	0x3c800617	0.015627904
114	0x3cf0d312	0.029397521
115	0xbc4086af	-0.011750861
116	0xbcc7c86e	-0.024387565
117	0xbd1bca2c	-0.038034603
118	0xbc5be08d	-0.013420236
119	0xbd09a866	-0.033607863
120	0xbc2cf00b	-0.010555278
121	0xbcd13a9b	-0.02554064
122	0x3cf078e4	0.02935452
123	0x3c85805e	0.016296562
124	0xbd10598a	-0.03524164
125	0x3c18ee14	0.009334106
126	0xbd16f4d9	-0.0368546
127	0x3be11c44	0.0068698246
128	0x3cf07d25	0.029356549
129	0x3d0941b8	0.03350994
130	0xbb406e5d	-0.0029362657
131	0x3d05c369	0.03265706
132	0xbc824405	-0.015901575
133	0xbc5bf1a7	-0.013424314
134	0x3d14f625	0.036367554
135	0x3c28177a	0.0102595035
136	0x3c746ba6	0.0149182435
137	0xb93e800a	-0.0001816751
138	0xbce6cd34	-0.02817402
139	0xbd002016	-0.0312806
140	0x3c4450ba	0.011982137
141	0x3c73709a	0.014858389
142	0x399e02f6	0.00030138314
143	0xbcb17f2a	-0.021667082
144	0xbbceb03a	-0.006307629
145	0x3a52fcb0	0.00080485176
146	0xbbd8b665	-0.00661354
147	0xbb65f1bc	-0.0035086712
148	0xbc6d7de7	-0.0144953495
149	0x3c9f060e	0.019412067
150	0xbce77957	-0.028256102
151	0x3c792cc1	0.015208424
152	0x3c98d066	0.01865406
153	0xbd0f8aa1	-0.035044316
154	0xbb8b0631	-0.0042426814
155	0x3c5dbb33	0.013533401
156	0x3b99b0db	0.0046902723
157	0x3ca9c40d	0.020723367
158	0x3cec4e63	0.028845971
159	0xbd18fede	-0.037352435
160	0x3d135dfc	0.035978302
161	0xbbcc7cae	-0.006240449
162	0xbcaad1d1	-0.020852001
163	0xbca467a0	-0.020068944
164	0xbbe40364	-0.006958412
165	0x3bafe30f	0.0053676437
166	0xbcea0ea0	-0.028571427
167	0xbc994cf7	-0.018713458
168	0xbcfc1390	-0.030771047
169	0x3b4c1350	0.003113944
170	0xbd0c90a0	-0.034317613
171	0xbbaeb004	-0.0053310413
172	0xbc2b4d7e	-0.010455487
173	0xbbdc94eb	-0.0067316196
174	0x3cbbf056	0.02294175
175	0x3d0886d9	0.033331726
176	0x3cb38e2a	0.021918375
177	0x3cfcdb4e	0.030866291
178	0x3c9d1a56	0.019177597
179	0xbc226f6f	-0.009914263
180	0x3c968b57	0.01837699
181	0x3b0f4f78	0.0021867435
182	0xbb973904	-0.004614951
183	0xbcaa6dee	-0.020804372
184	0x3d338e6a	0.04383699
185	0x3d15a265	0.036531825
186	0x3cce27d3	0.025165474
187	0xbb199923	-0.0023437224
188	0x3d11a136	0.035554133
189	0xbcbac45a	-0.022798706
190	0xbca07e89	-0.019591587
191	0x3cf1540e	0.029459026
192	0xbc10a6ab	-0.008828799
193	0x3c9c8eac	0.019111
194	0x3cff9da1	0.031203093
195	0x3cb67ab2	0.022275303
196	0x3cf2015e	0.029541668
197	0x3cf85cd9	0.03031771
198	0xbcf1048e	-0.029421117
199	0x3b99c843	0.0046930625
200	0x3bdb4ca3	0.0066924854
201	0x3c82e768	0.015979484
202	0x3d3502a4	0.04419197
203	0x3bd8747a	0.006605682
204	0x3c93e177	0.018051846
205	0x3d1dc6d4	0.038519695
206	0x3d249ff1	0.040191595
207	0xbc558cda	-0.01303407
208	0xbce3c6fd	-0.027804846
209	0xbcba3d05	-0.022734175
210	0xbbfd1fb0	-0.0077247247
211	0x3c1b22cb	0.0094687445
212	0x3ba2f467	0.0049729827
213	0xbca792f3	-0.020455813
214	0xbc29f82e	-0.010374112
215	0x3c85e5d8	0.01634495
216	0xbca19ef0	-0.019729108
217	0xbcd2096f	-0.025639264
218	0xbba4bc91	-0.0050273617
219	0x3ceeb13c	0.029137246
220	0xbccf7fa4	-0.025329418
221	0xbd139a66	-0.036035918
222	0xbc9e11fc	-0.019295685
223	0xbc0c4ad5	-0.008562763
224	0x3c112eca	0.008861253
225	0xbd2d2dc9	-0.042279992
226	0xbd0b0478	-0.03393981
227	0xbc6f35d8	-0.01460024
228	0xbc1647fa	-0.009172434
229	0xbd124d17	-0.03571805
230	0xbc9fd8f2	-0.019512627
231	0xbc909418	-0.017648742
232	0x3c654ded	0.01399563
233	0xba8a32a1	-0.0010543653
234	0xbcfae20f	-0.030625371
235	0xbc9abc84	-0.01888872
236	0x3c981d55	0.018568674
237	0xbcf9c578	-0.030489668
238	0xbc435a50	-0.011923388
239	0x3c73e5b4	0.014886308
240	0x3b8caae6	0.0042928336
241	0x3c8dbae2	0.017301027
242	0xbccc47b1	-0.024936529
243	0x3d18b887	0.037285354
244	0xbb567a15	-0.0032726575
245	0xbc45f7f3	-0.0120830415
246	0xbc843b16	-0.016141456
247	0xbc7ece72	-0.01555215
248	0xbc0d8928	-0.008638658
249	0x3c179d37	0.0092537915
250	0x3adef225	0.001700942
251	0x3b87b711	0.0041416963
252	0xbca91146	-0.02063812
253	0x3c0e5d55	0.008689244
254	0xbd0cd54c	-0.034383103
255	0xbcfa4095	-0.030548373

conv_layer4.bias f4 [64]
0	0x3d2e9928	0.04262653
1	0x3bac6ff8	0.005262371
2	0x3cfcf3b5	0.030877927
3	0x3d591207	0.052995708
4	0x3c7ac736	0.015306285
5	0x3c9af073	0.018913483
6	0xbcc26e7a	-0.02373432
7	0xbd3db4dc	-0.04631506
8	0xbc174af0	-0.009234175
9	0x3c978c23	0.01849944
10	0xbbbab1aa	-0.0056974487
11	0x3d152527	0.036412384
12	0xbb98ba1d	-0.0046608583
13	0x3cc21811	0.023693116
14	0xbd146b17	-0.03623494
15	0xbce40de7	-0.02783866
16	0xbd131c4d	-0.03591566
17	0x3beb2597	0.007176112
18	0xbd032c42	-0.03202463
19	0xbcd5d028	-0.026100233
20	0xbd290ef0	-0.04127401
21	0x3b811c85	0.0039401674
22	0xbd68a3d8	-0.05679688
23	0x3d1670db	0.03672872
24	0xbca60005	-0.020263681
25	0xbd4c18e5	-0.04982843
26	0x3c430ea5	0.011905347
27	0x3d0f578c	0.0349956
28	0x3d803a96	0.062611744
29	0x3c06fed8	0.00823947
30	0x3bda706d	0.006666234
31	0xbaff8dda	-0.0019497231
32	0x3d43a7ea	0.047767557
33	0x3bd77b61	0.006575987
34	0xbd07d7ae	-0.033164673
35	0x3a5f6ddf	0.0008523147
36	0x3bd992fb	0.006639836
37	0xbd1c1746	-0.038108133
38	0x3d4ab089	0.049484763
39	0xbcb122cf	-0.021623043
40	0x3d16344d	0.03667097
41	0x3c94b48b	0.018152496
42	0x3a7b7950	0.0009592967
43	0x3b8eb5b1	0.0043551554
44	0xbb3979f8	-0.0028301459
45	0xbc802a06	-0.015645038
46	0xbcd8af91	-0.026450904
47	0xbd0d42ac	-0.03448741
48	0xbc6c5b53	-0.01442607
49	0xbd222bb9	-0.03959248
50	0x3d0ece92	0.03486497
51	0xbc169a51	-0.009192065
52	0xbb7e98a4	-0.0038848305
53	0xbd13a000	-0.03604126
54	0x3cb8a488	0.022539392
55	0xbce48810	-0.02789691
56	0x3d5afb71	0.05346245
57	0xbce3dd67	-0.027815534
58	0xbcbdb710	-0.02315858
59	0x3c38ad00	0.011271715
60	0x3a0c5f98	0.0005354821
61	0x3d4681b4	0.04846354
62	0xba8d44ed	-0.0010777988
63	0x3ccd5792	0.02506617

conv_layer5.weight f4 [64, 64, 3, 3]
0	0x3c2372d4	0.009976108
1	0xbc4e3337	-0.012585453
2	0x3c109897	0.008825443
3	0xbbc4a3f6	-0.006000991
4	0xbca0e74c	-0.019641541
5	0x3be80328	0.0070804544
6	0xbc81f4a7	-0.01586373
7	0xbbc46ab3	-0.005994165
8	0xbcaa7a2f	-0.020810215
9	0xbbdf490f	-0.006814129
10	0x3ba5526e	0.005045227
11	0x3cd0e477	0.025499566
12	0xba90d214	-0.0011048936
13	0xbbac633d	-0.0052608536
14	0x3cb882c5	0.022523293
15	0xbc5cfd56	-0.013488134
16	0x3cd50826	0.026004862
17	0x3b656b7e	0.0035006697
18	0x3b5bb63c	0.0033525368
19	0x3cb8c0ec	0.02255293
20	0x3cd29f2f	0.02571067
21	0xbc4dffd1	-0.012573198
22	0xbc692ad6	-0.014231404
23	0xbbc7f09d	-0.0061016814
24	0x3cccbf95	0.024993697
25	0xbbf44448	-0.007454429
26	0x3c8c7276	0.017144423
27	0x3cd1b513	0.025599038
28	0x3c683978	0.014173858
29	0x3b5ed93a	0.003400399
30	0xbcc21005	-0.02368928
31	0x3c22c806	0.009935385
32	0xbc3a95b2	-0.011388229
33	0xbc802085	-0.015640507
34	0x3c8732b3	0.016503667
35	0x3b2d3793	0.002643083
36	0xbcd8c16e	-0.026459422
37	0xba4e88b2	-0.00078786456
38	0xbb733afb	-0.0037114013
39	0x3cc3859e	0.023867425
40	0x3cda7c69	0.026670652
41	0xba591803	-0.0008281471
42	0x3ca7eabc	0.020497672
43	0x3c882b45	0.016622195
44	0x3cd02d21	0.025412144
45	0xbc4ff305	-0.012692218
46	0x3c9e3271	0.019311162
47	0xbc3ccd4a	-0.011523554
48	0x3c2b1d58	0.010444008
49	0xbcc9394b	-0.024563452
50	0xbcb4b0d2	-0.02205697
51	0x3cb01b97	0.02149753
52	0x3ba98950	0.0051738396
53	0xbc9d9851	-0.01923767
54	0x3caf0f77	0.021369679
55	0x3cbf1ded	0.0233297
56	0x3c6ae44a	0.014336655
57	0x3b923f29	0.0044630957
58	0x3c0229b0	0.007944509
59	0x3c9297f8	0.01789473
60	0x3b7bac68	0.0038402323
61	0x3c4c5279	0.012470835
62	0x3caeeb08	0.021352306
63	0x3c7fcfb0	0.015613481
64	0x3b6bc8c7	0.0035977827
65	0xbb78bc0c	-0.0037953882
66	0xba313e7f	-0.0006761327
67	0x3c5bfcfe	0.013427017
68	0xbca4e685	-0.020129452
69	0xbb092ec8	-0.0020932425
70	0x3ca048d7	0.019565983
71	0xbcb26fce	-0.021781828
72	0x3c3361d2	0.010948615
73	0x3abbd593	0.0014330618
74	0x3c98794d	0.018612528
75	0x3c40fdea	0.011779288
76	0x3c3d1266	0.011540031
77	0x3bafd8de	0.0053664288
78	0x3bbf7578	0.005842861
79	0x3ca91576	0.020640116
80	0x3c1f5c81	0.0097266445
81	0xbc5ed7ea	-0.013601283
82	0xbca36ede	-0.019950327
83	0x3bf487d4	0.007462481
84	0xbbae6cbc	-0.0053230207
85	0x3cb8ca84	0.022557504
86	0xbcda6cbd	-0.026663179
87	0xbcd72c28	-0.026266173
88	0x3a1cfe89	0.00059888564
89	0xbcd27bd5	-0.025693813
90	0x3ae26008	0.0017271051
91	0x3ba9f002	0.005186082
92	0x3bfc3883	0.0076971664
93	0xbc9f6bba	-0.019460548
94	0xbcc1dbd9	-0.023664402
95	0xbcce1512	-0.025156531
96	0x3c42169b	0.01184621
97	0xbb2c4b76	-0.0026290095
98	0xba4601bf	-0.0007553361
99	0x390db844	0.00013515452
100	0xbca639eb	-0.02029129
101	0x3c951992	0.01820067
102	0x3ccd9c67	0.025098993
103	0x3b9833ca	0.0046448456
104	0xbc7e10a3	-0.015506896
105	0x3cd8e31c	0.026475482
106	0xbc856359	-0.016282724
107	0x3cd0b50d	0.025476957
108	0xbc8c9f59	-0.017165827
109	0xbbf78d45	-0.0075546824
110	0x3baad843	0.0052137687
111	0x3c838af1	0.016057463
112	0x3b0df1f1	0.00216591
113	0x3cbb7b3a	0.022885907
114	0x3c272ce8	0.010203578
115	0xbae1206c	-0.00171758
116	0xbcb1604e	-0.021652367
117	0x3c11c330	0.008896634
118	0xbb560871	-0.003265884
119	0xbc9f2f38	-0.019431695
120	0xbcc5ae2d	-0.024130905
121	0x3b961c38	0.0045810007
122	0x3b512bdf	0.0031917018
123	0x3ab5b356	0.001386265
124	0xbcb935d9	-0.022608684
125	0xbc029f47	-0.007972545
126	0xbc80790b	-0.015682718
127	0xbc0744ea	-0.0082561765
128	0x3ca31021	0.019905152
129	0xbcad6b69	-0.021169381
130	0xbbc9763a	-0.006148127
131	0xb931c6af	-0.00016954051
132	0xbc2d18ec	-0.010565024
133	0x3b21d8e2	0.0024695923
134	0xbc560190	-0.013061896
135	0xbc6978c7	-0.014249987
136	0xbbc2b1ab	-0.00594159
137	0x3b836ae4	0.004010545
138	0xbc66f42a	-0.014096299
139	0xbcd8ec2d	-0.026479805
140	0x3c49f5ce	0.012326671
141	0xbbc96326	-0.0061458526
142	0xbbb57f4c	-0.0055388566
143	0x3987e23e	0.0002591777
144	0xbba4df99	-0.0050315377
145	0xbcd5f70f	-0.026118783
146	0xbb4388a9	-0.0029836094
147	0x3b763ccb	0.0037572857
148	0x3c8f4eb2	0.01749358
149	0xbb4bc20c	-0.0031091003
150	0xbc86e6f9	-0.016467558
151	0x3b1f68ac	0.0024323864
152	0x3cdb6f8f	0.026786594
153	0xbc82bff2	-0.015960667
154	0xbc80406e	-0.015655722
155	0x3c63f367	0.013913012
156	0x3c9b9ed0	0.018996626
157	0x3c680b03	0.014162782
158	0x3ca6280d	0.02028277
159	0xbc78677d	-0.015161392
160	0xbc9adcd2	-0.018904123
161	0xbbe1577f	-0.0068768854
162	0xbcb8f1e7	-0.022576286
163	0x3b48a748	0.0030617286
164	0x3c5b20ae	0.013374491
165	0x3c068440	0.008210242
166	0x3ca807ca	0.020511527
167	0xbbb105ea	-0.0054023163
168	0xb931308a	-0.00016898118
169	0x3cb3725a	0.021905113
170	0xbcaf7786	-0.021419298
171	0x3caa421d	0.020783478
172	0x3cd1d824	0.02561576
173	0xbcbcfb4c	-0.023069046
174	0xbc71cbc8	-0.014758058
175	0x3ab6c332	0.0013943671
176	0x3b9cf2f0	0.0047897026
177	0xbcd7d44a	-0.026346345
178	0x3cab5866	0.020916175
179	0xb9889fc3	-0.00026058973
180	0x3c80f701	0.01574278
181	0x3b238b87	0.002495499
182	0x3c793cc3	0.015212241
183	0x3c0fef66	0.008785104
184	0xbc16c955	-0.009203275
185	0xbc5e3aa2	-0.013563784
186	0xbc0178af	-0.007902308
187	0x3cac05d5	0.020998875
188	0xbbcd658f	-0.0062682102
189	0xbb83023c	-0.003998069
190	0xbc9aa124	-0.018875666
191	0x3c76f0ee	0.015072091
192	0x3af6fcae	0.0018843615
193	0xbc5e5664	-0.013570402
194	0xbbbb92e3	-0.0057242974
195	0xbb463987	-0.0030246691
196	0x3c26d43b	0.010182436
197	0xbcd85a27	-0.026410175
198	0xbbc7d965	-0.0060989135
199	0x3cd8e99e	0.026478585
200	0xbcdbd083	-0.026832825
201	0xbc5fd122	-0.013660701
202	0xbc573ff8	-0.01313781
203	0xbc86841e	-0.01642042
204	0xbc82ba4c	-0.015957974
205	0x3cb6967c	0.022288553
206	0xba7234c7	-0.0009239432
207	0x3b7b93df	0.0038387699
208	0x3b43d47d	0.0029881292
209	0xbbefe309	-0.007320766
210	0x3cd499f9	0.025952326
211	0xbc695635	-0.014241745
212	0x3cc3e71b	0.02391391
213	0x3b48ca3e	0.0030638124
214	0x3c8a1242	0.01685441
215	0x3c475cdc	0.0121681355
216	0x3aef30e8	0.0018248828
217	0xbc6e4cf5	-0.014544715
218	0xbcc177a9	-0.023616629
219	0xbccebe58	-0.025237247
220	0x3cd2630c	0.025681995
221	0x3b4f5dbb	0.003164156
222	0x3c6c3441	0.014416755
223	0x3cd3f694	0.025874414
224	0xbbc16dcb	-0.005902981
225	0xbca81c7c	-0.020521395
226	0x3bc30862	0.005951927
227	0x3cd64407	0.026155485
228	0x3ba0b7d7	0.004904728
229	0x3ca6f8de	0.020382341
230	0xbc560aec	-0.013064127
231	0xbcc49b55	-0.02399985
232	0xbcaa8e56	-0.020819824
233	0xbcb89b6b	-0.022535047
234	0xb9c0cf21	-0.00036775417
235	0x3ac126e3	0.0014736321
236	0xbccd3451	-0.02504936
237	0xbcbf5a84	-0.02335859
238	0x3cc0aa68	0.023518756
239	0x3abc58dc	0.0014369744
240	0xbc5c0fc8	-0.013431497
241	0x3cd80208	0.026368156
242	0xbccb69b4	-0.024830677
243	0xba888f17	-0.0010418621
244	0x3c0fbc5e	0.008772938
245	0x3b874fac	0.0041293707
246	0xbc331b3d	-0.010931787
247	0xbcd0d611	-0.0254927
248	0xbc6535ea	-0.013989905
249	0xbc058fe1	-0.008151979
250	0x3ccef200	0.025261879
251	0xbc2ffc6b	-0.0107413335
252	0xbaf18113	-0.0018425308
253	0x3bdb99b0	0.0067016706
254	0xbc119638	-0.008885913
255	0x3c69b915	0.014265318

conv_layer5.bias f4 [64]
0	0xbbc15013	-0.005899438
1	0x3d3bdf17	0.045867052
2	0xbb894023	-0.004188554
3	0xbbf04234	-0.007332111
4	0xbcb7cb74	-0.022435881
5	0xbcd5c33c	-0.026094072
6	0x3d1f0a08	0.038827926
7	0xbc25aad9	-0.010111534
8	0x3b56aa1f	0.0032755209
9	0x3b8be5af	0.004269324
10	0x3beebc68	0.0072856434
11	0x3d506c6c	0.05088465
12	0x3c875042	0.016517762
13	0x3d194050	0.03741485
14	0x3cf01223	0.029305523
15	0x3dbb2038	0.091370046
16	0x3cd4073f	0.025882361
17	0xbba3682a	-0.0049867826
18	0xbca86951	-0.020558031
19	0xbca178cd	-0.019710923
20	0x3dd6476e	0.10462843
21	0x3bc92b54	0.0061391983
22	0x3d1bdd8a	0.038053073
23	0x3cf1bb90	0.029508382
24	0x3b83da49	0.0040238244
25	0xbc99dad2	-0.0187811
26	0x3d42b682	0.047537334
27	0xbca4ab4f	-0.020101218
28	0x3c03ff2f	0.008056446
29	0xbc934836	-0.017978769
30	0xbc90f16c	-0.017693244
31	0x3cb309a8	0.02185519
32	0x3bf939f3	0.007605785
33	0xbb8ad7aa	-0.004237135
34	0xbcdc3600	-0.026881218
35	0x3c577d8e	0.013152493
36	0xbcaa933f	-0.020822166
37	0x3a62b876	0.00086487026
38	0x3c377f74	0.011199821
39	0x3c38ea33	0.011286306
40	0xbc154c4f	-0.009112432
41	0xbc62b2fb	-0.013836618
42	0xbc9066f1	-0.017627211
43	0x3c8d6c5d	0.017263586
44	0x3c4f173f	0.01263982
45	0x3c49a332	0.012306975
46	0xbcb81570	-0.02247116
47	0xbcb7cc7d	-0.022436375
48	0x3bafe4b1	0.0053678383
49	0x3d1724fa	0.036900498
50	0x3c6ebbab	0.014571111
51	0xbcc71e75	-0.024306515
52	0x3cc0de35	0.023543457
53	0x3d30861a	0.04309664
54	0xbbed4c21	-0.0072417413
55	0x3c6fdcb8	0.014640026
56	0xbbab54de	-0.005228623
57	0xbcb87bca	-0.022519965
58	0xbc63aac5	-0.013895695
59	0x3d3089a0	0.0431
60	0x3cce899c	0.025212102
61	0xbc427521	-0.011868746
62	0x3d6ad5a0	0.057332635
63	0x3c06520e	0.008198274

fc1.weight f4 [128, 1024]
0	0xbc741317	-0.0148971295
1	0xbc490628	-0.012269534
2	0xbca1280b	-0.019672414
3	0x3c13a31b	0.009011055
4	0x3c188007	0.009307868
5	0x3bd99d0b	0.0066410354
6	0x3c1245f4	0.008927811
7	0x3c3edfe4	0.011650059
8	0x3c6d610a	0.014488468
9	0xbbaf58ba	-0.005351153
10	0xbc5cc022	-0.013473542
11	0xbb46e55f	-0.0030349118
12	0x3a0c51dc	0.0005352774
13	0x3c0fdbb6	0.0087804105
14	0xbbf93b4b	-0.007605945
15	0xbc8e5587	-0.017374767
16	0x3c63a18c	0.013893496
17	0x3c1f25cc	0.009713601
18	0xbc66ca5e	-0.014086334
19	0xbcb71510	-0.02234891
20	0xbc43e2d1	-0.011955933
21	0xbbb3f32c	-0.005491635
22	0x3c1b09be	0.009462772
23	0x3c524d98	0.012835883
24	0x3b75c6a7	0.003750244
25	0x3be9e9da	0.007138473
26	0x3c6cca0b	0.014452468
27	0x3c2ad507	0.010426766
28	0x3bbbe864	0.00573449
29	0xbc8fe764	-0.01756639
30	0x3ca05525	0.01957185
31	0x3cabf0ca	0.02098884
32	0x3be656d2	0.0070293928
33	0xbb8a0fac	-0.004213294
34	0x3bbfec8d	0.0058570565
35	0xbc1734ce	-0.009228898
36	0x3c6d6fe9	0.0144920135
37	0x3ca48269	0.020081716
38	0x3c13cab3	0.009020495
39	0xbc704eff	-0.014667272
40	0xbc92de76	-0.017928343
41	0xbc9bd5a5	-0.019022772
42	0x3c91da05	0.017804155
43	0x3c9cea47	0.01915468
44	0x3bd47154	0.0064832363
45	0x3ba490b8	0.0050221346
46	0x3c950183	0.018189197
47	0x3c1a78a2	0.009428175
48	0xbc94a2f4	-0.018144108
49	0x3c009f01	0.0078504095
50	0x3c7ac34a	0.01530535
51	0xbc89786f	-0.01678106
52	0xba7e26f6	-0.00096951367
53	0xbc9280c0	-0.017883658
54	0x3c40f108	0.011776216
55	0xbc6808d4	-0.014162261
56	0xbc584cf7	-0.013201944
57	0xbc9ee23d	-0.019394988
58	0xbb8708af	-0.004120908
59	0xbc8ec37b	-0.017427197
60	0xbc57506d	-0.013141734
61	0x3b156d82	0.0022800867
62	0xbc0697b5	-0.008214881
63	0x3c876b98	0.016530797
64	0x3c70ba97	0.014692924
65	0xbca327b5	-0.019916395
66	0xbc89fd8f	-0.016844539
67	0xba88f340	-0.0010448471
68	0x3bfe3418	0.007757675
69	0xbb0974f7	-0.0020974257
70	0xbc7096b2	-0.014684366
71	0x3b0d4685	0.0021556925
72	0xbad7bb38	-0.0016458994
73	0x3be6c39e	0.0070423624
74	0x3c9126b6	0.017718654
75	0x3c4ef926	0.012632644
76	0xbca3a3af	-0.019975511
77	0xbc25fb9c	-0.010130789
78	0x3c4ad1f3	0.012379157
79	0x3b892c6b	0.0041862032
80	0xbc9e8738	-0.019351587
81	0xbc24a827	-0.010049856
82	0xbc572507	-0.013131387
83	0xbc8569d2	-0.01628581
84	0xbb8efa5e	-0.004363342
85	0x3bdbf4df	0.0067125405
86	0x3c7ca035	0.015419056
87	0x3c497fe0	0.012298554
88	0xbc2fcc25	-0.010729824
89	0x3aef762e	0.0018269473
90	0xbc8e337f	-0.01735854
91	0x3c27b946	0.010237044
92	0xbbf4935c	-0.0074638557
93	0x3c9c5d77	0.019087536
94	0xbc6c015c	-0.014404621
95	0xbc0ee4e1	-0.008721561
96	0xbb0a78df	-0.0021129174
97	0xbc2e052b	-0.010621349
98	0xbc4504b1	-0.012025044
99	0x3b848274	0.0040438715
100	0x3c35b92c	0.011091512
101	0xbb7b915a	-0.0038386197
102	0xbb8fde4b	-0.004390513
103	0x3b320137	0.0027161369
104	0x3c9b5f3c	0.01896631
105	0x3babe6fe	0.0052460423
106	0x3bcce934	0.006253386
107	0xbb5c0141	-0.0033570083
108	0x3c89fc05	0.016843805
109	0x3c1d2ec0	0.009593666
110	0x3c9787d1	0.01849738
111	0xbc735e5e	-0.014854042
112	0x3c1c11ba	0.009525711
113	0xbbe374f0	-0.0069414303
114	0xbc05ba4b	-0.0081620915
115	0xbc1c15be	-0.009526668
116	0xbacc47e7	-0.0015585393
117	0xb9b54f13	-0.00034581925
118	0xbc9fb298	-0.01949434
119	0x3b9c4eba	0.004770127
120	0xbc9a31db	-0.018822601
121	0xbc05b6fd	-0.008161304
122	0x3c9a112a	0.018807013
123	0x3c33ac7a	0.010966415
124	0x3bbc8df1	0.0057542254
125	0x3c5a56de	0.013326375
126	0x3c43a25b	0.011940564
127	0x3bb54c1b	0.005532754
128	0x3c5aaee0	0.0133473575
129	0xbc5fea02	-0.013666632
130	0xbb88bcbc	-0.0041728895
131	0x3bb21c1c	0.00543548
132	0xbbb4cf73	-0.005517894
133	0xbaed4dc9	-0.0018104847
134	0xbae9083a	-0.0017778941
135	0xbc8dcc99	-0.017309474
136	0x3b267498	0.0025399085
137	0x3c8276e5	0.015925834
138	0x3c34a95b	0.011026706
139	0xba5cc3d4	-0.00084215146
140	0xbc23a1a6	-0.00998727
141	0x3c18be14	0.009322662
142	0x3c82b471	0.015955182
143	0xbc96af69	-0.018394189
144	0xbc8954bf	-0.016764043
145	0xbace54be	-0.0015741808
146	0xbabf3d59	-0.0014590427
147	0xbbd916e7	-0.0066250446
148	0x3c99d671	0.018779011
149	0xbb1da2d8	-0.0024053361
150	0x3bd684cf	0.0065465937
151	0xbbf64741	-0.0075158183
152	0xbb13a15d	-0.00225266
153	0x3ca3b966	0.019985866
154	0x3b6d8871	0.0036244655
155	0xbc85d689	-0.01633765
156	0xbc15773d	-0.009122667
157	0xbc15a617	-0.009133837
158	0xbc07495d	-0.008257237
159	0xbbe704c4	-0.0070501287
160	0xbba5a74c	-0.0050553437
161	0xbc0e6899	-0.00869193
162	0x3c000657	0.007814012
163	0x3c3778bc	0.011198219
164	0x3c715058	0.014728628
165	0x3c6697d9	0.014074289
166	0x3baf4e3a	0.0053499015
167	0x3c2094cd	0.009801102
168	0x3c49d013	0.012317675
169	0xbc9cc67d	-0.019137615
170	0x3b85a025	0.0040779286
171	0xbca049e1	-0.019566478
172	0xbc3c1575	-0.011479725
173	0xbc7465b4	-0.014916826
174	0xbc7f7b6f	-0.015593394
175	0x3c6cefd7	0.014461479
176	0xbca4f6c7	-0.020137204
177	0x3bfac9c8	0.0076534487
178	0x3c05dedc	0.00817081
179	0x3bb28a32	0.005448603
180	0xbbe1f15e	-0.0068952283
181	0xbb9411a7	-0.004518706
182	0x3c57a89a	0.013162756
183	0x3be186cd	0.0068825246
184	0xbc269d7a	-0.010169381
185	0xbc228e22	-0.009921582
186	0xbc9a85dd	-0.01886266
187	0x3c947d2c	0.018126093
188	0x378aa878	1.6529331e-05
189	0xbc7b5c64	-0.015341852
190	0x3c8aefe7	0.016960097
191	0xbc14b938	-0.009077363
192	0x3beaf713	0.007170567
193	0x3c9a7844	0.018856175
194	0xbb63b067	-0.0034742595
195	0x3c879975	0.016552666
196	0xbca23917	-0.019802613
197	0xbc82b6a9	-0.01595624
198	0xbb45f97d	-0.003020852
199	0x3c6520af	0.013984843
200	0xbc8abdc5	-0.016936192
201	0xbbb4426d	-0.0055010826
202	0xbc9d75c9	-0.019221203
203	0x3b9cf7d9	0.004790288
204	0xbc60fd4c	-0.013732266
205	0xbbb14904	-0.0054103155
206	0xbaa0544f	-0.0012232157
207	0x3c318fcc	0.0108375065
208	0x3b839151	0.004015126
209	0xbc2a0e5b	-0.010379399
210	0x3c7cac08	0.015421875
211	0xbbf36e12	-0.007428893
212	0x3c7a12d7	0.015263281
213	0x3c17e900	0.00927186
214	0xbbe6cf34	-0.0070437435
215	0xbc21aa68	-0.009867288
216	0x3bb6cb76	0.0055784537
217	0xbc360e56	-0.011111816
218	0xba282e14	-0.00064155576
219	0x3c2b2696	0.010446211
220	0x3c8925f1	0.016741725
221	0x3b409b91	0.00293896
222	0xbbe15578	-0.0068766437
223	0xbb76710d	-0.0037604005
224	0xbbb188af	-0.0054179053
225	0xbbfb3662	-0.007666395
226	0xbc30ad2f	-0.010783478
227	0xbc2f2be2	-0.010691615
228	0xbcaf0a79	-0.021367298
229	0x3c6dca04	0.014513496
230	0x3c0df51d	0.008664397
231	0xbca34a43	-0.019932872
232	0xbc0f9412	-0.00876333
233	0xbb8d3a20	-0.0043099076
234	0xbc81dd67	-0.015852643
235	0x3bde25b6	0.006779398
236	0xbc63fa02	-0.013914587
237	0xbb301a0c	-0.0026870994
238	0x3ba39dd0	0.004993178
239	0xbc915422	-0.017740313
240	0xbc8494d3	-0.016184246
241	0xbc0b3e16	-0.008498689
242	0x3c6fa45f	0.0146265915
243	0xbc2e587d	-0.010641214
244	0xbb9036ec	-0.0044010784
245	0xbbdf2106	-0.0068093566
246	0x3bf7598c	0.0075485166
247	0x3c66f32a	0.014096061
248	0xbbbc90c7	-0.0057545635
249	0xbc330df9	-0.010928624
250	0x3c5ada0e	0.013357652
251	0x3c9caed6	0.019126337
252	0xbc3788b4	-0.011202026
253	0xbc0eefe4	-0.008724187
254	0x3b613a15	0.0034366895
255	0xbbc0cc1d	-0.005883707
