local_files/SimpleCNN_ReLU_minimax.pt (torch, 817437 bytes, 22 tensors)

conv_layer1.weight f4 [16, 3, 3, 3]
000000 dc d0 19 bd f6 dd 6f 3d 83 bb c6 3c 61 1e 1f bd
       -0.0375527 0.058561288 0.024259334 -0.03884733
000010 f4 39 07 bd 96 55 48 b9 23 d8 fc bc fb d3 1e be
       -0.033014253 -0.0001910537 -0.03086478 -0.15510552
000020 2b a6 b2 bd bd 8f 23 bd 98 73 82 3d fc 50 dc 3c
       -0.087231 -0.039932 0.06369704 0.026894085
000030 6f bd e6 3d 6d 18 8e 3d 1a 68 b9 3d 1b 97 5b 3d
       0.112666 0.069382526 0.09053059 0.053610902
000040 6e 0c 59 bd 6f 6d 7a bd cd 25 ec bd 1d d7 1e bd
       -0.05299037 -0.06113952 -0.115306474 -0.038779367
000050 33 82 10 be d1 e6 ff 3c 92 62 87 3d 03 c4 ba 3c
       -0.14112167 0.031237992 0.06610598 0.022798544
000060 f0 19 09 3e ea 24 d1 3c d5 6d c0 bd 3a 35 aa 3d
       0.133888 0.025530297 -0.09395949 0.083109334
000070 68 0a 9a bd 12 a9 76 bc 92 78 bb bd d9 ab ad bd
       -0.07521516 -0.015054958 -0.09153856 -0.08480043
000080 21 ca 11 be d7 69 00 be c3 ec 2f bd 2f 34 3c 3d
       -0.14237262 -0.12540375 -0.042950403 0.045948204
000090 71 bf d4 3d 39 e3 b9 3d d3 fd 25 3e 74 6b 91 bd
       0.10388077 0.090765424 0.16210108 -0.07100573
0000a0 ad 66 14 3e ef 06 f7 3d a7 e1 28 be fd 23 b9 3c
       0.14492293 0.12061869 -0.1649233 0.022600168
0000b0 7f 3b 13 3e 2e fc 12 3d 94 bf b4 bd cc 4c 23 bb
       0.14378165 0.03588503 -0.08825603 -0.00249176
0000c0 55 ae 38 bd 6e a2 e0 3c cd b0 d9 bd 7d 5c 38 3c
       -0.04508813 0.027421203 -0.10629425 0.01125252
0000d0 b1 a2 22 3d cd ca 13 3d 8d 71 45 3d 6c 1e 92 bb
       0.039705936 0.036082078 0.048203994 -0.004459193
0000e0 f9 6c 0b 3e db 4a 22 be a4 e2 63 3c 9b e3 a7 3d
       0.13615789 -0.15848868 0.013909016 0.08197709
0000f0 a9 52 47 be 07 35 19 be 63 53 ec 3d 7d ac 59 3d
       -0.19465126 -0.14961635 0.11539342 0.053143013
000100 3a bb 2b be 1b bc df bd 70 ff 27 bd 42 a1 43 bd
       -0.1677064 -0.1092455 -0.04101509 -0.04776121
000110 6f b7 d0 bd a0 98 a0 3d b3 6c 1f be 73 f3 bf ba
       -0.10191237 0.07841611 -0.15568809 -0.0014644697
000120 ce 8b c5 3d e2 54 03 bd 6e cb f7 bc ec b4 e7 3d
       0.09645806 -0.032063372 -0.03024837 0.11313805
000130 1b f7 30 3e 52 2c 05 3d 5c 6f 1a 3e fc 8a 45 3d
       0.17281763 0.03251297 0.15081543 0.04822825
000140 ba d5 f6 3d 50 68 85 3c c7 dc 22 3d 1c d6 37 bd
       0.12052484 0.016285092 0.03976133 -0.044881925
000150 7a a1 23 bc 2c d5 5e 3e eb 7f 38 bb f4 44 7d bd
       -0.0099872295 0.21761006 -0.0028152417 -0.061833337
000160 0d 60 0d be 4a ed c3 3d 32 bf 81 bd 1e 74 77 3d
       -0.13806172 0.09566744 -0.06335296 0.060413472
000170 99 ad e7 3c e5 6a b3 bd 3a c7 ff 3d b7 41 f3 3c
       0.02828102 -0.08760623 0.12489171 0.029694421
000180 5e b4 c5 bd 71 cc 68 be f1 6a 97 bc 82 2e 5c bd
       -0.09653543 -0.22734238 -0.01848361 -0.05375529
000190 f5 8a 78 bb 7e fa 8c bd 18 69 0a 3b c2 2b 44 3e
       -0.0037924622 -0.06883715 0.002111977 0.19157317
0001a0 31 a1 6a 3d 12 bf 15 bd bb 33 0f be b4 e3 06 3e
       0.05728263 -0.036559172 -0.13984577 0.131728
0001b0 fb 4d d2 3b ab 0e ce bd 9c d4 95 bd fe 78 43 3d
       0.0064179874 -0.100613914 -0.07315943 0.04772281
0001c0 f9 b2 72 be 6e c3 73 bc 0f 06 6c 3d 23 73 f8 3d
       -0.23701085 -0.014878137 0.057622965 0.121313356
0001d0 4d 2b 26 bc 91 05 05 3e a0 7d 7c 3b ad 65 82 3c
       -0.01014216 0.12990405 0.0038527027 0.015917623
0001e0 f4 ef 7b 3d 4c 62 d8 bd 84 e7 6e 3d ae 28 5d bc
       0.061508134 -0.10565624 0.05832626 -0.013498468
0001f0 cb 9d 28 3e d9 93 ac 3d cb 46 e4 3c f0 4a 9a bd
       0.16466443 0.08426637 0.027865788 -0.075338244
000200 13 4a 24 bd 64 8e 49 3d 80 ef 70 be c0 c5 76 bd
       -0.040109705 0.04920806 -0.23528862 -0.060247183
000210 8d e9 2b 3c c5 d0 f7 3d 5b 46 34 bd d6 27 05 3e
       0.010492695 0.121003665 -0.04401241 0.13003477
000220 89 64 27 bd 92 0f ee bd d2 ec 92 b9 c2 2e f0 3d
       -0.040867362 -0.116240636 -0.00028023735 0.11727668
000230 78 83 07 be 99 dc 87 bd 02 e0 a7 3d e0 19 1d bd
       -0.13233745 -0.066338725 0.08197023 -0.038354754
000240 08 45 b1 3d ce 88 1d 3c 1c f6 26 bb 6a dc 6b bd
       0.08655745 0.009615136 -0.0025476282 -0.05758325
000250 b1 cb 22 3e c2 08 48 bd 6c 30 24 be b4 f9 01 3e
       0.15898015 -0.048836477 -0.16034096 0.1269291
000260 07 04 23 3d 0c da 5c 3a e8 18 b2 bd 00 a5 42 bd
       0.039798763 0.00084248255 -0.08696157 -0.047520638
000270 20 4d c8 bd e2 90 a2 3d 1f d0 a1 bd 65 0b a9 bd
       -0.097803354 0.079377905 -0.07901024 -0.082541265
000280 cd c5 e9 3d 53 01 4e 3d 0a 57 12 3d b1 b5 73 3d
       0.11414681 0.05029423 0.03572754 0.059499446
000290 f1 ed d8 bc fb 20 58 3e 4a 16 14 bd ff 74 36 be
       -0.026480647 0.21106331 -0.03615407 -0.17818068
0002a0 e2 cc b6 3d d4 4e 72 3b 1f 05 95 bd 15 be 45 bc
       0.08925797 0.0036973255 -0.072763674 -0.012069245
0002b0 d6 37 ca 3d 98 73 d4 bc 07 31 ed 3d 46 1d 5d bd
       0.09873931 -0.025934026 0.11581617 -0.053982995
0002c0 ae 4b 23 be 22 c6 e3 3c 06 18 19 bd f1 1b 8e bd
       -0.15946838 0.027804438 -0.037376426 -0.06938923
0002d0 43 bf e9 bd bd 57 23 bc 77 db 1b 3d 1e 3c e8 3d
       -0.114134334 -0.009969649 0.038051095 0.113395914
0002e0 5e c9 78 bd 0d 35 8d bd 50 90 0e 3d 73 68 cf 3b
       -0.060738914 -0.06894884 0.034805596 0.00632959
0002f0 86 cc 62 3d 87 2c 56 bd cd c4 2d bd 3f ba 90 bd
       0.05537083 -0.05228856 -0.042424012 -0.070667736
000300 6a 4b 9c 3d e5 4e 56 bd b9 d4 9d bd de 25 0a 3e
       0.076315716 -0.052321333 -0.07706589 0.13491008
000310 16 6a 90 3d 6b de ac 3d 8c 8f 6f bd 30 b6 77 3d
       0.07051484 0.0844086 -0.058486506 0.060476482
000320 d6 62 6c bc 59 62 0b bd 94 a1 89 bd f8 05 7f 3c
       -0.014427861 -0.03402934 -0.06720272 0.015565388
000330 d0 05 1b 3d 15 8b ef 3c 90 48 da 3d 93 7c e7 bc
       0.03784734 0.029241124 0.106583714 -0.028257644
000340 80 cb 31 3d be 08 f3 3d 80 5b b9 bd 69 90 76 bd
       0.043406963 0.11866902 -0.09050655 -0.060196314
000350 d3 a4 85 3d 59 b0 08 be 9a b9 be bd bc e6 fe 3d
       0.06525578 -0.13348521 -0.093127444 0.12446353
000360 ed 0a 80 3d 2f 38 97 bd bf ab 62 3b 16 63 33 bc
       0.06252084 -0.07383763 0.0034587232 -0.010948917
000370 ba 6f 00 bb 2c 24 13 3c 94 de d0 3d 72 d9 c0 3d
       -0.0019597844 0.008980792 0.101987034 0.094164744
000380 6e 3c ed bc ed 15 a3 3d ae ea c3 bd fc 5d f2 bc
       -0.02895948 0.079631664 -0.09566246 -0.02958583
000390 6e 54 a3 bd bb 0f 0b be 91 67 01 be 35 79 83 3d
       -0.07975088 -0.1358022 -0.12637164 0.06419603
0003a0 6f c7 13 bd c2 ab 06 be 87 51 eb 3d e0 0c 4e 3d
       -0.036078867 -0.13151458 0.114901595 0.050305247
0003b0 9d f9 61 3d a8 a4 f5 3c ac 8a a5 3c b3 b6 8a bd
       0.05516969 0.02998574 0.020207725 -0.06773128
0003c0 bc 3f 18 3e fa 4d a9 3d 56 b3 db bd 7c 74 e1 3d
       0.14868063 0.08266826 -0.10727565 0.11008546
0003d0 4a 16 8b 3d ef 0c be bc 0d ff 07 be a9 9e 83 bd
       0.06791361 -0.023199527 -0.13280888 -0.064267464
0003e0 3b 94 47 be e0 a9 b2 bb d4 e7 96 bc 20 c1 c9 bd
       -0.19490139 -0.0054523796 -0.018421091 -0.09851289
0003f0 f9 3f 8b bd 71 2a 88 3c 2a e6 9e 3c 90 de c2 bd
       -0.06799311 0.0166218 0.01939686 -0.09515107

conv_layer1.bias f4 [16]
000000 89 3a bc bc c7 8e db 3b 92 da 37 3c df cd 45 3b
       -0.02297713 0.00670037 0.011221545 0.0030182523
000010 88 01 29 3b f7 72 d3 3b 9e b0 db ba 63 a9 4f 3c
       0.0025788266 0.006452914 -0.001676101 0.012674662
000020 d7 03 6f bb 91 4a 18 bc 03 bb 8a 3c 6f 6c f3 3c
       -0.0036470795 -0.009295122 0.016934877 0.029714791
000030 26 9e 1d bc 61 b1 8d 3c 71 0f 9a 3c ec 0c cd bc
       -0.009620225 0.017296495 0.018806191 -0.025030576

conv_layer2.weight f4 [32, 16, 3, 3]
000000 68 d4 43 bc 64 60 8b 3c 99 4a 8a 3d 6f fb 1b bd
       -0.011952497 0.017013736 0.067525096 -0.038081583
000010 d5 a7 cc bc 7e 32 f6 3a 0e 7b 78 bd 63 1d b0 bc
       -0.024982372 0.0018783358 -0.06066423 -0.021498388
000020 05 8d b2 3c bc e4 b3 3c 2e 69 67 3d ad bb 83 3d
       0.021795759 0.021959655 0.05649679 0.06432281
000030 d0 6f e1 bb 24 b2 1e 3d 5a 23 17 3d 03 b1 9f bd
       -0.006879784 0.038744107 0.03689895 -0.07797434
000040 5d fc 9b bd 60 6d 7a bc 8e c3 d7 bc d5 ec 05 bd
       -0.07616494 -0.015284866 -0.026338365 -0.032696564
000050 f5 34 1b bd 34 da d6 b9 f4 d5 02 3d 00 11 2e bd
       -0.0378923 -0.00040979835 0.031942323 -0.04249668
000060 41 00 ba 3c 57 e0 a9 3c 32 03 68 3b 04 ce 89 3d
       0.0227052 0.020736856 0.0035402295 0.067287475
000070 59 da d6 bb b0 8f a0 3b 08 3d bf 3c 35 36 f0 3c
       -0.006556791 0.0048999414 0.023344532 0.029322723
000080 17 2d 4c bd 2c 4a ab 3b c8 20 d1 ba 75 c6 04 bd
       -0.04984769 0.005227348 -0.0015955204 -0.032415826
000090 53 cb 3d bd 72 36 aa 3c ce 3a 32 bd 43 5c b5 bc
       -0.046336483 0.020777915 -0.04351311 -0.02213872
0000a0 9f df ea bc 96 de b4 3c 6e 0d 35 bd 10 03 45 bc
       -0.028671084 0.022078793 -0.04420226 -0.012024656
0000b0 86 4b d7 3c 7f 88 10 3d 8b af bd 3b 28 65 87 bc
       0.02628113 0.035286423 0.0057887486 -0.016527727
0000c0 73 2a d3 ba 4a 21 f3 3b 20 c6 75 3c 69 a0 d0 3b
       -0.0016110673 0.00741974 0.01500085 0.0063667786
0000d0 24 47 27 bd 6c 39 00 3d 54 88 8b bc 9e d4 fd bc
       -0.04083933 0.03130476 -0.01703278 -0.030985173
0000e0 eb 40 c8 3a 00 c3 0f bd a1 03 79 3c ad d8 80 3d
       0.0015278136 -0.035098076 0.015198619 0.062913276
0000f0 c0 02 93 bb d9 15 a7 3c 62 7c c4 3a b6 c3 5a 3c
       -0.004486412 0.02039616 0.0014990682 0.013352325
000100 ef 43 f0 bb 3e 64 c7 bc 84 92 35 3a 0c 33 be 3b
       -0.007332317 -0.024339791 0.00069264346 0.005804425
000110 33 6d 32 bc 7a 2e 52 3d 4f d5 43 3c b3 79 2a bd
       -0.010890293 0.051313855 0.011952712 -0.041619968
000120 7c 07 85 bd 8c 5b 2f bd df a5 0c bd 73 41 56 3c
       -0.06495568 -0.042811915 -0.034337875 0.013077128
000130 f5 e3 00 3d 6f ac df 3c e2 e5 b5 3c e0 58 eb 3c
       0.031467397 0.027303902 0.022204343 0.028728902
000140 2b 8a 9b 3d 2f fc 0f bd ba bd e4 bc 7d 26 08 3d
       0.07594713 -0.03515261 -0.0279225 0.03323983
000150 41 43 89 bc 1d 42 47 39 07 59 d2 3c 34 ca 9e bc
       -0.016755702 0.00019002748 0.025677217 -0.019383527
000160 3a 96 48 3c 62 49 4a 3d e6 96 eb bb 7d 47 76 bc
       0.012242848 0.04938639 -0.0071896194 -0.015031693
000170 23 34 ed bc d8 dd f4 3c dc 28 cc 3b ea 19 0e bd
       -0.028955525 0.02989094 0.0062304568 -0.034692682
000180 d4 39 5c 3d 18 13 14 3d a7 ca 61 bc bb 22 57 3d
       0.053766087 0.03615102 -0.013781226 0.052523356
000190 73 88 ef 3a e4 28 49 3d 78 79 f1 bc dd c7 3f 3c
       0.0018274918 0.049111262 -0.029476866 0.011705366
0001a0 a9 f3 07 3d cd 4f 1b bd d0 02 71 bc f6 49 1b bd
       0.033191357 -0.0379179 -0.014710143 -0.03791233
0001b0 08 38 02 3b 95 c2 fe bc 04 13 52 bd 23 ae 35 3d
       0.0019869823 -0.031098643 -0.051287666 0.044355523
0001c0 79 5b 30 3c 88 4e a8 bc 76 a9 96 3d 4d 44 1c 3d
       0.010763996 -0.02054526 0.07356541 0.038151074
0001d0 9d 31 37 3c 91 e1 d7 bc 49 88 13 3c 67 a9 42 bc
       0.011181262 -0.026352676 0.009004661 -0.011881209
0001e0 74 7e 0f bd 89 0e 1b bd 33 cd 88 bc d1 7c 1a 3d
       -0.035032704 -0.03785566 -0.01669941 0.03771669
0001f0 10 27 0c 3c 29 01 81 bc 18 77 a6 bb f3 63 b0 bc
       0.008554235 -0.015747624 -0.005080115 -0.021532035
000200 a7 54 f9 3c 9f e3 cc ba 59 5a eb 3b 7d 42 57 bd
       0.030435873 -0.0015631801 0.007182401 -0.052553643
000210 42 eb 62 3d 54 10 c5 bb 3b 44 80 3c b9 36 d8 bc
       0.05540014 -0.0060139094 0.015657535 -0.026393281
000220 07 2d 40 3b 6e 0e 6c 3c ce ed 05 3c 51 db 94 3c
       0.0029323713 0.014407737 0.008174373 0.018170984
000230 ce 48 58 3a 60 86 90 bc 42 21 46 3c 5d 00 01 3d
       0.0008250595 -0.0176422 0.01209289 0.031494487
000240 0c b3 65 bc bd 60 28 3c 13 23 ca bb ed aa 6b bc
       -0.014019739 0.01027697 -0.006168732 -0.014384014
000250 ab 8f 06 3d 5b 4d d3 3b f5 50 29 3c 2c 51 9c bc
       0.032851856 0.0064484305 0.010334243 -0.019081675
000260 ed 54 96 bc 4c 74 10 3c db 4b 34 bd 59 a9 80 ba
       -0.018351043 0.00881679 -0.044017654 -0.0009816095
000270 3a 15 0d 3d 05 7a 37 bd ae 9f 76 bc 81 57 03 bc
       0.03444407 -0.0447941 -0.015052719 -0.008016468
000280 cd ed 5c 3c a8 4a b6 ba fa 72 a1 bc 78 96 17 3c
       0.0134844305 -0.0013907747 -0.019708145 0.009252183
000290 0d 40 c4 bd fe ba f7 3c b4 29 ce 3c 2d 7e 24 bd
       -0.09582529 0.030240532 0.02516637 -0.040159393
0002a0 b4 d1 b7 3c e8 bb 8b 3d 87 27 0f bd 19 b7 43 bd
       0.022438861 0.0682295 -0.034949806 -0.047782037
0002b0 73 ac 30 3c 55 90 17 3c 6a 6c 64 3c a5 24 4c bd
       0.010783303 0.00925072 0.013941864 -0.049839634
0002c0 2f 49 49 3d 10 af da bc dd e4 41 bd ae f7 af bc
       0.04914206 -0.026694804 -0.0473374 -0.021480408
0002d0 5f a1 53 3d 13 6b 12 bb 4f b7 0e bb 1d 06 53 bc
       0.051667567 -0.0022341653 -0.002177674 -0.0128798755
0002e0 2c 9e 1f 3d 58 f7 79 bd 76 1e 68 bb 86 3d 17 3d
       0.038969204 -0.0610269 -0.0035418547 0.036923908
0002f0 65 ec 9c 3b 35 d3 7f 3d 4c 3e 3b bd 69 12 1e 3d
       0.0047889226 0.062457282 -0.045713708 0.038591776
000300 9a 0e 97 3d ca 28 60 bd a2 e0 86 3c c8 32 bb ba
       0.07375832 -0.0547264 0.016464535 -0.0014282102
000310 11 26 30 bc 3d 60 f3 bb cb ed 89 3c 66 86 50 bc
       -0.010751263 -0.007427244 0.016837021 -0.012727356
000320 7c f2 16 bc c1 e9 d7 bb 0c 1a 23 bb 1c ff d1 bc
       -0.009213086 -0.006589145 -0.0024887351 -0.025634341
000330 7a aa 68 3b 67 35 9f bc ea 7b 2f 3d 90 7c ef bc
       0.0035502003 -0.019434644 0.042842783 -0.0292342
000340 06 d4 58 3a b1 fc d5 3b cd 87 8b bc 94 41 a2 bc
       0.000827134 0.0065303673 -0.017032528 -0.01980666
000350 19 e5 04 bd 7c 7b b9 3c f6 79 00 bd 27 8c 87 3c
       -0.032445047 0.02264189 -0.03136631 0.016546322
000360 d9 02 45 3b 67 f7 a6 bb 81 f8 38 bd 4b 8b ad 3b
       0.0030061512 -0.0050954106 -0.045158867 0.005296146
000370 c7 1d 15 3c f2 3e 5f bc 37 86 38 3a 3e c0 8d 3d
       0.009101338 -0.013625847 0.00070390425 0.06921433
000380 5a 75 9a 3a 9c 61 d8 bb d7 94 17 bd d0 c7 21 bd
       0.0011784241 -0.006603433 -0.03700718 -0.039497197
000390 af 9f 46 3d cd 82 2d bd 33 cb d4 3a ee 84 a8 3d
       0.04849213 -0.04236107 0.0016234874 0.08228479
0003a0 8a aa 5d 3c 04 e0 8e 3c 66 59 6a bc 98 5f 58 3c
       0.013529429 0.017440803 -0.014303541 0.013206385
0003b0 2a b1 cd 3c 2a f0 80 bb 04 3c a3 bc 68 9a c5 3c
       0.025108892 -0.00393488 -0.019926079 0.024121478
0003c0 d2 bb 2a 3b 9f c1 38 bd b0 87 4d b9 ef d1 79 bd
       0.002605189 -0.045106526 -0.00019600871 -0.060991224
0003d0 f5 12 bd 3c fc 52 ac bc 02 d7 70 3c a8 78 8f bc
       0.023080328 -0.021035664 0.014699699 -0.017513588
0003e0 d7 73 06 bc d2 e7 1a 3d 9f a5 04 bb 99 e6 86 3c
       -0.008206329 0.037818737 -0.002024032 0.01646738
0003f0 8f 67 ed bb ab 40 fb ba 24 66 4a 3d b7 e4 e0 bb
       -0.007245011 -0.0019169053 0.049413815 -0.0068632024

conv_layer2.bias f4 [32]
000000 49 a9 38 bc ba e9 01 3c 02 8c fc bb 9c 62 86 3b
       -0.0112708295 0.00792926 -0.00770712 0.0041011106
000010 f7 08 4e 3c 80 08 11 bc 6e d9 a8 ba 25 35 e1 3b
       0.01257538 -0.008852124 -0.0012882182 0.0068727904
000020 e2 50 5e bb 3b 16 40 3c 3a 29 24 bc 38 ea be ba
       -0.0033922722 0.01172405 -0.010019595 -0.0014565652
000030 83 55 41 bb a4 ec 6a bb 8f 32 9c bb 41 d2 0d 3a
       -0.0029500432 -0.0035846615 -0.0047667692 0.00054100534
000040 07 c1 1e 3b 5a 48 16 bc 6e e5 b8 3a 7f a4 1b 3c
       0.002422394 -0.009172523 0.0014106461 0.009499668
000050 86 64 cb 3b 7e db d1 3b 85 50 89 39 d1 fc 31 3c
       0.0062070517 0.0064043393 0.00026190668 0.010863499
000060 9a 23 0f 3c 31 d1 c2 ba 20 1d 45 bc 4b c0 e4 bb
       0.008736515 -0.0014863369 -0.01203087 -0.006980931
000070 d3 20 1f bc 47 c2 fb bb d3 7e 73 39 78 50 24 3b
       -0.009712416 -0.007683072 0.00023221532 0.0025072377

conv_layer3.weight f4 [32, 32, 3, 3]
000000 1b ed 10 bb 3e 87 1f 3c ff fa 23 3c 67 1d c9 bb
       -0.0022113982 0.009736834 0.010008573 -0.0061375382
000010 42 1d 06 3c 1d f1 32 3c 9b 25 41 3a e4 c4 0c bc
       0.008185687 0.010921744 0.00073679694 -0.008591864
000020 07 94 35 3c 89 e5 7d bc d3 4a a1 bc d9 45 81 bc
       0.011082656 -0.01549662 -0.019689 -0.015780376
000030 75 8b db bc 59 af 44 bc 57 3d 1c bc 10 a8 26 bd
       -0.026799897 -0.012004697 -0.009536109 -0.04068762
000040 33 ad e3 bc a8 e7 2e bc 70 75 8e 3c 2e 4f 62 bb
       -0.027792549 -0.010675348 0.017389983 -0.0034532058
000050 34 cb 83 bc f6 f3 f6 3c 65 a3 7d 39 62 a7 47 bc
       -0.016088106 0.030145627 0.0002418883 -0.012185903
000060 19 79 3d 3c 85 8d f7 bb 8c 66 93 bc 90 65 4b bd
       0.011564516 -0.0075547122 -0.017993234 -0.049657404
000070 c1 dc ff bc 09 17 79 bc 64 12 59 bd db 96 0c bd
       -0.031233193 -0.015203246 -0.052996054 -0.034323554
000080 82 94 d2 bc 69 43 32 bd 35 9b e6 bc 6c 5d 5f bc
       -0.02570558 -0.04352132 -0.02815018 -0.013633113
000090 46 ce 61 bc fb e3 2a bc bc c1 07 bb be 79 1c 3b
       -0.01378209 -0.010430331 -0.002071484 0.0023876275
0000a0 69 a8 61 3c 0a d5 ae 3b 0c 4f 67 bc 6e db 03 3c
       0.013773062 0.005335455 -0.014117967 0.008047922
0000b0 80 ce 7c 3c 49 11 2a 3c ad d3 35 bc 40 85 9f bc
       0.015430093 0.010380098 -0.011097831 -0.019472718
0000c0 7e b8 34 3c 79 78 d6 3a 30 0a 8c bc 65 65 a0 3c
       0.0110303145 0.0016362808 -0.017094702 0.019579599
0000d0 e9 04 a7 ba 8f 76 43 bc c8 d3 b3 3c 59 9b 2c 3c
       -0.0012742552 -0.011930122 0.021951571 0.010535085
0000e0 b0 f5 25 3c bc ae da 3b fb 96 1f 3c 44 ce 39 3c
       0.010129377 0.006673662 0.009740586 0.011340681
0000f0 2c 6b 4a 3a a8 c5 9b 3c 56 3c 84 3c 97 19 fe 3c
       0.00077216583 0.019015148 0.016142052 0.031018062
000100 b9 5c bb 3c be ed d8 3c 3a 22 dd 3c 6f 92 1a 3d
       0.022871362 0.026480552 0.02699386 0.037737306
000110 1b 23 c1 3c 46 15 29 3d 8d 5d 01 3d 18 7b e1 3c
       0.02357631 0.041280054 0.031583358 0.027524516
000120 79 74 65 3c a0 59 5e 3c a8 b4 2c 3b 6f 15 04 3b
       0.01400482 0.013571173 0.0026352797 0.0020154377
000130 08 5b 19 3b 60 a8 7b 3c 1b 16 e6 3c 97 d7 91 3c
       0.0023400206 0.015359968 0.028086713 0.017802997
000140 58 55 b6 3c 7c f7 5b bc cf b9 53 bb 01 c7 13 3a
       0.022257492 -0.013425704 -0.0032306795 0.0005637259
000150 88 23 f0 bc 20 b6 e6 bc 90 e7 de bb 58 29 8b bc
       -0.029313818 -0.028163016 -0.0068025067 -0.016987488
000160 f7 0c ac bc 76 d7 1e bd a3 20 34 3d b9 47 01 3d
       -0.021002276 -0.0387797 0.043976437 0.03156254
000170 9e 24 be 38 6b 51 f8 3c bd 1c 00 3d 24 d5 41 3c
       9.0667265e-05 0.03031226 0.031277407 0.011830602
000180 68 68 01 3d 75 80 84 3c f6 6a 8f 3b d9 75 45 3b
       0.03159371 0.016174534 0.0043767644 0.0030130057
000190 21 9f d6 38 65 44 6d 3c 9b 98 7b bc 5c e6 4d 3b
       0.00010233955 0.014481639 -0.015356208 0.0031417822
0001a0 67 42 77 3c 27 67 18 3c 81 7e 7e 3c 8a 91 ae 3c
       0.015091515 0.009301937 0.015533091 0.021309633
0001b0 8d 76 bc 3c 01 06 1d 3d 4a b5 14 3d e1 e4 86 3c
       0.023005748 0.038335804 0.036305703 0.01646656
0001c0 e5 c2 f3 3c d1 c7 0c 3d f4 b7 d4 3c 8c dd 0b 3d
       0.029756019 0.034370247 0.025966622 0.03414683
0001d0 6b 1a ee 3c cc 1f 9e 3b 56 97 a9 3c 70 0f d0 3c
       0.029065331 0.004825568 0.020702045 0.025397986
0001e0 72 77 f9 39 72 7c a5 3c 56 13 31 3d f7 5a 51 3c
       0.00047581975 0.020200942 0.04323133 0.012778035
0001f0 fa cc 4f 3c 48 e7 e8 3c bc c2 ab 3c 82 db 8f 3c
       0.012683148 0.028430596 0.02096688 0.017560724
000200 97 75 a6 3c e6 5c fe 3c 00 28 cc 3c 5c c6 86 3c
       0.020319743 0.031050157 0.024921417 0.016452007
000210 a2 a7 06 3d 5f 06 a5 3c 34 a3 0b 3b 2c 27 a3 3c
       0.03287471 0.02014464 0.0021306993 0.01991614
000220 0c 69 10 3d bc 96 a9 3c 5e 84 35 3c de 83 bd 3c
       0.03525643 0.020701759 0.011078922 0.023134168
000230 6d e4 a8 3c a5 2f ec 3c e1 d8 37 3d ca af 43 3d
       0.020616734 0.028831312 0.044884566 0.047775067
000240 ab 48 cb bc 38 2c 55 bc b0 0f 4f bc 88 8d 78 bc
       -0.024814924 -0.013011031 -0.012638018 -0.015170462
000250 7b be c8 bc b7 65 07 bc 0d 03 f7 bb 9c 47 8f bc
       -0.02450489 -0.008263997 -0.0075382055 -0.0174902
000260 d4 b2 ce ba 1f 8d a9 3c e5 81 83 3c 97 a5 51 bb
       -0.0015769848 0.020697175 0.01605315 -0.0031989568
000270 73 2b 3c 3d dc b8 e4 3c 6d ad a0 ba d0 c0 f1 3c
       0.045939874 0.02792018 -0.0012258716 0.029510885
000280 80 bb b8 3c 3b f9 1e 3c 47 8b fd 3c 51 02 5e 3c
       0.022550344 0.009702976 0.030950202 0.013550357
000290 f1 8e 43 bc d4 db b4 3c e0 ec 8e 3c da 74 4d 3b
       -0.011935935 0.022077478 0.017446935 0.0031350167
0002a0 9f 30 d7 3c 79 bf 23 3d 30 fe ba 3c e5 67 1f 3d
       0.026268302 0.039977524 0.022826284 0.03891744
0002b0 84 4f c3 3c 8d 10 3a 3c 60 92 3b 3d e5 21 09 3d
       0.023841627 0.011356485 0.04579389 0.03347959
0002c0 a6 13 33 3c 19 64 5b 3d fb 94 32 3d 03 bd c7 3c
       0.0109299775 0.053562257 0.04359911 0.02438212
0002d0 61 05 08 3d 15 8b 94 3c 05 18 e7 bb f7 68 0b 3d
       0.033208255 0.018132726 -0.007052424 0.03403565
0002e0 96 6d f7 3c 06 a5 24 3a 3b db 18 3d f1 de 8d 3c
       0.030203622 0.0006280694 0.03731845 0.01731822
0002f0 ec 21 5a 3c 65 2f 45 bc 54 b6 54 bc bb e2 31 bc
       0.013313752 -0.0120352255 -0.012982924 -0.010857279
000300 cd aa 3e bc 49 6f f7 b8 c0 ab e3 3b 42 69 65 ba
       -0.011637402 -0.00011798606 0.0069479644 -0.00087513414
000310 7a 2e aa 3b 8f 5e 4d bc 1c f6 6b bd 2b 07 14 bd
       0.0051935287 -0.012534752 -0.057607755 -0.03613965
000320 5b 5b 97 bc 1b 7e 80 bd 81 0a 1d bd 40 66 ad bc
       -0.018476179 -0.06274053 -0.038340095 -0.02116692
000330 09 3b 75 bd c4 eb 49 bd 2b a9 24 bd 5e 5c 4e 3c
       -0.059870753 -0.04929711 -0.040200394 0.012595264
000340 7c 92 6a 3c 9b 61 64 3c 8e cd b3 3c ce 12 8a 3c
       0.014317151 0.013939287 0.021948602 0.01685467
000350 a8 dc 40 bb 1e ab d4 3c 0d 9e 65 3c e9 40 ca bb
       -0.0029428396 0.025960501 0.014014733 -0.0061722887
000360 51 ca 8b bc 56 04 8e bc 9c 84 32 bb 47 40 84 ba
       -0.017064245 -0.017336052 -0.0027239686 -0.0010089957
000370 f1 81 e2 bc fb 3b 83 bc ba c0 0f bc 73 0d c1 bc
       -0.027649852 -0.016019812 -0.008773977 -0.023565983
000380 c6 dc 13 bd 58 4c 10 3a 81 3b 91 bc dc 08 44 bd
       -0.036099218 0.000550454 -0.017728569 -0.04786001
000390 b1 a1 aa 3c d1 a5 a7 bc 56 ef 30 bd ff 6d 9c 3b
       0.020829054 -0.02046481 -0.043197 0.0047738547
0003a0 9c f2 6d bc 0b e2 38 bd 21 49 66 3d cf 3d 26 3d
       -0.014523175 -0.045137446 0.056222085 0.04058629
0003b0 cc 5c 5f 3b 6e f9 66 3d 5f 8b 27 3d 92 d9 cc 3a
       0.003408241 0.05639022 0.0409044 0.0015628806
0003c0 7c 7e 61 3d 49 ff f8 3c 4f 5e 3b 3c 45 ba 92 bc
       0.055052266 0.030395167 0.011436059 -0.017911086
0003d0 56 72 2c bb 65 a0 e0 ba a4 bd 91 bb 99 de 34 bc
       -0.0026313267 -0.0017137645 -0.0044476558 -0.0110394
0003e0 6d d9 9a 3b 36 a5 6b bc ea 96 d1 bb d7 45 02 39
       0.004725626 -0.014382651 -0.006396164 0.00012423783
0003f0 8c 7e cc 3c c0 ec b4 3c 1a 09 5f 3c 42 ff b4 3c
       0.024962686 0.022085547 0.01361301 0.022094373

conv_layer3.bias f4 [32]
000000 28 cb c2 ba ee 2d 82 3a be 80 50 bb c4 60 08 3c
       -0.0014861571 0.0009931901 -0.0031815018 0.008323852
000010 7c 77 19 bb ce f2 36 b9 b1 01 f1 3b bd 85 3b 3b
       -0.0023417166 -0.00017447324 0.007354938 0.002861365
000020 8d ca 34 bb 7f e8 01 bc d2 ff ea 3b 37 77 4c 3b
       -0.002758655 -0.007928967 0.0071716094 0.0031198987
000030 85 6b 15 bc 01 cc 05 3b 2c 48 44 39 38 b8 37 3b
       -0.009119873 0.0020415785 0.00018718903 0.0028033387
000040 41 55 4a 3b 7b 40 9b 3b ac 3d 3d bb e8 2a ca 3a
       0.003087357 0.0047379113 -0.002887587 0.0015424164
000050 77 be f3 3b 52 36 db bb 39 99 8f 3b b0 9c d4 3b
       0.0074384767 -0.006689825 0.0043822792 0.006488405
000060 17 0d 01 bc 73 44 03 bb 58 b9 02 bc ac 18 5d bb
       -0.007876656 -0.0020029813 -0.00797876 -0.003373663
000070 2d 52 b2 3b 9a 2e 29 bb f6 b0 02 3a 6f 26 bf b9
       0.005441925 -0.002581513 0.00049854757 -0.00036458994

bn1.weight f4 [32]
000000 9e 3c 22 3f cb d6 51 3f 8e f3 df 3e 3a 1f f9 3e
       0.63373744 0.81968373 0.43740505 0.48656636
000010 23 be a4 3f 51 84 e6 3e 51 71 11 3f 28 6a 80 3f
       1.2870525 0.45022824 0.5681353 1.0032396
000020 67 ee 2c 3f 45 cf 13 3f 62 ad d1 3e 4c 25 06 3f
       0.67551273 0.57738143 0.40952593 0.5240066
000030 09 c1 b5 3f 57 1e e2 3e 7b 79 84 3f 43 97 44 3f
       1.4199535 0.44163772 1.0349573 0.7679331
000040 62 2e 0c 3f 3f e0 e0 3e a5 66 53 3f cf db 23 3f
       0.54758275 0.43921086 0.825785 0.64007276
000050 1c a4 e4 3e eb 06 14 3f 07 02 6c 3f 10 26 22 3f
       0.44656456 0.57823056 0.92190593 0.6333933
000060 e2 ba 05 3f a2 53 3f 3f f4 66 18 3f 43 20 11 3f
       0.52238286 0.7473699 0.59532094 0.5668985
000070 0b ef 2e 3f dd 37 d7 3e de b8 0a 3f f8 e2 87 3f
       0.683335 0.42034808 0.54188335 1.061614

bn1.bias f4 [32]
000000 a5 db 52 be 77 1f eb bd b5 ed ff bd 68 90 ac bd
       -0.205916 -0.11480611 -0.12496511 -0.08425981
000010 d6 89 fc bd ec 97 43 be 39 7a 69 be 7c a1 67 be
       -0.123309776 -0.19100922 -0.2280053 -0.22620195
000020 d4 84 fc bd cd d9 41 be 52 f6 cb bd b2 cb af bc
       -0.123300225 -0.1893074 -0.09959091 -0.021459434
000030 e2 b6 36 be 1c d1 b9 bd ef e3 4f be f2 79 c0 bd
       -0.17843202 -0.090730876 -0.20301794 -0.09398259
000040 47 d1 0e be 71 93 90 bd 02 55 d8 bd 9a 70 07 be
       -0.1394702 -0.07059372 -0.10563089 -0.13226548
000050 ea 47 b5 bd 71 87 63 bd 03 2d 35 be a9 26 b3 bd
       -0.08851607 -0.05554909 -0.17692952 -0.08747608
000060 f5 ff 0e be 4b 5f cd bd 7b 87 57 be 84 a2 f1 bd
       -0.13964827 -0.10027941 -0.21047775 -0.117985755
000070 e4 f8 8d be f7 a5 15 be e0 32 37 be cf da 08 be
       -0.2772895 -0.14614092 -0.17890501 -0.13364719

bn1.running_mean f4 [32]
000000 af f0 c9 bb 4e dc e7 3a 9c de 88 bc 54 af 5f 3c
       -0.006162725 0.0017689557 -0.01670771 0.013652641
000010 66 2b 70 bb 09 3e 93 3b b6 a4 cb 3c b7 0f a2 bb
       -0.0036646961 0.004493479 0.024858814 -0.004945721
000020 65 d4 c5 bb 4e 80 1d bc cc 1d dd 3a 03 74 df 3b
       -0.0060372823 -0.00961311 0.0016869842 0.0068192496
000030 3d b2 15 bc 62 ca 8f 3b 92 d6 68 3b e7 3b 2e 3b
       -0.009136734 0.0043881396 0.0035528284 0.0026585998
000040 56 45 75 3c 15 a7 65 3b dd 2f 37 bb be 58 48 3b
       0.014970144 0.0035042216 -0.0027952113 0.0030570473
000050 af c1 ca 3b 76 90 23 bb 8c 62 65 3b 66 f4 43 3c
       0.0061876397 -0.0024957932 0.0035001365 0.011960125
000060 78 25 35 bc a6 a5 55 3b 5b b6 44 bb 10 72 95 bb
       -0.0110562965 0.0032599955 -0.003001592 -0.0045607165
000070 6b 57 5d bb 78 ab 1d bc 2c 24 59 ba bd 7c 44 bb
       -0.003377403 -0.009623401 -0.0008283283 -0.0029981576

bn1.running_var f4 [32]
000000 92 db 61 39 c6 63 ad 39 4a 03 c3 38 99 b3 f4 38
       0.00021539468 0.00033071468 9.298937e-05 0.00011668279
000010 f7 2a 3b 3a 6b 3c 31 39 48 03 23 39 61 e2 3d 3a
       0.0007139886 0.00016902543 0.00015546114 0.0007243511
000020 79 bb 90 39 3e 25 1d 39 67 26 09 39 30 89 55 39
       0.00027605498 0.0001498656 0.00013079644 0.00020364369
000030 2d 9b 97 3a 1f e7 38 39 0a e3 ad 39 77 35 78 39
       0.0011566632 0.00017633707 0.0003316629 0.0002367104
000040 29 1b 52 39 13 d5 02 39 db a4 19 3a a3 34 45 39
       0.00020037279 0.00012477142 0.0005861052 0.00018806993
000050 df 39 06 39 2e f9 3b 39 4a 49 c2 39 5f 38 60 39
       0.00012800795 0.00017926536 0.00037057168 0.00021383305
000060 db be 40 39 c9 b0 84 39 12 01 72 39 d4 f6 19 39
       0.00018381646 0.00025308717 0.00023079317 0.00014683168
000070 e2 86 ac 39 7b 64 2e 39 50 9f e8 38 c5 cd 04 3a
       0.00032906892 0.00016631365 0.00011092296 0.00050660624

conv_layer4.weight f4 [64, 32, 3, 3]
000000 3e a8 9a bd 8e e7 03 bd cd 70 3a bc 98 4e 50 bd
       -0.07551621 -0.03220325 -0.011379433 -0.050856203
000010 47 41 16 bc 5a fa e7 3b 80 9a 42 bd 3c 0e d7 ba
       -0.009170837 0.007079405 -0.047510624 -0.001640744
000020 88 6b 91 3b 42 e0 a2 3c 0a 41 00 bc 64 01 8d bc
       0.0044378676 0.019882325 -0.0078280065 -0.017212577
000030 ab 48 55 3d f0 ec 67 3c 43 35 2b 3b c8 e2 8d 3d
       0.052071255 0.014155611 0.0026124276 0.06928021
000040 75 98 f4 3c 4c ae 4a bb 7c 6b d8 3c fd 13 9b 3b
       0.029857853 -0.0030926643 0.02641844 0.0047326074
000050 62 d3 95 bc bd 72 06 3d f6 8c ba 3c 4d a0 8d 3b
       -0.018289272 0.032824267 0.022772294 0.004322088
000060 ab 21 8f 3c e5 27 5f 3c 80 dc 13 bb fa 91 4d bc
       0.017472109 0.013620351 -0.0022561848 -0.012547011
000070 75 ad 68 bc c8 f7 22 3b dd e0 96 bc 28 6c d7 bc
       -0.014201512 0.0024866927 -0.01841777 -0.02629669
000080 15 f9 a1 3a 77 72 53 bc c7 d9 04 bb 12 28 4f 3c
       0.0012357557 -0.0129057085 -0.0020271407 0.012643831
000090 7c f3 55 3d 27 41 bf 3c 08 ce 10 bd 44 e6 75 3c
       0.052234158 0.023346497 -0.035352737 0.015008513
0000a0 5c 1f 76 3c db 0f ac bc 19 fe 0b ba 37 27 56 3c
       0.015022125 -0.021003654 -0.00053402927 0.013070873
0000b0 d0 84 4b bc 25 b3 00 bc 68 9d 2d 39 c6 ea 0c 3c
       -0.012421802 -0.007855211 0.00016557204 0.008600896
0000c0 23 0b 80 bc 09 df 72 bc 7e 83 d1 3b 43 c9 10 bd
       -0.01563031 -0.014823684 0.006393849 -0.035348188
0000d0 74 8d 86 bc 4d fd 7b bc 18 9b 31 3c 57 37 49 3c
       -0.016424872 -0.015380216 0.0108402 0.01228126
0000e0 8e fb 42 bc 2a 8a ac 3c ef e8 4e 3c 41 56 f6 3a
       -0.011900796 0.021061976 0.012628778 0.0018794016
0000f0 a4 a2 11 3d 20 ad 19 3c 66 ce 17 bc ef 52 d3 bc
       0.035555497 0.009379655 -0.009265518 -0.025796382
000100 b3 5c 93 3c fd 26 64 bb 60 46 7d bb 19 4e 7b 3a
       0.017988538 -0.0034813278 -0.0038646683 0.00095865276
000110 9a 44 75 3c 6b 71 f5 3b 62 b0 13 bc 32 eb 8e 3c
       0.014969969 0.007490327 -0.009014221 0.017446134
000120 ab d2 71 3c 2e c9 f0 bc 7e 5c 88 bd 1f 98 ef 3b
       0.0147597 -0.029392805 -0.066582665 0.0073118354
000130 39 2d ea bc f7 82 95 bd e9 c7 86 3d 81 92 8f 3a
       -0.028586017 -0.0730037 0.065810986 0.0010953696
000140 c9 19 eb bc 87 b7 cb 39 cb d5 74 bc 54 21 1f bd
       -0.028698819 0.00038855916 -0.01494355 -0.038850144
000150 f4 45 fd 3b 08 f2 c5 ba a9 4f 58 bc 65 6b 92 3c
       0.0077292863 -0.0015102038 -0.013202586 0.017873475
000160 8a 3b ca 3b 96 7e 7f 3b f5 de 3e 3b 60 6d 3f bb
       0.0061716484 0.0038985363 0.0029124592 -0.002920948
000170 8c 6f a1 bc 34 a9 8d 3c 5e 96 98 3b 15 29 ff ba
       -0.01970651 0.017292596 0.004656597 -0.00194672
000180 5c 34 ee 3c 7b a6 41 3c 50 12 8e 39 88 f1 53 3c
       0.029077701 0.011819477 0.00027097994 0.0129360035
000190 cf fd b5 3c 94 7c 12 bc 0e ea 1a 3c 56 45 fc 3c
       0.022215752 -0.008940835 0.009455217 0.03079478
0001a0 26 bd 3e 3c 59 cf 48 3c 75 c7 fe 3c 85 8a 63 3c
       0.011641776 0.012256467 0.031100968 0.013888006
0001b0 e0 27 12 bd cd de c9 bb 49 e1 61 bd 91 96 31 3c
       -0.03568256 -0.006160593 -0.05514649 0.0108391205
0001c0 ce 53 0c 3c e5 22 c0 3b 58 3e 07 bd d0 3d 95 bb
       0.0085649025 0.0058635348 -0.03301844 -0.0045544878
0001d0 24 92 14 3d bd ff 2c bd 2d 39 b4 bc 61 7e a5 bc
       0.036272183 -0.04223608 -0.02199992 -0.020201864
0001e0 b2 40 c2 bc 96 0f c6 3b a9 18 98 3c 68 dc 38 bc
       -0.02371249 0.0060443385 0.018566446 -0.011283018
0001f0 54 5b 9c 3c 2f 5d ab 3c c6 5e dd ba 9a 00 a0 3c
       0.019086517 0.020918457 -0.0016889207 0.019531537
000200 9f 10 9c 3c 92 cc db ba dc 9d 22 3c c6 f8 59 3c
       0.019050894 -0.0016769341 0.009925332 0.013303941
000210 48 4d 7c ba 30 e2 94 3c 8e 0d 2c 3d 93 74 b8 3b
       -0.0009624553 0.01817426 0.042005114 0.005629131
000220 19 ab 1b 3c 57 81 8b bc d4 11 80 3c 9e 39 45 3c
       0.009501242 -0.017029447 0.015633501 0.012037663
000230 ea 7a 05 bd 06 72 5a bb 0e 98 b1 bc 4a e1 c9 bc
       -0.032587923 -0.0033332123 -0.02167895 -0.024643559
000240 ea fb e5 bc 2f 34 ae bb 27 3f 3c ba 5f 37 8f bc
       -0.028074224 -0.0053162794 -0.00071810413 -0.017482458
000250 cc 61 2a bc d0 71 52 bc 9b 76 b2 bb 89 98 9a 3b
       -0.010399293 -0.012844518 -0.005446268 0.0047178906
000260 33 3e 2f bb bf eb eb bb 4b 56 f6 ba 5d 16 18 bc
       -0.0026739954 -0.007199734 -0.0018794028 -0.009282676
000270 58 a5 b4 ba 5c 3d 5c bb 4c 4a a5 bc 13 df 30 bc
       -0.0013782186 -0.003360591 -0.02017703 -0.010795373
000280 23 c4 5c bc 20 81 da bc ae 99 85 3a 78 35 b4 bc
       -0.013474497 -0.0266729 0.0010192895 -0.021998152
000290 fc cd 74 bd 0a fb 35 3d 85 2f bd 38 44 bc 28 bd
       -0.059766755 0.044428863 9.0210735e-05 -0.04119517
0002a0 03 7a 97 3d 1c 58 2f 3d c3 df 52 3b d1 2a b8 bb
       0.07396319 0.042808637 0.003217683 -0.0056203385
0002b0 48 a2 a5 bc 40 1c 16 bd a6 85 16 ba 90 31 b1 bc
       -0.020218983 -0.036648035 -0.0005741961 -0.021630079
0002c0 6f fb 00 bd 7e 4f 0b 3b 92 0d b1 bc d2 a6 c2 bc
       -0.031489786 0.0021257098 -0.021612916 -0.023761187
0002d0 c3 b2 f7 3b 00 69 88 bc e6 17 ec bc 3e 9e 77 3c
       0.007559152 -0.01665163 -0.02881999 0.0151134115
0002e0 f9 02 14 bc 22 3a e9 bc e3 e1 23 3b 5a fa 42 bc
       -0.009033912 -0.028470103 0.0025006465 -0.011900509
0002f0 94 57 9d bc 19 31 4e bc ea cb c3 bc 5f d1 ad bc
       -0.0192068 -0.012584948 -0.023900945 -0.021218
000300 45 23 1f bc d7 7f 71 bc 08 c3 9e bc c9 47 7f bc
       -0.009712999 -0.014739952 -0.019380108 -0.01558108
000310 c1 ca 89 3b 51 13 0e bb a8 d7 af bc 9b bf 75 bc
       0.0042050784 -0.0021678994 -0.021465138 -0.014999296
000320 08 a7 c1 bb 40 b1 d1 bb 17 e7 ff 3b f8 1c 02 bc
       -0.0059098043 -0.0063993037 0.0078095305 -0.007941477
000330 43 15 24 3b 58 2c d3 38 18 24 42 bc 26 0e 0b 3c
       0.0025037087 0.00010069524 -0.011849426 0.00848726
000340 51 1d 2b bc 49 1c 20 bd 84 99 45 3b b8 f3 ac bc
       -0.010444001 -0.039089475 0.0030151317 -0.021112308
000350 9b 95 79 bc c2 d8 4f bc 7a c9 f2 bc df 9a 8e bc
       -0.015233423 -0.012685956 -0.029637087 -0.017407833
000360 f3 e1 3e 3b 1f a1 97 3b b5 f1 04 bc 8e 3b 33 bb
       0.0029126375 0.0046273614 -0.008114268 -0.002734873
000370 b0 33 19 ba 40 87 93 bb d6 ad 2f 3c 82 d6 59 bb
       -0.0005844189 -0.004502207 0.010722598 -0.003323943
000380 38 95 3a 3c e3 9e 19 bd 53 4e fb bb ac ee 6b bc
       0.011388116 -0.03750504 -0.007669249 -0.0144001655
000390 cc a0 96 bb cb b8 77 bc f6 a0 1a bc 9d c5 45 3c
       -0.004596805 -0.015119742 -0.00943779 0.01207104
0003a0 2f 2e a5 bb 15 56 24 bc 38 a3 68 3c 76 24 6e bb
       -0.005040906 -0.010030289 0.014199071 -0.003633765
0003b0 e6 c6 0f bd ea e9 5e 3c be d3 6e bc fd da 01 bd
       -0.035101794 0.013605574 -0.01457685 -0.031702984
0003c0 fb 55 48 bb 42 fd cc bc 29 32 11 bd 9b b5 fe ba
       -0.0030568826 -0.025023106 -0.035448227 -0.0019432785
0003d0 14 03 87 bc 58 99 83 bc 66 2a 8f bb 8c f5 af 3b
       -0.01648096 -0.016064331 -0.004369068 0.0053698476
0003e0 4b 0f c5 3a 06 0c 5e 3c 63 cc 77 3c 22 0f c3 3b
       0.0015034465 0.013552671 0.015124413 0.0059527317
0003f0 06 92 d0 3b 74 c4 00 3c 41 a6 f8 3b ee 3e 54 3c
       0.0063650636 0.007859338 0.0075881784 0.012954457

conv_layer4.bias f4 [64]
000000 86 25 5c bb e0 a2 df bb d2 42 6d 3a f9 ff 1e bb
       -0.0033591702 -0.006824836 0.00090507895 -0.0024261458
000010 2b 34 13 bb 60 61 0f 3a 28 14 04 bc e5 9d c6 bb
       -0.0022461514 0.0005469527 -0.008061446 -0.006061303
000020 32 20 a0 3b 7d 40 8c bb 39 65 1a 3c ec c6 47 3b
       0.0048866505 -0.0042801485 0.009423547 0.0030483557
000030 b9 59 ae ba 49 9c cf 3b 16 56 ae ba 5a 63 da bb
       -0.0013301886 0.0063357693 -0.0013300802 -0.0066646757
000040 ae 32 91 bb 6a 81 d6 3a 77 55 ad 3b 97 b4 de bb
       -0.0044310903 0.0016365473 0.005289729 -0.0067964303
000050 2d 4c c9 3a 73 04 c8 bb fd 73 e8 bb 68 f4 22 bb
       0.0015357785 -0.006104046 -0.007093905 -0.0024864916
000060 27 53 83 3b 90 79 38 bb 35 74 d9 3b 90 29 92 bb
       0.0040077153 -0.0028148629 0.0066361674 -0.004460521
000070 93 c5 1c bc 5e 14 d2 3b fb 76 03 bb 45 78 cd 39
       -0.00956859 0.0064111194 -0.0020059932 0.00039190255
000080 e1 a3 aa bb 49 d5 0b 3b b1 44 0f 3c bf a4 91 bb
       -0.005207524 0.0021336845 0.008744405 -0.004444688
000090 d4 7f 0c 39 f9 1f d1 bb 73 b0 10 bb 7e 43 fa bb
       0.0001339906 -0.0063819853 -0.0022077828 -0.00763744
0000a0 4b 2d ef ba 0b 34 04 3c 9b 10 2b 3a a7 bf 00 bc
       -0.0018247751 0.008069049 0.0006525607 -0.0078581935
0000b0 57 c8 e9 3b 75 fe c6 b9 7a 44 3b bb ce 61 0b bc
       0.007134478 -0.00037955088 -0.002857475 -0.008507205
0000c0 3f ed e8 bb 9a df 09 bc 2f 90 ca bb 92 3a 1b bb
       -0.00710836 -0.008415127 -0.006181739 -0.0023686034
0000d0 03 fc b9 3a ca 0c 47 ba 3f db 84 bb 07 10 02 bc
       0.0014189485 -0.0007593153 -0.0040544565 -0.0079383915
0000e0 97 64 c6 3a 97 6e 8e bb dc 28 e9 3b 23 48 4e 3b
       0.0015136179 -0.0043466794 0.0071154665 0.0031476102
0000f0 20 b8 0b 3c 98 59 a5 bb 3f b3 ad bb 85 d8 04 3a
       0.008527786 -0.005046081 -0.005300909 0.00050676643

conv_layer5.weight f4 [64, 64, 3, 3]
000000 93 75 ff bc b4 2f ab bc a5 02 be bc 88 05 f7 bb
       -0.031183993 -0.02089677 -0.02319462 -0.007538501
000010 61 b4 7e 3c 3f 06 64 3c e2 2f f8 3c 54 02 20 3d
       0.015545935 0.013917505 0.03029627 0.03906472
000020 75 e5 dc 3c 3e e7 12 3c 75 fc 52 bc fd c7 57 bc
       0.026964882 0.008966265 -0.012877573 -0.0131702395
000030 43 1e cc 3c 66 35 b6 ba 47 95 19 3c 23 39 87 3c
       0.024916774 -0.0013901412 0.009373969 0.016506737
000040 f5 c9 90 3b f4 78 34 3c 0d a6 89 bc 08 cd 89 bb
       0.0044186064 0.011015166 -0.016802812 -0.00420535
000050 15 92 1e bc a8 b8 82 bc 33 67 99 bc 88 1a c4 bc
       -0.009678383 -0.015957192 -0.018725967 -0.023938432
000060 27 55 b6 3b fc 6a 83 3b 74 69 34 bc 5b 13 4b 3c
       0.00556435 0.0040105563 -0.01101147 0.012394751
000070 97 a5 bb 38 af 29 48 3a 80 38 06 ba 5e b7 e6 ba
       8.9476984e-05 0.0007635606 -0.00051201135 -0.0017602255
000080 c7 a3 d0 3c 5f 7a 49 bc 08 e0 7b bc cb f6 da bb
       0.02546872 -0.012297242 -0.015373237 -0.006682252
000090 54 74 8a ba 54 4d b5 bc 78 9e cf bc d1 d6 77 ba
       -0.0010563233 -0.0221316 -0.025344118 -0.00094543124
0000a0 50 3d ff bb 0d 42 c3 bb 72 78 0f bc 8c c9 56 bb
       -0.0077892914 -0.0059588016 -0.008756744 -0.003277394
0000b0 6f 96 50 3c b5 f7 4b bc bf 85 ba bc b0 5f 43 bc
       0.012731179 -0.012449195 -0.022768853 -0.011924669
0000c0 1c 56 f3 3b 02 65 bc bb ce 06 83 bb a3 2a 50 bb
       0.0074260365 -0.0057493458 -0.003998614 -0.0031763695
0000d0 4d dd 90 bb 12 33 f8 bc 65 6e f9 3a c4 5b a6 bc
       -0.0044209124 -0.03029779 0.0019030093 -0.02030743
0000e0 8c 67 e0 bc 09 c3 2d 3c 19 f6 ee 3a 61 75 37 bc
       -0.027393125 0.010605582 0.0018231302 -0.011197419
0000f0 6d d8 90 3b b3 44 b3 3b 03 f2 36 3c 29 b7 3b bc
       0.004420331 0.005470836 0.0111660985 -0.011457243
000100 da e9 a7 bc d9 bf 12 bd 96 63 81 3c f6 33 47 3c
       -0.020497251 -0.03582749 0.015794557 0.012158385
000110 ed 03 5a 3c 65 af 87 bc 84 70 7d bc a6 0f d4 bc
       0.0133066 -0.016563127 -0.01546872 -0.025886368
000120 a9 27 28 3c 31 d5 96 ba c5 09 a7 bc d3 d7 fb 3b
       0.010263362 -0.0011507628 -0.0203904 0.0076856404
000130 a2 8c e2 3b ee b7 02 bb 8f bd 30 bc 97 74 da bb
       0.0069137374 -0.0019946056 -0.010787382 -0.0066667306
000140 3c ae eb ba f5 f3 f3 3b 57 8e c5 bb bd 83 71 bc
       -0.0017981003 0.0074448534 -0.006028931 -0.0147408815
000150 70 6b 64 bc 8e 6d 0e bb ec 57 c5 bc e7 88 83 3c
       -0.013941631 -0.002173278 -0.024089776 0.016056491
000160 8f e6 0e 3c da d4 08 3c 65 53 44 bc e7 5d 84 bc
       0.008721962 0.008351529 -0.011982773 -0.016158057
000170 45 86 a9 bc fb ac 61 bb e9 e1 6b bc 1e ae f8 b9
       -0.020693908 -0.003443538 -0.014397123 -0.00047431974
000180 4e 60 86 3a 01 bb f5 bb 1f ed 98 3b ec ef 8f bc
       0.001025209 -0.0074990992 0.004666939 -0.017570458
000190 92 e8 22 bc bd 2f 9e 3a e7 20 b9 3b f9 a6 7a 3c
       -0.009943144 0.001206867 0.005649674 0.015298598
0001a0 2e a2 7e 3c fb 8d 1f bc c6 fa 17 3c cf 35 1d 3c
       0.015541596 -0.009738441 0.009276098 0.0095953485
0001b0 c8 20 93 bb 2a 2c 25 bc a5 7b 9e bb 4a f3 10 bc
       -0.004489992 -0.01008133 -0.004836517 -0.008847067
0001c0 7b cc 38 ba 8c 9c 8d bb 70 8c 33 bb c4 ab b4 3c
       -0.0007049513 -0.0043216404 -0.002739694 0.02205456
0001d0 d9 54 5d 39 bb 9a 80 bc 03 09 92 bc a6 9d 38 bc
       0.0002110781 -0.015698781 -0.017826563 -0.011268055
0001e0 66 96 c4 bc 6b 9c 6f bc 6c 3c b6 3b ec 3f 91 3a
       -0.023997497 -0.014624695 0.005561402 0.0011081672
0001f0 fa e1 87 3c 4c c1 43 3d 07 3a 36 3a c8 f4 14 3c
       0.016587246 0.047791764 0.0006951396 0.0090915635
000200 4b c3 dc ba a5 dc c5 bc 84 06 09 bc b0 8e 2c bc
       -0.001684287 -0.024153063 -0.00836337 -0.010532066
000210 aa 9c 16 3c 65 50 75 3c 48 10 b1 3c da 5a 8f bc
       0.009192625 0.014972781 0.021614209 -0.017499376
000220 ca 63 98 bc be 99 e0 bc 07 3c b6 bc 3d c7 c6 bc
       -0.01860227 -0.02741706 -0.02224542 -0.024264926
000230 b9 7c 01 bd 25 02 c6 3b 07 7d 95 ba f6 5c aa 3a
       -0.031613085 0.006042736 -0.0011405059 0.0012997675
000240 2e 1c 5c 3b f5 c8 74 ba 5d aa 67 bc ee 88 24 bc
       0.0033586132 -0.0009337806 -0.014139739 -0.010042412
000250 5e da 83 bc 0b ed fa bc 4c e7 87 bb 3e 39 42 bc
       -0.016095337 -0.030630609 -0.004147446 -0.011854468
000260 0f 83 eb bc 1a 64 da 3c 6d 9d 9c 3c dc 05 7e 3c
       -0.028749017 0.02665906 0.019118035 0.015504327
000270 aa bd 98 bb a4 25 25 bb c6 38 34 bc f0 ce ad bb
       -0.0046612816 -0.0025199438 -0.010999864 -0.00530421
000280 d2 00 13 3a 94 75 80 bc ee 99 d5 3c 2d a9 c6 3c
       0.0005607727 -0.015681066 0.026074376 0.024250591
000290 70 be 09 3d d3 77 a4 bc a6 02 ea bb 29 5c 12 3c
       0.03362888 -0.020076668 -0.007141429 0.0089331055
0002a0 91 44 28 bd 2a bc ec bc 8a 13 46 bc 02 4b d2 3a
       -0.041081015 -0.028898317 -0.012089619 0.0016044083
0002b0 84 06 a9 3b c5 c0 ad 3b f9 90 13 3c e8 38 5a 3c
       0.0051582474 0.005302521 0.009006732 0.013319232
0002c0 ea 5f 50 3c 4a 6c 93 3b 4a 55 1c 3c 64 57 c9 3c
       0.01271818 0.004498993 0.009541819 0.024577804
0002d0 01 75 dd 3c 6d 7a ce 3c df ed 67 3b 46 2a b0 3c
       0.02703333 0.025204862 0.0035389585 0.021504533
0002e0 a1 8d cb 3c 9d a7 eb 3c a3 05 de 3b 2d 78 c5 3a
       0.024847807 0.028766448 0.0067755743 0.0015065722
0002f0 18 69 34 3c 34 80 b7 bb d9 49 af bb 8f 60 a0 bc
       0.011011384 -0.0056 -0.0053493795 -0.019577293
000300 a0 b1 c5 bc 65 15 f2 bb de 87 1b bd d9 58 b7 3c
       -0.02413255 -0.0073878043 -0.03797137 0.022381233
000310 01 59 ca 3c 47 51 1b bc e3 54 55 3b c0 6e f2 ba
       0.024700643 -0.009479827 0.0032551817 -0.0018496141
000320 a3 fd ad 39 1e 25 3a 39 d7 7b 8f bc 19 f9 29 b9
       0.00033186105 0.0001775217 -0.017515106 -0.00016209892
000330 3c d7 1f 3c 0e 36 63 bc 32 e7 11 3c f9 81 54 3c
       0.009755906 -0.013867868 0.008905219 0.012970441
000340 8a 3a eb bb 46 2d 32 b9 23 97 c0 ba 8b 8c 81 bc
       -0.0071786093 -0.00016992269 -0.001469348 -0.015814086
000350 77 26 0c bc 51 a1 a3 bb 02 32 26 bc 42 8a 01 bc
       -0.008554093 -0.0049935956 -0.010143759 -0.007906498
000360 b1 0c 2f 39 39 de 79 bb 82 e2 63 bb 61 77 55 bc
       0.00016694028 -0.003812684 -0.003477246 -0.01302895
000370 7f ff 91 bc 55 d1 d0 bb ed 1f 03 bc 48 4d 17 bc
       -0.017822025 -0.0063726106 -0.008003217 -0.009234734
000380 f1 e1 eb ba 52 c4 e5 3c ca f6 66 3c 42 70 7a bc
       -0.0017996413 0.028047714 0.014096925 -0.015285553
000390 a8 8b 97 3c e9 20 ca 3b 34 93 0e bc 82 17 6a 3c
       0.01849921 0.006168474 -0.008702088 0.014287831
0003a0 52 a0 d3 3b 1d f3 68 3b 5f e8 fe 3b c5 24 4e bc
       0.0064583207 0.0035545297 0.0077791656 -0.012582009
0003b0 7f 3d 02 bd c1 7a 8c bc 1c 80 81 bc a5 b9 cc bc
       -0.03179693 -0.017148377 -0.015808158 -0.024990866
0003c0 c2 50 47 3a b0 aa 2d bc 26 cf 75 bc 9b 5c cf 3c
       0.00076032814 -0.010599777 -0.015003001 0.025312712
0003d0 5e 27 95 3c 51 80 71 3c 1c a0 b7 3c 91 db 78 3c
       0.018207248 0.014740066 0.022415213 0.015189067
0003e0 af 96 aa 3c fc 09 12 bc 99 fb bf bc 57 96 ae bc
       0.020823805 -0.008913513 -0.0234354 -0.021311922
0003f0 f5 bd 51 3c 6d 91 6f 3b a3 56 ac bc 9a 6b 40 3b
       0.012801637 0.0036555186 -0.021037405 0.002936101

conv_layer5.bias f4 [64]
000000 32 b3 bd bb 10 92 d3 bb d8 21 0c bb b0 cb 42 3b
       -0.005789184 -0.006456621 -0.0021382477 0.0029723458
000010 86 ad 5c 3b 54 21 42 3b a1 e8 d0 ba a8 00 cf bb
       0.0033672764 0.0029621916 -0.001593847 -0.006317217
000020 00 4f 95 3b 72 dd 6a 3b 86 2a 3a bb 71 4e 21 3b
       0.0045565367 0.0035837558 -0.0028406694 0.0024613405
000030 51 70 d8 3b 84 c0 9c bb 49 de ac bb 04 c0 b9 3a
       0.006605186 -0.004783692 -0.005275522 0.0014171605
000040 27 64 55 bb f2 be 64 bb 55 2b a3 bb 69 50 e8 39
       -0.0032560916 -0.0034903851 -0.004979531 0.00044310399
000050 9f 8e 38 bb 1d 9b c5 3a 98 5d bd bb 6f 5a 0a 3b
       -0.002816118 0.0015076135 -0.0057789795 0.0021111032
000060 0f a8 63 3a 3f 3f ca 3a 38 2f f8 ba 7d 17 07 b9
       0.00086844055 0.0015430226 -0.0018934971 -0.00012883353
000070 ac ed 9c ba 91 18 48 bb db 22 8c 3b 38 95 8f 3b
       -0.0011972687 -0.003053222 0.004276616 0.004381802
000080 ba b8 01 3b 86 7d d2 ba de 89 9f bb a0 c1 ca bb
       0.0019793944 -0.0016059137 -0.00486873 -0.0061876327
000090 ef ca 60 3b 9e 6f 01 3b ed 4c 6b 3b b8 b6 cd 3b
       0.0034300645 0.0019750367 0.0035904006 0.0062778853
0000a0 81 bc a7 3b d0 94 9a 3b 64 75 0e 3b 13 c6 04 3a
       0.005118907 0.004717447 0.002173745 0.0005064916
0000b0 bd de d9 bb 9b a3 da bb 8d 80 47 ba 1b 88 c8 3b
       -0.006648867 -0.0066723353 -0.0007610403 0.0061197407
0000c0 c3 e9 02 3b eb 67 53 bb f0 0f 20 3b ab 3f a6 3a
       0.0019975759 -0.0032257985 0.0024423562 0.001268377
0000d0 2f 52 5d bb 65 6b ac 3a cb d1 28 3b 37 90 cf 3a
       -0.003377091 0.0013154565 0.0025759812 0.0015835826
0000e0 71 be f0 3a 71 ad 87 3a d4 f0 65 3a d7 f2 86 3a
       0.0018367303 0.0010351372 0.0008771543 0.0010295761
0000f0 9b f3 5a bb e0 ed 56 bb e1 ab 49 bb 21 23 3f bb
       -0.003340936 -0.0032795593 -0.0030772614 -0.0029165226

bn2.weight f4 [64]
000000 ea 5a 31 3f 18 25 35 3f 56 44 55 3f fb 4d 38 3f
       0.6927935 0.70759726 0.833074 0.7199399
000010 54 d7 13 3f 6f f7 48 3f 20 3f 26 3f ff 83 4b 3f
       0.5775044 0.78502554 0.6494007 0.79498285
000020 e4 78 73 3f 0b 56 41 3f f8 ad 53 3f de 44 4f 3f
       0.9510634 0.75521916 0.8268733 0.8096446
000030 50 32 72 3f ae f3 39 3f 18 9f 78 3f 62 e1 43 3f
       0.9460802 0.7263745 0.9711776 0.7651578
000040 06 64 87 3f ff 85 6c 3f 0a 98 49 3f 9f c0 99 3f
       1.05774 0.9239196 0.7874762 1.2011908
000050 a1 14 3f 3f 2f 57 41 3f a1 3b 27 3f 31 b4 79 3f
       0.7464085 0.75523657 0.6532536 0.97540575
000060 47 fa 47 3f ee 7d 48 3f 11 d9 4f 3f 6f 6a 4c 3f
       0.7811627 0.78317153 0.8119059 0.79849905
000070 bc 7f 39 3f 7d 08 43 3f fc ac 5c 3f 0d ba 57 3f
       0.7246053 0.7618483 0.86201453 0.84268266
000080 dd 0c 7a 3f 0e 7e 4a 3f b7 bd 5f 3f 97 14 1f 3f
       0.9767588 0.79098594 0.87398857 0.6214079
000090 b7 a9 2f 3f e7 a7 4f 3f a0 68 3e 3f c5 16 82 3f
       0.6861834 0.81115574 0.74378395 1.0163199
0000a0 b7 ba 32 3f 1b e2 70 3f eb cb 36 3f ac 41 59 3f
       0.69816154 0.9409501 0.71404904 0.8486583
0000b0 b1 7b 82 3f 3e aa 71 3f c0 94 35 3f 8c d2 46 3f
       1.0193998 0.94400394 0.709301 0.7766502
0000c0 d3 45 38 3f 18 77 92 3f 8a e2 29 3f 8b e0 2e 3f
       0.71981543 1.1442595 0.66361296 0.68311375
0000d0 d5 9e 29 3f c9 17 80 3f 92 4e 48 3f 54 40 62 3f
       0.66257983 1.0007259 0.7824489 0.88379407
0000e0 a0 b6 4d 3f 56 3f 4b 3f 7c f6 30 3f 61 0c 5c 3f
       0.8035679 0.7939352 0.69126105 0.8595639
0000f0 00 2f 59 3f e4 28 51 3f 96 a9 2b 3f 9f 0a 41 3f
       0.8483734 0.8170302 0.6705564 0.7540683

bn2.bias f4 [64]
000000 63 94 1a 3e ba ac 77 3e 8a 66 5e 3e 61 da 8e 3e
       0.15095668 0.24186984 0.21718803 0.27900985
000010 89 fc e7 3d e8 e9 da 3d d7 e4 43 3e bb 01 1e 3e
       0.11327464 0.10689145 0.19130264 0.15430348
000020 fc 10 a1 3d 4e 15 4d 3e db d9 98 3d 71 84 2b ba
       0.07864568 0.20027658 0.07463428 -0.00065428676
000030 52 0c b0 bc 8a 9a 1e 3e 69 57 25 bb 00 61 24 3e
       -0.02149025 0.1548864 -0.0025229102 0.16052628
000040 cf 02 9b 3d 64 80 61 3e 12 ad 2e 3e 81 36 df bc
       0.07568895 0.22021633 0.17058209 -0.02724767
000050 56 33 7e 3e 09 76 3a 3e be 83 8f 3e c5 f8 07 3e
       0.2482427 0.1820909 0.280302 0.13278492
000060 6a a7 2c 3e 4d 30 18 3e 5d 53 58 3e d0 6d f6 3d
       0.16860738 0.14862175 0.2112555 0.12032664
000070 08 44 de 3d fc fe 58 3e 7c ce f1 3d d3 ca 4a 3d
       0.1085282 0.21191019 0.11806962 0.049509834
000080 f0 16 9e 3d 16 7c 01 3e 47 72 2d 3e b2 2c ea 3d
       0.07719219 0.12644991 0.16938125 0.11434306
000090 32 8c 0b 3e ce 62 3d 3e 43 e3 09 3e bb 7b e3 3c
       0.13627699 0.18494722 0.134656 0.02776896
0000a0 ed 09 88 3e 7d 88 d7 3a b1 0d 97 3d ae 4c 0f bc
       0.26570073 0.0016443875 0.07375658 -0.008746309
0000b0 80 75 39 3d 18 f7 97 3d c2 07 2f 3e e3 16 32 3d
       0.045278072 0.07420176 0.17092803 0.043478858
0000c0 23 6a 48 3e 7f 9c 2c 3e c5 4e 29 3e 0c ea 49 3d
       0.19571738 0.16856574 0.16533954 0.04929547
0000d0 b8 ae 0f 3e 14 a0 87 3d b0 42 df 3c e1 13 8a 3d
       0.14031494 0.06622329 0.027253479 0.06742073
0000e0 5b f5 8c 3e 75 22 1a 3d 47 18 6a 3e 50 a5 5b 3e
       0.2753094 0.037630517 0.22860824 0.2144978
0000f0 ff e0 8d 3d e2 37 f6 3d 37 da 38 3e 68 2e 3f bd
       0.0692768 0.120223776 0.18051992 -0.046675116
